assets/models/asl_landmark_model_xy.tflite (tflite, 14612 bytes, 6 tensors)

arith.constant f4 [11, 42]
000000 34 cd 4c 3f 76 21 a6 3f ee 83 cc 3f 56 c6 af 3f
       0.80000615 1.2978961 1.5977762 1.3732402
000010 52 c7 84 3f 35 fc c7 3f da da a7 3f e6 ac 86 3f
       1.0373328 1.5623842 1.3113663 1.0521514
000020 7c 70 56 3f ce cd de 3f dc 38 dc 3f ad 86 c2 3f
       0.8376539 1.7406557 1.7204852 1.519735
000030 37 a2 a0 3f e3 f0 d9 3f 63 66 e3 3f b7 0b cd 3f
       1.2549504 1.7026638 1.7765621 1.60192
000040 b3 85 b5 3f 41 fe b7 3f 08 b1 be 3f 0c 69 a7 3f
       1.4181427 1.4374467 1.4897776 1.3078933
000050 79 a4 90 3f 53 55 c6 bc 95 77 33 bd 85 29 76 bd
       1.1300193 -0.024210608 -0.043815214 -0.06009819
000060 f5 af b0 bd fd 48 ba bd 9d 0e 63 b9 28 13 72 3b
       -0.08627311 -0.09095953 -0.00021653851 0.0036937688
000070 11 b5 0c 3d ba fe 38 3d f2 33 99 bc 30 63 2e bd
       0.034352366 0.0451648 -0.018701527 -0.04257506
000080 51 f2 ef bc 53 7b 1b bc 3c 79 58 bd 01 9b f2 bd
       -0.02929035 -0.009489852 -0.052849993 -0.11845971
000090 09 f5 14 be 17 53 fc bd 7a c5 ac bd 17 fa 0b be
       -0.14546598 -0.12320536 -0.08436103 -0.1366962
0000a0 64 f7 30 be 00 40 2a be 80 52 9f 3e 8e da a6 3e
       -0.17281872 -0.16625977 0.3111763 0.3258862
0000b0 69 63 65 3e 0e 87 9e 3d 1e 00 55 3c 8f b2 3f 3e
       0.22401203 0.077406034 0.013000516 0.18720458
0000c0 de 19 9a bb df 31 ab bd 42 c2 f1 bd ac 11 55 3e
       -0.0047027906 -0.083591215 -0.1180463 0.20807523
0000d0 ac 62 8f 3b 60 cb 93 bd 32 69 e5 bd 0b 17 5a 3e
       0.0043757763 -0.07216525 -0.11201705 0.21297853
0000e0 e0 bc 52 3d d0 b1 90 3c 29 3e 20 bc d2 a6 48 3e
       0.051449656 0.017662913 -0.009780445 0.19594887
0000f0 b1 72 c1 3d cc 58 81 3d fc e4 1e 3d 8b 45 48 3f
       0.09445704 0.06315765 0.038792595 0.78231114
000100 c0 8b 81 3f 58 ce af 3f 36 fd bc 3f b9 72 a7 3f
       1.0120773 1.3734846 1.4764774 1.3081886
000110 ed 21 db 3f e5 7f de 3f 0c 8e 9c 3f 7d 8b 48 3f
       1.7119728 1.738278 1.2230849 0.7833784
000120 ca 6b e7 3f f8 fd df 3f 07 64 92 3f 39 6a 3c 3f
       1.807977 1.749938 1.1436776 0.7359958
000130 a9 e4 e0 3f c4 03 dd 3f cc d6 b1 3f 97 64 89 3f
       1.7569782 1.7266774 1.3893676 1.0733823
000140 d0 a9 cb 3f e1 32 ce 3f 57 45 b0 3f 84 09 8f 3f
       1.5911198 1.6109277 1.3771161 1.1174779
000150 db 1e ba bf e1 0e 89 bf 18 4e c0 3d 9c b8 fe 3e
       -1.4540666 -1.0707666 0.09389895 0.4975022
000160 d3 1a ed 3e 52 d0 0a 3f de 7e ad 3f 33 76 b8 3f
       0.46309528 0.5422412 1.3554342 1.4411072
000170 b4 2d ad 3f 74 b1 4e bd 7e 47 2f 3f 51 e7 10 3f
       1.3529572 -0.0504622 0.68468463 0.5660296
000180 a3 f7 e8 3e 3d 54 35 bf 87 f2 91 be 15 be da be
       0.45501432 -0.7083166 -0.28505346 -0.42723146
000190 7a 2e e8 be d6 a7 96 bf 3e f2 5f bf b6 dc 46 bf
       -0.4534796 -1.176997 -0.8747901 -0.7768053
0001a0 ba 9d 2b bf 82 c5 f8 3f 24 f9 06 40 cc 3b e4 3f
       -0.67037547 1.9435275 2.1089563 1.7830749
0001b0 3b d3 3c 3f a6 47 ca bb 7d 81 b4 3f 14 33 6d be
       0.7375981 -0.006173092 1.4102017 -0.23164016
0001c0 d4 0b 45 bf 9b 0d 53 bf f4 e3 83 3f 54 e8 5a bf
       -0.76971173 -0.82442635 1.0303941 -0.85510755
0001d0 85 61 7f bf 7a 3a 59 bf 9d 93 44 3f 10 d4 33 bf
       -0.9975818 -0.84854853 0.7678774 -0.70245457
0001e0 78 86 21 bf f9 a3 ff be b1 03 2c 3f 51 e7 99 be
       -0.6309581 -0.4992979 0.6719313 -0.30059293
0001f0 24 a5 91 be f6 e9 62 be 02 50 7c bf 92 ab 3d bf
       -0.28446305 -0.22159562 -0.9855958 -0.7408992
000200 cc 53 aa 3e 30 7f a2 3f 9d c8 ab 3f 4b 17 2d be
       0.33267057 1.2695065 1.3420597 -0.16903417
000210 e3 23 87 3e 11 a1 f7 3e 96 e0 16 3f 80 a0 ca be
       0.26394567 0.4836507 0.5893644 -0.39575577
000220 25 2b ad 3e b7 70 21 3f c9 2f 4d 3f 5b de 2c bf
       0.3382198 0.63062614 0.8015104 -0.6752679
000230 71 03 f6 bd d3 32 9b be c9 7b c0 be 7a 58 60 bf
       -0.12012375 -0.30312213 -0.3759444 -0.87635005
000240 6d 89 27 bf 32 ac 5b bf 27 5e 72 bf bc cd 26 bf
       -0.6544407 -0.85809624 -0.94674915 -0.65157676
000250 f3 fc 8b be d6 a1 79 3e 27 1c 88 3e e6 6b 30 3e
       -0.27341422 0.24378142 0.2658398 0.1722866
000260 22 b8 86 bc 33 44 90 3f c1 64 fb 3f 6d f4 f6 3f
       -0.016445223 1.1270813 1.9640123 1.9293343
000270 56 3a 06 bf 56 78 39 3f 8b 93 c8 3f 49 e8 c7 3f
       -0.52432764 0.72449243 1.5670027 1.5617763
000280 1c 69 85 bf 43 b0 fc be 4d cd 44 be 22 55 03 bd
       -1.0422702 -0.49353227 -0.19218941 -0.03206361
000290 cb 35 b7 bf c0 77 9a bf 73 f9 95 bf 0a 13 8d bf
       -1.4313291 -1.2067795 -1.1716751 -1.1021435
0002a0 25 9d 69 bf 43 e9 cb bf 6b 2f 00 c0 a6 05 8b bf
       -0.9125541 -1.5930561 -2.0028942 -1.0861099
0002b0 1a ca a8 be 43 87 0c c0 32 88 83 bf 02 f0 c6 be
       -0.3296669 -2.1957557 -1.0275939 -0.38854986
0002c0 f6 69 b5 bd db a5 bd bf 85 d5 2e bd b0 83 1c 3f
       -0.08858101 -1.481624 -0.042684097 0.6113844
0002d0 5d 38 51 3f f8 2d 02 bf 65 08 53 3f 57 8b 93 3f
       0.8172663 -0.5085139 0.82434684 1.1526898
0002e0 9d e7 96 3f 16 45 b6 3e 0e 4d ab 3f 8c 60 d8 3f
       1.1789433 0.35599583 1.338289 1.6904464
0002f0 89 38 e7 3f e5 43 43 be f9 80 15 3e 85 a4 6a 3f
       1.8064128 -0.19068868 0.1459998 0.91657287
000300 fa bd bf 3f 57 06 ae 3f fb 14 47 3f b1 81 8c 3f
       1.4979851 1.3595685 0.7776639 1.0977079
000310 ed 3a 03 3f 27 0a 7e 3e 99 9b f3 3e 88 c0 d1 3e
       0.5126179 0.2480856 0.4757965 0.40967202
000320 5a 78 dc be ef b4 fc be db fd ac 3d 2a 13 3f be
       -0.4306057 -0.4935679 0.084468566 -0.18659654
000330 43 dd 7c bf a5 ee 86 bf 55 a5 82 be 62 10 c3 be
       -0.9877512 -1.0541579 -0.25516763 -0.38098437
000340 7c 47 30 bf d0 6e 20 bf da db dc bf 6e 43 f2 bf
       -0.68859076 -0.62669086 -1.7254593 -1.8926828
000350 4d 04 96 bf a7 6a 19 be a5 a4 c3 3e c5 c8 2e bf
       -1.1720062 -0.14982091 0.3821155 -0.682751
000360 6c 56 9b 3e 09 10 08 3f 2b cf 0b 3f e7 69 65 bf
       0.30339372 0.5314947 0.5461299 -0.8961472
000370 0e c0 f3 3e f0 77 47 3f 0c 51 44 3f 2d 7c 82 bf
       0.47607464 0.77917385 0.7668617 -1.0194145
000380 7a d3 ec 3e 39 94 64 3f a6 5f 76 3f 88 64 74 bf
       0.46255094 0.8928867 0.962397 -0.954659
000390 70 e5 5f 3e 3f fa 32 3f bd 01 52 3f a0 fb 78 3d
       0.21864867 0.69913095 0.820339 0.060786843
0003a0 91 58 5f be 4a db 6d bf ba ba ba bf 8a d5 d0 bf
       -0.21811129 -0.92912734 -1.4588234 -1.6315167
0003b0 47 3b 27 bf d0 fd 60 bf 98 6e 60 bf 48 4f 3e bf
       -0.65324825 -0.8788729 -0.8766875 -0.74339724
0003c0 82 19 d5 be 19 74 a0 bd 44 65 4d 3f 67 ec 71 3f
       -0.41621023 -0.07834644 0.80232644 0.94501346
0003d0 32 90 68 be 87 65 b9 3e 3e 5e c6 3f 40 e6 ee 3f
       -0.22711256 0.36210272 1.549751 1.8664017
0003e0 b6 19 ef bd 44 1b 4a 3e 96 e5 85 3f b8 4d af 3f
       -0.11674826 0.19736964 1.0460689 1.3695593
0003f0 69 fb 1f 3e f4 5f 84 3f 1d 19 c9 3f 8f 85 ea 3f
       0.15623249 1.0341783 1.5710789 1.8322009

arith.constant1 f4 [28, 64]
000000 a7 86 09 3e 4a 83 37 be 3e 30 94 3d b7 c0 30 3e
       0.13430272 -0.17921177 0.07235764 0.17261015
000010 33 44 8b 3e 70 6e 3d 3e b0 4a 9d 3e e2 52 48 be
       0.2720047 0.1849916 0.30721045 -0.19562867
000020 d5 91 88 bf fc 70 2d 3e 1b 4d 87 3d 3a a3 0f bf
       -1.0669504 0.16937631 0.066065036 -0.5610844
000030 b8 ca 4a bd 1a 72 99 be 52 ae a1 3e ae 05 37 bf
       -0.049509734 -0.29969865 0.31578308 -0.7149304
000040 46 c5 06 bf db 9a f5 3d 79 17 57 3e 0e f9 0c 3e
       -0.52644765 0.11992427 0.21005048 0.13766882
000050 9b 7d 83 3e 7d 06 db be 17 28 1b bb 70 b9 9e be
       0.25681767 -0.42778388 -0.0023675018 -0.31000853
000060 bf 23 84 bf 5e 69 de be b0 ed b1 3d 30 99 50 3d
       -1.0323409 -0.43439764 0.086879134 0.05092734
000070 52 ff 3d bf 69 96 1f be 91 11 f0 be c7 46 f7 3d
       -0.7421771 -0.1558472 -0.46888402 0.120740466
000080 69 c7 91 3d 33 3f a3 be a6 38 9d be dd d3 6a be
       0.071181126 -0.31884155 -0.30707282 -0.22932382
000090 e8 7b 51 be 8e 75 3b 3e fc 9b ef bd bf c9 c7 3d
       -0.20457423 0.18306562 -0.116996735 0.09755277
0000a0 8e c5 8b 3e 48 7d 1e be 70 f7 66 bf 4f d2 9c 3e
       0.2729916 -0.15477479 -0.9022131 0.30629203
0000b0 18 44 1b bf a4 93 d9 3d a8 d5 91 be fe ee 2c bf
       -0.6065078 0.10623863 -0.2848332 -0.67552173
0000c0 c5 40 6e 3d 96 df f2 bb 8e 2c 8b be 50 f3 a2 be
       0.058167238 -0.0074119074 -0.2718243 -0.31826258
0000d0 1f 41 92 3d 49 80 7e 3e 73 be 83 3d 8f 7c 92 3e
       0.07141327 0.24853624 0.0643281 0.28610656
0000e0 01 66 83 be c9 e0 0f 3e f1 6a 9e be 24 4a c9 be
       -0.2566376 0.14050592 -0.30940965 -0.39314377
0000f0 a4 80 10 bd 8a 02 77 3c 0b a0 69 bf bb a5 b9 be
       -0.03527893 0.015076289 -0.9125983 -0.36259255
000100 74 52 bc bf 0f 86 34 bf f5 63 46 be 8c 35 88 bc
       -1.4712663 -0.7051706 -0.19374068 -0.016627096
000110 b6 d4 13 bf 3a 4f a3 be ee 6b 59 bf 76 3b e2 be
       -0.57746446 -0.31896383 -0.8493031 -0.4418599
000120 56 a8 b6 3e a8 59 f8 3d 14 12 e8 bd 01 5f 93 be
       0.35675305 0.121264756 -0.11331573 -0.2878342
000130 15 c5 c6 3e ad 68 ec be 21 bc d1 be 1a fc 73 be
       0.38822237 -0.4617361 -0.40963843 -0.23826638
000140 44 38 ff 3e ac 5b df be 1c cf d9 be 8e 8b b3 3e
       0.49847615 -0.43624628 -0.42540824 0.3506741
000150 6e f9 26 3e b0 dd 3c bf 26 3f ea be 2b d3 b7 3e
       0.16306087 -0.7377577 -0.45751303 0.35903296
000160 01 1b 09 3e c0 a5 47 bf 4b 9d ad 3e 1f 66 d4 be
       0.13389207 -0.7798729 0.33909068 -0.41484162
000170 4b 8d d6 be 20 9c 07 3e c5 99 0d bd 06 8c 89 be
       -0.41904673 0.1324315 -0.034570474 -0.26864642
000180 e1 b5 bc be 11 30 44 3e d2 6f c5 3e 70 c1 73 3e
       -0.36857513 0.19158961 0.38561875 0.2380426
000190 e3 de b0 3e 4e bd d1 3c 19 48 da be 74 79 3a bf
       0.3454505 0.025602963 -0.4263313 -0.7284157
0001a0 ae 17 13 bf 51 6d 49 3e f2 4b 8f be af 52 50 bf
       -0.5745801 0.19670607 -0.2798763 -0.81376165
0001b0 a9 f2 c2 bd b9 d1 b6 be 09 a9 d2 3c 6b 76 8c 3e
       -0.0951894 -0.3570688 0.025715368 0.27434096
0001c0 20 cd d1 be 8b 29 83 bd 7f ed e1 3e a8 5b 14 3e
       -0.4097681 -0.06404408 0.44126508 0.14488089
0001d0 2b f5 a7 be fd c4 69 bf aa fc b0 be 69 74 1a bf
       -0.32804236 -0.91316205 -0.34567767 -0.6033388
0001e0 ba 28 14 bf 3e 18 82 3d 48 35 10 3e 91 6c b9 be
       -0.57874644 0.0635228 0.14082825 -0.36215642
0001f0 97 50 8e 3e fc 74 92 be 58 2c f7 bd 7f f6 7a bf
       0.2779586 -0.28604877 -0.12069005 -0.98032373
000200 06 ab 73 bf 63 ba 3b bf 79 9a 87 be 9b d0 12 be
       -0.95182836 -0.7333128 -0.2648504 -0.14337389
000210 fd 00 53 bf 0e 88 7b bd d0 f7 a7 be d7 e3 da be
       -0.82423383 -0.06140905 -0.32806253 -0.42751953
000220 20 b8 bb 3e 0b 5a 7b be c8 70 f3 ba 66 8d 2c bf
       0.36663914 -0.24546067 -0.001857304 -0.67403257
000230 1f bc 55 3e 7a c6 03 bf 88 d5 f2 3d bf 24 a8 be
       0.20872544 -0.51474726 0.11857134 -0.32840535
000240 c7 c9 7e 3e 41 6e d2 be de 60 b4 be 3d 64 e3 be
       0.2488166 -0.41099742 -0.35230154 -0.44412413
000250 52 49 e3 bd 53 27 c1 be 8a 43 d1 3e 3a dd a3 3e
       -0.11097969 -0.37725314 0.4087184 0.3200472
000260 40 6b 21 bf 6c e1 86 3e 64 26 ca 3e ae 63 22 bf
       -0.63054276 0.26343858 0.39482415 -0.6343335
000270 07 00 c7 bd 66 94 9b 3e 80 fd df 3e d3 31 f4 3b
       -0.09716802 0.30386657 0.43748093 0.0074522286
000280 e1 d8 36 bf 56 52 aa bc 9f 88 74 3e 7b 55 c4 3e
       -0.7142468 -0.020791214 0.23880242 0.38346466
000290 10 f5 ae be 08 98 97 be b7 f9 1f bf c5 e6 ab bd
       -0.34171343 -0.29608178 -0.6249041 -0.08393625
0002a0 bb 38 a8 bc fe c1 8e be 14 1e 75 be bc 0a 25 3e
       -0.020534864 -0.2788238 -0.23937255 0.16117376
0002b0 2e f6 b4 be ff 32 02 bf e8 1f ce be 87 f9 86 3e
       -0.3534407 -0.50859064 -0.40258718 0.2636225
0002c0 95 6f 62 be 07 9c 46 bf 45 3d 94 3e 64 dd 17 3e
       -0.22112878 -0.7758183 0.28952995 0.14830548
0002d0 6f 1f 3f 3e 79 14 25 bf 88 53 00 bd 75 44 26 3e
       0.18664335 -0.64484364 -0.03132966 0.16237052
0002e0 78 31 48 bf fe 4d 72 be ab ec c1 3e 3d bb 67 3d
       -0.78200483 -0.23662564 0.37875876 0.05657505
0002f0 f3 26 a4 3e d3 1b 36 bf b9 27 ca 3d ce 7d 24 3e
       0.32060966 -0.71136206 0.09870858 0.16063616
000300 4f 7c af be 11 c0 28 3e e2 9a 97 3e 14 62 39 bf
       -0.34274527 0.16479518 0.29610354 -0.7241528
000310 ea 04 f6 bd d9 02 58 be c4 c2 11 bf 4d e9 52 bf
       -0.12012656 -0.21094836 -0.56937814 -0.8238724
000320 e0 b2 f1 3d c7 2f 39 be 1b 10 13 bf 97 68 99 3e
       0.11801696 -0.18084632 -0.5744645 0.29962608
000330 ee dc 0f 3e e8 14 dd 3d bc a8 87 3e ea bc 7f 3e
       0.14049122 0.10795003 0.26495922 0.24974409
000340 2d 25 86 3e aa 95 86 3d 15 30 60 bf d9 b4 e3 bd
       0.26200238 0.06571515 -0.8757337 -0.11118478
000350 5f db 81 3e bf f7 e8 3e f3 bf 0b bf 7c 53 dd be
       0.2536268 0.45501515 -0.54589766 -0.43227756
000360 40 15 b7 be a8 75 5b 3e 1b 9e 92 3e 35 f8 d6 bd
       -0.357584 0.21431601 0.2863625 -0.104965605
000370 d3 a0 8e 3e 26 e6 8c 3e 14 e2 06 be 5c 31 97 be
       0.27857074 0.2751934 -0.1317218 -0.29529846
000380 92 bc a7 be 1c d0 8d be 2e 47 46 3d eb 11 6d 3e
       -0.32761055 -0.27697837 0.048407726 0.23151366
000390 92 64 2f bf a4 51 de 3c 1d 69 be 3d e6 e7 c1 be
       -0.68512833 0.027138539 0.092973925 -0.37872237
0003a0 5f 3c 1c bd 97 c5 da bd 86 d0 5f be 28 12 51 3e
       -0.03814351 -0.106822185 -0.21856889 0.20417082
0003b0 19 9a ba 3d 60 53 9e bc cc 28 88 bf d0 f0 47 be
       0.09111423 -0.019326866 -1.063745 -0.19525456
0003c0 83 be c4 3e 97 f2 eb bc 38 34 4a 3e df 04 b7 be
       0.384266 -0.0288022 0.19746482 -0.35745904
0003d0 6d 80 b2 be 7c 25 32 be ca 6d 92 3d 28 8e 35 3e
       -0.34863606 -0.17397112 0.07149847 0.1773001
0003e0 96 3c 58 bf 3c 7c fc bd b3 0f 63 bd 4a 8c 1e bf
       -0.84467447 -0.12328383 -0.055434894 -0.61932814
0003f0 94 7f 6c be 84 a2 27 bf 53 74 96 bc 53 92 8e 3e
       -0.23095542 -0.65482354 -0.018366015 0.27846012

arith.constant2 f4 [64, 11]
000000 5d 00 a4 bc 60 db 73 39 b1 66 92 3e bd 38 f7 3e
       -0.020019704 0.0002325601 0.28593972 0.48285475
000010 d9 f8 ea be c1 1c 14 3d 5d 86 40 bf e3 55 06 3e
       -0.4589298 0.036160234 -0.7520502 0.131187
000020 20 87 e9 bd 78 86 07 3f 9a 6d bc bf a2 5d 3c 3c
       -0.11402726 0.5293956 -1.4720948 0.011496933
000030 15 32 99 3d 98 20 fa be 6e 25 38 bf f1 36 8e bd
       0.074802555 -0.48852992 -0.71932113 -0.06944073
000040 54 d0 af bd 24 33 c3 3e 53 b3 25 3f 82 fc dc 3e
       -0.08584657 0.38124955 0.6472675 0.43161398
000050 3a d1 5e bf 98 6c 25 3f 7e 96 e1 bc df 1d cd b9
       -0.87038004 0.64618826 -0.02753758 -0.00039122903
000060 af cc 5a 3e e1 35 24 bf 25 4f 2b 3d b9 35 e9 3e
       0.21367143 -0.6414471 0.041823525 0.455488
000070 5b 4d 19 3f 4e db b5 bd 03 fa a0 bd 3a 2c 9e 3e
       0.5988366 -0.0887972 -0.07860186 0.30893117
000080 89 96 cc be f1 9d 74 bb 59 8c 4c be eb 2e 0a 3e
       -0.399586 -0.0037325586 -0.19975413 0.1349446
000090 c4 89 f8 bd 0c 21 f5 be 4a 07 0e bf 45 77 95 3e
       -0.12135652 -0.47876775 -0.5547987 0.29192558
0000a0 e5 37 c8 be 0a 2c 29 3f 9b 0f c9 bd 0b 05 d6 be
       -0.39105144 0.66082823 -0.0981743 -0.41800722
0000b0 fd e7 bb 3b ce b3 24 bd 8a 0e 8d 3e d7 4f 51 be
       0.0057344423 -0.040210538 0.27550155 -0.20440613
0000c0 ee f0 fb be 6e ce 85 3e db ec 48 3e 4b 10 34 bf
       -0.49207252 0.26134056 0.19621603 -0.7033736
0000d0 5e b7 cd be 21 df 2a bf 60 df 55 bf ec cc 70 3d
       -0.4017896 -0.6674672 -0.8354397 0.05878918
0000e0 6a 30 d3 bd 68 be 0b bf c3 0a 10 3f 98 21 51 bc
       -0.103119686 -0.5458741 0.5626642 -0.012764357
0000f0 3e 47 20 3f 43 73 10 3e d4 b7 92 3e a6 f3 7b 3c
       0.62608707 0.14106469 0.28655875 0.0153779145
000100 6f d1 d4 bd 69 24 95 be bc ef c0 bc 05 90 bd bc
       -0.10391509 -0.2912934 -0.023551814 -0.023139963
000110 1b b9 aa bb 9a 60 41 3f 42 b0 bc be f5 a8 da 3e
       -0.0052100546 0.7553803 -0.36853224 0.4270703
000120 ad 1b e6 3d 60 e1 90 3e 49 6f 7d 3f 14 d4 18 be
       0.112357475 0.28296947 0.9899793 -0.14924651
000130 36 71 ec be 71 44 76 bd 16 a4 bc 3d 88 08 2e bf
       -0.46180123 -0.060123865 0.092109844 -0.6798177
000140 2c c1 35 3d f2 fe c6 be 08 70 24 bf 83 4d d8 3e
       0.044373676 -0.38866383 -0.64233446 0.42246637
000150 74 be be 3c e9 98 ed bd e9 3c e5 3e 4d 0e 8d be
       0.023284175 -0.11601431 0.44773033 -0.27549973
000160 69 d6 a5 bd c3 df b6 3d 4b 87 5e be da 71 85 be
       -0.08097536 0.08929398 -0.21731298 -0.26063424
000170 3b 6b d4 bc 46 80 ae be cf 05 17 3f cb 94 7b 3f
       -0.025930038 -0.3408224 0.5899324 0.98273915
000180 a1 8a 17 bf 18 55 30 3f 5c 17 4e 3f 1d bb 37 3e
       -0.59195906 0.6887984 0.80504394 0.17942472
000190 d4 17 fe bd 9d d1 91 3e 4a 42 45 3e 52 05 0f be
       -0.124068886 0.28480235 0.19263569 -0.13966873
0001a0 3a 31 15 3d 57 6f 7a bd 93 db 34 bf 1e 9b a1 bd
       0.0364239 -0.06114134 -0.70647544 -0.078909144
0001b0 ca 8f 35 bf 67 30 8e be 27 6f c1 bc 12 71 63 3c
       -0.7092253 -0.27771303 -0.023612572 0.0138819385
0001c0 29 d7 0d bf 14 03 6f be 5b 06 cd be 8e 44 92 be
       -0.55406433 -0.23341018 -0.4004391 -0.28567928
0001d0 16 ff 5d 3e 55 4b 0b bf 71 33 4e be de 28 b1 bd
       0.21679339 -0.5441182 -0.20136811 -0.08650373
0001e0 03 d6 b8 3e 75 a9 44 bd f9 fa 9d 3d 94 96 ae bc
       0.36100778 -0.04801317 0.07713885 -0.021312036
0001f0 bf 15 34 bf d4 90 ac be 55 cf bb 3e 2a 1f 0f 3e
       -0.7034568 -0.33704245 0.3668162 0.13976732
000200 98 79 f6 3e c6 66 1e 3e 23 fa 4e bf 58 43 34 3f
       0.48139644 0.15468892 -0.8085043 0.7041526
000210 9c c2 9b 3d ec 8a 40 bd 7d d9 cb 3e 0b 32 22 3f
       0.07605478 -0.047007486 0.39814368 0.6335761
000220 b9 0a 12 be 90 e8 bc be b7 30 31 3f af 02 b5 3e
       -0.14261903 -0.3689618 0.6921496 0.3535361
000230 d6 32 6a be b9 c6 0a bf 71 ec 87 3e 45 fc 8b bd
       -0.22870955 -0.54209477 0.26547578 -0.06835226
000240 70 b2 01 3e 9c 6a 98 38 21 84 0b bf ee 2a a6 bc
       0.12665725 7.267782e-05 -0.5449849 -0.020284142
000250 f3 81 24 3e 6b bb a5 bd 64 d4 33 3f 2c 15 f8 be
       0.16065197 -0.08092388 0.7024596 -0.48453653
000260 28 77 fa 3e e2 bc cb be a4 fa ed 3c 17 d3 5f bd
       0.48919034 -0.39792544 0.029050179 -0.05464467
000270 01 8e ea 3e b1 7e cd 3e b8 c5 b4 bd 43 0f 73 3e
       0.45811465 0.4013572 -0.08826774 0.2373629
000280 18 fe 17 3f ab 97 ba be 17 d1 b1 bd a1 42 5a 3f
       0.5937209 -0.36443838 -0.08682459 0.8525792
000290 57 d3 60 bf 63 09 a8 bc 6c 31 b8 3c 2e ed 0e bf
       -0.8782248 -0.020512288 0.022484504 -0.5583066
0002a0 95 c6 43 3d 70 b2 08 3e 63 17 11 bf e8 57 29 3f
       0.047796804 0.13349319 -0.5667631 0.6614976
0002b0 59 79 a2 3e 42 8d ad be 76 3d 23 be 4f b0 6a bf
       0.31733206 -0.33896834 -0.15941414 -0.91675276
0002c0 12 31 08 bc a4 18 2d bd b2 9b 25 3e 93 af 1b 3e
       -0.0083124805 -0.042259827 0.16172674 0.15203695
0002d0 fc e1 1b 3d 83 f9 31 be 1e 24 c6 be 08 d5 17 3f
       0.038057312 -0.17380337 -0.3869943 0.59309435
0002e0 c1 7d 27 bf 7d 71 23 bf 90 88 3f 3f c6 80 70 3d
       -0.6542626 -0.63845044 0.7481775 0.058716558
0002f0 30 a8 d5 ba a0 31 cc bd 09 fc b5 3d bd 3d 29 be
       -0.0016300734 -0.09970403 0.088859625 -0.16527458
000300 f0 08 fe 3e 48 09 69 3f ab 69 c0 be f1 ed bd be
       0.49616194 0.9102979 -0.37580618 -0.37095597
000310 39 ee 72 bf 65 37 80 be 85 13 30 bd 6a 33 ac 3d
       -0.9489475 -0.25042263 -0.042987365 0.08408244
000320 a1 c5 84 be 43 f3 a1 3e 7c 9b 15 bf 0e 80 b4 be
       -0.2593203 0.31630906 -0.58440375 -0.35253948
000330 a4 8c c3 3e 93 15 bc 3e 90 af 3c bf 9f ba 82 3f
       0.38193238 0.3673521 -0.7370539 1.0213202
000340 11 83 22 3d 51 65 85 bc ef 42 73 be 32 ac c9 bc
       0.039675776 -0.016283663 -0.23756002 -0.024618242
000350 60 7e 1b 3d 73 58 f6 be 75 f3 f2 be a3 4f d6 bc
       0.037962317 -0.48114356 -0.47451368 -0.02616102
000360 3a 71 5f 3c 7e 88 47 bf 12 29 19 bf a0 10 2e be
       0.013637835 -0.77942646 -0.59828293 -0.1699853
000370 cc 50 c0 bd d1 69 08 be 3b 47 f7 3e 1d d5 24 3e
       -0.09390411 -0.13321616 0.48296532 0.16096921
000380 6b ad 10 3e a3 60 93 be 46 a6 b2 3d 1e d4 f8 be
       0.14128654 -0.28784665 0.087231204 -0.48599333
000390 cc bb db bd 9e ff 89 3e 15 48 87 bf 27 8d cf bd
       -0.10729179 0.26952833 -1.0568873 -0.101343445
0003a0 4a 2b 0c 3e fc 54 c4 be af f4 e4 be a5 64 3a bf
       0.13688388 -0.38346088 -0.4471793 -0.7280982
0003b0 ca 60 61 3d 84 fa cb bd b2 99 a2 3e 62 fd 84 bd
       0.055023946 -0.099598914 0.31757885 -0.064936414
0003c0 9e 68 ed bd 77 a3 1f 3f 41 2c 86 bd 07 ec b9 3d
       -0.1159222 0.623588 -0.065514095 0.09078222
0003d0 95 7b db be e4 ee f7 3e 6b 6f 49 bc 76 fc a9 3d
       -0.42867723 0.48424447 -0.0122946305 0.08300106
0003e0 69 dd 97 bf 33 23 16 3f cc 58 80 3f 4a e3 d3 3e
       -1.1864444 0.5864746 1.0027099 0.41384345
0003f0 9d a2 02 bf 19 0a 9e bc 3b d4 71 3b ee 52 08 bd
       -0.5102938 -0.019291924 0.003690018 -0.033282213

Const_2 f4 [42]
000000 f8 9c 0a 3f 43 ce 1d 3f f8 fa 25 3f c8 2a 1e 3f
       0.54145765 0.61642855 0.6483607 0.6178403
000010 cd f2 12 3f 64 62 15 3f d0 23 12 3f 27 ce 10 3f
       0.57401735 0.5835326 0.57085896 0.56564564
000020 2d b0 0f 3f cc bf 05 3f c3 87 01 3f ce 22 04 3f
       0.561282 0.52245784 0.5059778 0.5161561
000030 cd 5b 06 3f 13 04 f1 3e b3 b3 e8 3e 96 ed f7 3e
       0.52483827 0.4707342 0.454496 0.4842345
000040 5e 14 02 3f 91 97 da 3e 6b bd d3 3e c5 5b dd 3e
       0.5081233 0.4269376 0.41355452 0.43234077
000050 a9 58 e5 3e e3 fa 39 3f fc 73 2c 3f 3c 7b 17 3f
       0.44794205 0.7264845 0.6736448 0.59172416
000060 b5 a4 07 3f ae 2e 00 3f 67 06 ee 3e 89 d6 c3 3e
       0.529857 0.5007123 0.4648926 0.38249615
000070 b5 be bc 3e db fa b7 3e a6 6a f0 3e 02 d4 ca 3e
       0.36864248 0.35933575 0.46956366 0.39614874
000080 ff a5 d2 3e 4f f2 d5 3e e3 6a fd 3e a1 c9 e2 3e
       0.4114227 0.4178643 0.4949561 0.44294456
000090 40 f4 f8 3e 3b 77 03 3f 68 a8 08 3f e9 31 fb 3e
       0.48623848 0.51353806 0.5338197 0.49061516
0000a0 cc 93 02 3f 02 06 06 3f
       0.5100677 0.5235292

sequential_1/dense_1_2/BiasAdd/ReadVariableOp f4 [28]
000000 36 c8 aa 3d 2e c2 28 3e 4b 65 9e be 81 6f e4 3d
       0.083389685 0.16480324 -0.30936655 0.1115408
000010 4d 64 96 3e 8a d1 e8 bd 49 78 96 bc ea c2 a0 bd
       0.29373398 -0.113680914 -0.018367903 -0.07849677
000020 3e ed cb be ec 8b ab 3c c0 35 7c 3d 11 ae f3 bd
       -0.3982944 0.020940743 0.061574697 -0.11898435
000030 e5 eb 05 be ac 7e 39 be f1 30 ad 3d 42 d1 23 3c
       -0.13078268 -0.18114728 0.084566005 0.009998621
000040 b2 4b e6 bd af fc 88 3e 43 ec 09 3e fe a2 83 3b
       -0.112449065 0.26755282 0.13469033 0.004017233
000050 8b 9e 80 3e df 60 07 bd 97 50 cf 3c 6e 8c 9f 3e
       0.2512096 -0.033051368 0.025306983 0.31161827
000060 35 ce 2f be 1a ba 7d be db 06 56 bd 20 6f c4 be
       -0.17168505 -0.24778023 -0.05225263 -0.38366032

sequential_1/dense_1/BiasAdd/ReadVariableOp f4 [64]
000000 d8 0d e8 3e 25 00 67 3e 9a 18 10 3f 53 81 0a 3e
       0.45323062 0.22558649 0.5628754 0.13525896
000010 c0 a3 10 3f 57 bf cf bd 71 a2 a5 bd 35 29 f5 3d
       0.5649986 -0.10143917 -0.08087624 0.1197075
000020 83 ba fe 3e 79 2b a4 3e 16 e1 18 bd 23 7a 33 3f
       0.49751672 0.32064417 -0.037324034 0.7010824
000030 8d ba 0c 3f 86 9b ba 3e a0 39 5f 3e c9 15 bf 3e
       0.54972154 0.3644678 0.21799326 0.37321308
000040 4f 53 24 3f 08 53 ad 3e 0e 6f 32 3e 43 3a 4f 3e
       0.6418962 0.3385241 0.17425177 0.20237069
000050 84 57 fa 3e 6e b1 ca 3e d6 7d ec 3e a3 c7 03 3f
       0.48894894 0.39588493 0.46189755 0.51476496
000060 7f 78 35 3f 53 44 0f 3f e2 68 88 3e a1 88 15 3f
       0.7088699 0.5596363 0.2664252 0.58411604
000070 a3 d0 b7 3e 69 ba 20 3f 74 67 7f 3e 68 eb bf 3d
       0.35901365 0.6278444 0.24941808 0.09371072
000080 81 0e 11 3f 21 a5 73 3e 97 e8 fe 3d 9b b9 ee 3d
       0.56662756 0.2379346 0.12446707 0.11656495
000090 8c 42 82 3e f7 cc cf 3e 13 bd 43 3f cf 43 f9 3d
       0.25441396 0.40586063 0.7646038 0.121711366
0000a0 a1 4a b5 3e 57 5a d5 3d 81 dd 2f 3e c7 e6 8e 3d
       0.354085 0.104176216 0.17174341 0.06977611
0000b0 a9 c5 10 3f 69 b7 8d 3e 53 31 bd 3e 56 bb 98 3e
       0.56551605 0.27678993 0.36951694 0.29830426
0000c0 94 6a d4 3e 0f cf 59 3e 52 aa 0f 3f d5 80 dd 3e
       0.41487563 0.21270393 0.56119263 0.43262354
0000d0 f2 ca 2b 3d 27 ff 07 3f f1 15 af bc cb ac 37 3e
       0.04194159 0.53123707 -0.021372767 0.17937009
0000e0 af 13 05 3f 7a e7 68 3e 1e 18 a5 3e 92 50 22 3e
       0.5198316 0.22744551 0.32244962 0.15851048
0000f0 b4 9b f2 3e 9f 36 84 3e 27 c2 48 3e 3f f8 85 3d
       0.47384417 0.25822923 0.19605313 0.0654149
