assets/models/asl_landmark_model.tflite (tflite, 19176 bytes, 6 tensors)

arith.constant f4 [18, 63]
00000000: 8bf5 e33d e235 9e3e e1e5 073f 196c 173f
00000010: e19f 043f 7326 e73e 34e3 073f 6e67 043f
00000020: d13e f13e 5181 183f 2d21 4f3f e458 503f
00000030: 3e82 3b3f 5781 2a3f 2f33 613f 5df1 543f
00000040: a70d 413f eaff 1d3f 80bf 3f3f de03 2d3f
00000050: db4e 173f 88e9 2fbe 6529 9cbe 56a4 fdbe
00000060: 1540 26bf c022 25bf c242 c3be 48a3 12bf
00000070: 1deb e1be 5c51 94be b370 dcbe f9cd 2cbf
00000080: ff32 04bf eb24 b2be 1079 02bf 01a5 4cbf
00000090: 6008 41bf 2f65 1bbf 8347 10bf c01f 4dbf
000000a0: 16d2 4bbf 1720 30bf 2f8c b946 adeb 5b40
000000b0: 45cc 3140 697d 2240 825a 1040 bde0 2a40
000000c0: 276b 0e40 6d99 0140 2fdd f53f 00e0 5640
000000d0: ae6b 2740 b5fe 2040 517e 1a40 285e 5040
000000e0: c6f9 2540 67e8 2540 aed9 1b40 5d56 0840
000000f0: c9e5 0840 0f1c 0c40 8914 0240 dab0 553f
00000100: 16f4 9d3f a4a2 b23f dd4b 8e3f d64f 4d3f
00000110: b2a0 ae3f 1117 843f abd3 443f 39ce 123f
00000120: e7cf be3f 265a a93f 79f3 8d3f 462a 603f
00000130: cc55 b83f 3729 b03f 0d62 9c3f b075 883f
00000140: d215 9b3f 46b5 963f c8d8 823f 2ad0 5f3f
00000150: 4906 e03e a34a 113f 24bb 473f 78c5 573f
00000160: bb19 403f 1421 7c3f f7a3 853f b851 463f
00000170: ce20 053f 63f9 833f f94f 843f 0769 323f
00000180: 6ada ec3e 8fd0 7e3f 5cd2 7c3f 043c 483f
00000190: c785 1a3f aa92 653f ab24 6a3f 68e3 423f
000001a0: 7b18 1b3f 5be7 a8c6 ac53 2bbc 9d53 21be
000001b0: a7e5 58be c2a3 80be a0e5 0cbf 8d94 d0be
000001c0: f412 acbe 8749 9cbe 7a4e 58bf d01d 15bf
000001d0: 1f3b 02bf 7f7c f0be 93cf 74bf 7985 19bf
000001e0: 792b 06bf 88f2 f0be 13b9 38bf 6d89 0abf
000001f0: e27b 02bf e299 f4be 5c2a 89be bb11 04bf
00000200: 7e38 2ebf 8cd6 0ebf 548c c7be d5d5 47bf
00000210: 4fec 2dbf 4df2 09bf 67ac d8be 9fba 3ebf
00000220: f05c 39bf bbde 1cbf 9850 fcbe 4e02 1cbf
00000230: 4b51 21bf 27f6 10bf 9516 03bf 192c dabe
00000240: ca6e e6be a777 cfbe e8b9 b9be 9978 2d3f
00000250: 8e30 503f 4a51 843f 85ae 813f 314d 573f
00000260: 2ef4 bc3f d3ce a63f dee4 5c3f 1c2b 093f
00000270: 6cc4 c43f 61ab 9f3f a0e9 3f3f b9ca ed3e
00000280: 7e12 b53f ed38 913f 353a 563f 9629 213f
00000290: fb61 983f 93aa 803f 5574 493f 1d9a 1d3f
000002a0: df65 cac6 7abb a03f f6a7 ab3f 8703 b73f
000002b0: c738 b33f 066d ce3f 6926 bf3f d3b9 b73f
000002c0: 71be b23f c7c9 1b40 a443 f43f 3c86 ee3f
000002d0: 9ad0 ed3f 1074 3b40 1aa7 0440 71d1 0440
000002e0: 0e8c 0440 c71a 1d40 3378 0240 7dd0 0640
000002f0: 37d6 0540 0afd 99bf 494d 60bf d777 0cbd
00000300: 49a0 543e d3f4 4b3e dcd6 6d3e 2cd9 6d3f
00000310: 888d 863f 3c22 803f f2c3 80be 0306 d03e
00000320: d905 b93e 2294 803e e893 38bf 72c8 82be
00000330: 1560 58be fd97 48be af76 80bf 2349 29bf
00000340: 21fb f3be b1ca b9be 2f7a d03f f9d0 cc3f
00000350: 79e3 993f 204e d83e 76fc cabd 0373 873f
00000360: 2da0 66be 38db 40bf 611c 52bf 3076 663f
00000370: ddb3 2abf b2cc 6cbf 38b9 51bf d606 553f
00000380: b7fc b6be 75e4 b9be da58 90be 3bcf 5d3f
00000390: 5cc0 c03d 68e7 853d f744 a53d ccf5 aa48
000003a0: dc86 8440 8c48 2b40 8d8e ef3f 30f0 993f
000003b0: b896 e83f 927e 953f f1d8 6b3f 912b 413f
000003c0: 3abe 0b3f c172 ac3e 4911 0d3d f8ce 76be
000003d0: 039d f2bf 1f34 b3bf bda5 d5bf 7620 ebbf
000003e0: 29ac 5fc0 2035 2fc0 12ee 31c0 4fed 31c0
000003f0: a2be 3e3f f53a fd3e baba f8be 9a10 78bf
0.11130818 0.30900484 0.5308514 0.5914932 0.51806456 0.45146522 0.5308106 0.5172032
0.47118238 0.5957232 0.8091 0.81385636 0.7324561 0.66603607 0.87968725 0.8318079
0.75411457 0.6171862 0.7490158 0.67584026 0.591047 -0.17178929 -0.30500332 -0.4953944
-0.6494153 -0.6450615 -0.3813687 -0.572804 -0.4412469 -0.28968322 -0.43054733 -0.6750179
-0.51640314 -0.3479379 -0.50965977 -0.79939276 -0.75403404 -0.6070127 -0.5635912 -0.8012657
-0.7961744 -0.68798965 23750.092 3.4362595 2.7780926 2.5389044 2.2555242 2.669967
2.22529 2.0249894 1.9208125 3.3574219 2.6159472 2.515546 2.4139597 3.2557468
2.59337 2.5923097 2.435161 2.1302712 2.139025 2.1892126 2.0325034 0.8347298
1.2340114 1.3955884 1.1116902 0.80199945 1.364279 1.0319539 0.7688548 0.5734592
1.4907197 1.3230636 1.1089927 0.87564504 1.4401183 1.3762578 1.2217423 1.0660915
1.2116034 1.177407 1.0222406 0.8742701 0.43754795 0.5675451 0.7801993 0.8428569
0.7503926 0.98487973 1.0440663 0.7746844 0.5200318 1.0310482 1.0336906 0.6969151
0.46260387 0.99536985 0.9875848 0.78216577 0.6036038 0.89676917 0.914622 0.76128244
0.6058423 -21619.678 -0.010456961 -0.15754552 -0.21181355 -0.25124937 -0.5503788 -0.40738335
-0.3360821 -0.30524847 -0.84494746 -0.58248615 -0.5087146 -0.46969983 -0.95629233 -0.5996929
-0.52410084 -0.47060037 -0.721574 -0.54115945 -0.5097028 -0.47773653 -0.2679013 -0.51589555
-0.6805495 -0.5579612 -0.3897425 -0.78060657 -0.67938703 -0.53885347 -0.42319033 -0.7450351
-0.72407436 -0.6127736 -0.49280238 -0.60941017 -0.6301467 -0.566256 -0.5120633 -0.4261177
-0.450064 -0.40520975 -0.36274648 0.6776214 0.8132409 1.0337307 1.0131384 0.8410216
1.4762018 1.3031868 0.86286724 0.53581405 1.5372443 1.2474176 0.7496586 0.46443728
1.4146268 1.1345497 0.83682567 0.6295408 1.1904901 1.0052055 0.78693134 0.61563283
-25906.936 1.2557213 1.3410633 1.4297951 1.4001702 1.6127021 1.4933597 1.4353584
1.3964368 2.4341905 1.9083142 1.8634715 1.8579285 2.928959 2.072699 2.0752833
2.0710483 2.4547594 2.0385864 2.106475 2.0911996 -1.2030346 -0.8761793 -0.034293976
0.20764269 0.19917612 0.23226494 0.92909503 1.0511942 1.0010448 -0.25149494 0.40629587
0.36137274 0.25113016 -0.7210069 -0.25543553 -0.21130402 -0.19589229 -1.0036219 -0.6612722
-0.47652534 -0.36287454 1.6287287 1.6001273 1.2022544 0.42247105 -0.09911434 1.0581974
-0.2252204 -0.753345 -0.8207455 0.9002409 -0.666807 -0.9249984 -0.81923246 0.83213556
-0.3573968 -0.3630711 -0.28192788 0.86644334 0.0941169 0.06538278 0.080697946 350126.38
4.1414623 2.676303 1.8715378 1.2026424 1.8170996 1.1679251 0.921279 0.754571
0.5458714 0.336813 0.034440313 -0.2410239 -1.8954166 -1.4000281 -1.6691204 -1.8369281
-3.4948828 -2.7376175 -2.7801557 -2.7801092 0.7450963 0.49459043 -0.4857996 -0.9690033

arith.constant1 f4 [28, 64]
00000000: 4600 9b3e ac40 013e cff1 c03e eb51 82bd
00000010: b0a7 193d 6fdb a2be e046 53be 8312 3c3e
00000020: 957c 20bf 95bd 173e fac2 01bf db98 813d
00000030: bb84 dabe 67dc 1e3e ffde 57be 2d00 bcbd
00000040: 62aa 22be 49e5 1a3e b8ec acbe 8cea 733e
00000050: 2721 0fbf 3f39 1bbf 436e d9be 37cc 6ebe
00000060: c02c bc3c e896 eebe 4cb7 903e bbde 1ebf
00000070: dc30 5bbe 3ea6 d13d bc65 a33e b68a 4cbf
00000080: dfd7 adbe ed49 953e dde9 aebe 89fe 8dbe
00000090: 0765 24be ab41 9b3d c631 1ebf be2a 1fbf
000000a0: 1483 fdbe 25fb 99bd b305 b8be bc4c dcbd
000000b0: ea50 783e d10a b83d d935 263e 1f39 8a3d
000000c0: 7d6a 3a3e 0128 01bf a049 d3bd 34fb ebbe
000000d0: 9e96 0e3e dd4e 2dbb ff26 703e c247 bdbd
000000e0: ac07 193d da81 2fbe d44c f1bd bcce 80bc
000000f0: a689 0ebf d099 23be a830 6a3e c9eb 6d3e
00000100: 0db2 123e 44a8 03bf 8cf1 1abf 3ffa a03d
00000110: f4e5 883e 6416 48bd 960d 1ebf 9e7a 0cbe
00000120: 037e 153d abab 1fbf 9399 bdbe dd87 613e
00000130: 902d 5abd fd67 a3be 7825 f83d 044e c53e
00000140: 727c cdbb 9fd8 ebbe d4ab 12bf 4d26 003e
00000150: a49a 8ebe c1f8 abbe 0024 9ebe 7b5c 1bbe
00000160: b569 76bf 173b a6be c067 ccbe 4dfa e63e
00000170: b1c2 553e a922 ddbe 6c52 2bbf cbcf a9bd
00000180: dd24 17bf 962d 51bd 601f c33d 6648 07bc
00000190: d60f 71be f29a 463e 1f9f 163e 5982 bcbe
000001a0: cfd7 eebb c904 13bf 3a34 a5bc b759 52bc
000001b0: 219a f2be 66ff 47bf 6f18 04bf 4a61 03bf
000001c0: f0d4 94bd b3d2 25bf a764 8a3e 8c3d 16bf
000001d0: 9838 2f3e 7f3a 1abf b9a3 703e ab96 8b3e
000001e0: 3ef8 5bbe dc37 b53e 7a30 c73e a515 4abe
000001f0: 63e7 a3be ae16 033e d644 063e 8d15 f7be
00000200: 3de0 4b3d b89c 913e 8926 68be 9eb6 383e
00000210: 37fd 2d3e ff27 6c3e 4483 0f3d d25f 0dbe
00000220: 5fcd 43bd 15ac a6be 43c9 3cbe 8dc3 573e
00000230: 5eec 3b3d d53e 17bf eb2c 653e 4da0 7ebb
00000240: b721 7fbe 6caf 633e 6ff0 d0be 34e6 b9be
00000250: 4d02 3cbe 5bfd cb3d 525d 9c3e 730a 9e3d
00000260: 7576 a7be ff22 9e3e b939 e8be bcc5 53be
00000270: 799c d83d 65eb 65be 1fb4 95be 734b 66bd
00000280: 6210 d63c 67be 00bf eb62 47bf 0faf 68be
00000290: 1d8b efbe ebbd 823e 9313 21bf 0286 f9be
000002a0: 359f e1bd 5d7b aebd aeb4 143e fcf6 ba3b
000002b0: 864c 01bf 21b8 e8be 9a87 30bf 1b1c 3fbf
000002c0: 2710 11bf d496 8fbd 9d32 753e 310f 3f3e
000002d0: 5049 073d 3880 55be 7bdc 8c3d 5277 303e
000002e0: fc68 2dbe 70c2 5e3d 61a4 da3e 0b68 6dbf
000002f0: 4a2d 23bf c1e6 963e 71f4 b0be c422 5e3a
00000300: b87a 0dbf 974f 833e 80c4 00be cfad 7d3e
00000310: a387 8fbd 8d21 37be b532 373c 1eda 7bbe
00000320: cfc0 6a3e 5f8f 27bd 7592 233e 7a4e 493e
00000330: 0544 013e 6caa 2ebe 4a6c 893e 815c 973d
00000340: a067 3bbf 0313 e83d 4b86 96bd 808a 57be
00000350: 15a7 8cbd 837d 403e 57a0 883e a996 c33e
00000360: 5246 9abe ff65 0d3c dd72 84bd 66ef f5be
00000370: 41f6 49be dc40 50be 08fc 5cbf 1c07 ecbe
00000380: a2f6 58bd 323d dc3d 71ed a23e ba66 833e
00000390: 5549 04bf 2031 e53c 081d 37bf a33b 0abf
000003a0: 2fd4 61be bf51 9ebe a7fe 743e 9c21 ba3e
000003b0: 59e4 333e 1ca7 5f3d 26cc 863e bbaf 573e
000003c0: 5790 5f3e ff93 0bbf abce babd 182a 19be
000003d0: 3cb4 3c3e 82f3 33bf 6229 8abe d7df 483e
000003e0: a711 9ebc f4ce 22bc 6148 babd ad69 87be
000003f0: 3405 af3e 0017 2e39 b4b4 91be f2a4 dcbe
0.30273646 0.12622327 0.37684485 -0.06363281 0.037513435 -0.3180804 -0.20632505 0.18366437
-0.626901 0.14818414 -0.50688136 0.06327983 -0.4267939 0.15513764 -0.2108116 -0.09179721
-0.15885308 0.15126528 -0.33774352 0.23819941 -0.5590996 -0.60634226 -0.42466936 -0.2332009
0.022970557 -0.46599507 0.28264844 -0.6205861 -0.21405357 0.10236786 0.31913555 -0.79899156
-0.3395376 0.29157963 -0.341628 -0.27733257 -0.16054164 0.075808845 -0.617947 -0.62174594
-0.49514067 -0.07518605 -0.35941848 -0.107568234 0.24249616 0.08986438 0.16231479 0.06749176
0.18204685 -0.50451666 -0.10316777 -0.4609009 0.13924643 -0.0026444711 0.23452376 -0.09242202
0.037360832 -0.17139378 -0.11782232 -0.015723579 -0.55678785 -0.15976644 0.22870123 0.23234476
0.14325733 -0.5142863 -0.6052482 0.07860231 0.2673794 -0.04884948 -0.6173948 -0.1371865
0.036497127 -0.6237132 -0.3703123 0.22024484 -0.053266108 -0.31915274 0.121165216 0.38536084
-0.0062709386 -0.46063706 -0.5729344 0.1251461 -0.27852356 -0.33588222 -0.3088684 -0.15171997
-0.96255046 -0.32466957 -0.39922905 0.4511284 0.2087505 -0.43190506 -0.6692264 -0.082915865
-0.59040624 -0.051068865 0.09527469 -0.008257007 -0.23541197 0.19395044 0.14709137 -0.36818197
-0.00728891 -0.57429177 -0.020166505 -0.0128387725 -0.47383216 -0.7812408 -0.5159978 -0.51320326
-0.07267177 -0.64774626 0.27029917 -0.58687663 0.17111433 -0.6024551 0.23499955 0.27263388
-0.21481416 0.3539418 0.38904172 -0.19734819 -0.32012472 0.1280162 0.13112196 -0.4825863
0.049774397 0.2843988 -0.2267095 0.18038413 0.16991125 0.23062132 0.035037294 -0.13806084
-0.04780328 -0.32553163 -0.1843615 0.2107069 0.045879714 -0.5908025 0.22380416 -0.003885287
-0.24915205 0.22234887 -0.40808436 -0.36308444 -0.18360253 0.09960433 0.30539948 0.07716837
-0.32707563 0.30886075 -0.4535654 -0.20680898 0.1057672 -0.22453077 -0.29238984 -0.056224298
0.026130859 -0.5029053 -0.7788531 -0.2272303 -0.46785823 0.2553552 -0.6292049 -0.48735052
-0.110166945 -0.085196234 0.14522049 0.0057057124 -0.5050739 -0.4545298 -0.6895691 -0.7465226
-0.5666527 -0.0701119 0.23945089 0.18658139 0.0330289 -0.20849693 0.06877991 0.17233017
-0.1693458 0.05438465 0.42703536 -0.9273688 -0.6374098 0.29472926 -0.34561494 0.00084738084
-0.5526538 0.2564666 -0.12574959 0.24773334 -0.070082925 -0.17883892 0.011181523 -0.24594924
0.22925113 -0.040908214 0.15973838 0.19658843 0.12623604 -0.17057198 0.2684043 0.073906906
-0.73204994 0.11331751 -0.07349833 -0.21048927 -0.06867806 0.18797879 0.2668483 0.38200882
-0.30131775 0.008630275 -0.06467221 -0.4803421 -0.19722845 -0.20337242 -0.8632207 -0.46099174
-0.052969582 0.107538596 0.31821778 0.25664312 -0.51674396 0.027977526 -0.71528673 -0.5399725
-0.22053598 -0.30921742 0.23925267 0.36353767 0.17567576 0.054602727 0.26327628 0.2106313
0.21832405 -0.545227 -0.0912145 -0.14957464 0.18428129 -0.7029344 -0.26984698 0.19616638
-0.019295527 -0.009937037 -0.090958364 -0.26447812 0.34183657 0.00016602501 -0.28458178 -0.43094593

arith.constant2 f4 [64, 18]
00000000: f59b 4c3e e26e a2bd 832f bb3d baf9 653e
00000010: 093f 38be d29d 013e 89d3 1b3b 3827 0ebf
00000020: 0edd 9bbe f276 313e 4d66 f63e 1a3e 0bbe
00000030: da46 003f 8edd c23e e6a6 95be 7b1d 883f
00000040: 8ed9 dbbe 8174 a53e fd6a 553d ae6b 993c
00000050: 6a5d 0ebd a047 6e3e 9253 83be f51d 233f
00000060: 9b13 ad3e ac3f 833f 7dcd 083f 397f 95be
00000070: 6089 be3e ec37 88be 8671 efbb 7a84 1cbf
00000080: e68e 673e 23fb 94bd 379d c4be fe7d 923e
00000090: 8a11 2c3e bf63 b4bc d046 173e a2d7 2fbe
000000a0: 059f bd3d b1b2 be3e 2650 81be 4c70 453f
000000b0: 39f2 893e f09a 0ebc 5ea7 f9bd 62e9 c3be
000000c0: 9202 1f3e 2773 78be 08a6 1bbe cc27 693f
000000d0: 3367 453f ffbf 4dbf 3a40 163e 058a 0abd
000000e0: 93c3 fb3d 5b75 c13e b991 103e bf7a d3be
000000f0: bc33 a93d 2a42 11bd cae4 8e3e d1f9 b9be
00000100: b894 8a3e 7c64 6fbe da2e 68bf 638e 2f3d
00000110: d1a2 d6be b33d b5bf f94e 253f 80e3 e7bd
00000120: 273c 2f3e 3bf9 3bbd 755d 053d 2222 d63e
00000130: 97fb e2be 9dcd 673b 1a00 903e 5714 bcbe
00000140: d3c3 babe 4ae2 ccbe 0d10 bcbd 97e9 2a3e
00000150: f81e 86be 4c21 663e 684c 693e a11d d3be
00000160: 073f 7c3c 28b6 06be 7c98 153e d78d 0dbd
00000170: c8a4 d53d 7c47 e1bd 486d 15bf 32d1 b33e
00000180: 95a6 8f3d ec88 20bf fb7e 0b3f e9b6 e03e
00000190: ed55 793d 2a1b 843e 7599 7abd 135c 06bc
000001a0: 4b1d ae3e 33c7 82be 30d1 fcbe 50e1 86be
000001b0: 3acf b03d 2e64 63bc 6951 043e 1b09 a3be
000001c0: b751 dd3e eb10 0cbe 0021 053f 7233 203d
000001d0: cfd5 6a3e 97d8 e23e c474 a33e 7551 4abd
000001e0: 4df1 4cbf 35f3 5bbe 2d72 a13e d265 213e
000001f0: 0261 8e3e 491c 8b3d f133 5b3d 8517 113e
00000200: 325c 6dbe af97 68bd e71f 8bbc e969 763e
00000210: eb75 5f3e 838d a3be 327f 7a3e 19a0 963e
00000220: c1cc 7dbe 657b bdbd c998 9abe 4a15 b93d
00000230: 795a 88be d268 023f 4ae5 4dbd 6824 003f
00000240: d86a c43d 6821 ebbc ba55 2d3d 1f4b 963d
00000250: 6eb1 ae3d 4b61 813b 8eaa 6bbe 20e9 2dbe
00000260: 62a3 39be ef0b 1ebe ff30 45bf 4ff2 5b3f
00000270: 9193 c53e ae47 883f 46e5 923e 2587 b9be
00000280: 452a 41bf 2691 403f 5f28 a4bc 77a1 0cbc
00000290: 84e5 2b3d 8b31 dcbc 2221 85be cc8c b23e
000002a0: 31b9 a6be ddcc e3be 588a debe 15d2 bd3e
000002b0: 7764 a53e c73b efbd 10a4 88bf 6849 e4be
000002c0: c254 a23e 6b1b 8dbb 1c7b 273e 05ba 2fbe
000002d0: 07d9 9cbc 1a0c 273c 26d9 063e 5190 3a3e
000002e0: fcc2 e73d 92ca 0cbf 031e b3be e613 613f
000002f0: fbf8 223f 4c71 e33b abe5 ed3d c25d d3bd
00000300: c3c5 91bd 83fc b93d cc16 dbbe 50ab c4be
00000310: db46 c63d d83a 79be be13 ed3d 9fba 74bc
00000320: 8f64 7f3c 72e1 c03e 10ea d6be e447 693e
00000330: fa8f a33d 787f 893d d09d 023f 8819 22bf
00000340: 1867 1abc b87c 013d 4c8d 933e 8d08 88be
00000350: 9235 87be 584d 05bf 380d 003f 7647 45bf
00000360: 6db1 b93d f10e 423a 5eda 11bd de76 fb3e
00000370: 0fea 953e 8453 c8be 2e06 7c3e b007 e83e
00000380: 5732 993e 934a e23e 50c0 17bf 6124 393e
00000390: 3dd6 8d3e a362 cf3d 9e56 02bf 1a13 4fbe
000003a0: 7aca c83e d476 b63c 1ed1 3c3d 7a51 d7bb
000003b0: a117 3bbc abd6 493e f1c4 c4be 9140 c03e
000003c0: 560b cfbe a43e 30be 604b b1be 6983 0a3f
000003d0: 51a5 ad3d 362e 353f 0d0d 833e effb 823f
000003e0: 8fba b4be ce6a 533e 7ba1 e73e aa4b 933e
000003f0: 7a12 1e3c 4c35 8d3c 4c28 bc3d 3f37 56bd
0.19981368 -0.079313055 0.091399215 0.22458544 -0.17992796 0.1265786 0.0023777208 -0.55528593
-0.3044209 0.1733053 0.48124924 -0.13597909 0.5010811 0.38059658 -0.29228896 1.0633997
-0.4293942 0.32315448 0.052103985 0.018728103 -0.034757055 0.2326951 -0.25649697 0.63717586
0.3380402 1.0253806 0.5343855 -0.29198626 0.37214184 -0.26605165 -0.007307234 -0.61139643
0.22613105 -0.07274463 -0.38401195 0.2861175 0.16803566 -0.022020219 0.14773107 -0.17172101
0.09258846 0.37245706 -0.2525646 0.77124476 0.26942614 -0.008703932 -0.12190126 -0.38263994
0.15528324 -0.24262677 -0.15200055 0.9107635 0.77110595 -0.8037109 0.14672938 -0.033823032
0.12293162 0.37784848 0.14118089 -0.41304585 0.08261821 -0.03546349 0.27908927 -0.36323407
0.27066588 -0.23378175 -0.9069649 0.0428604 -0.41921094 -1.4159454 0.6457363 -0.11322689
0.1711279 -0.04589198 0.03255983 0.41822916 -0.44332573 0.0035370358 0.28125077 -0.36734268
-0.36477527 -0.40016395 -0.09182749 0.1669067 -0.26195502 0.22473639 0.22783053 -0.41233543
0.015395886 -0.13155425 0.1460895 -0.034559097 0.1043182 -0.10999963 -0.58369875 0.3512054
0.07014195 -0.62708926 0.5449063 0.4388955 0.06087296 0.25801975 -0.061181504 -0.008200663
0.34006724 -0.25542602 -0.49378347 -0.26343775 0.08633275 -0.013878865 0.1292168 -0.31842884
0.43226406 -0.13678329 0.5200348 0.039111562 0.22933124 0.4430587 0.31925023 -0.04939409
-0.80055696 -0.21479495 0.31532422 0.15761498 0.27808386 0.06792504 0.053516332 0.14169128
-0.23179701 -0.05678528 -0.016982986 0.24063839 0.21822326 -0.31943902 0.24462584 0.2941902
-0.24785139 -0.09252051 -0.3019469 0.09037264 -0.26631525 0.50941193 -0.050267495 0.5005555
0.09590691 -0.028702453 0.042318083 0.07338547 0.08529936 0.003948366 -0.2301428 -0.16983461
-0.18128732 -0.1543424 -0.7702789 0.8591661 0.38589147 1.0646875 0.28690547 -0.3623592
-0.75455123 0.7522148 -0.020038782 -0.008583418 0.04196693 -0.026879093 -0.2600184 0.34873044
-0.32563165 -0.44492236 -0.43464923 0.37074342 0.3230321 -0.116813235 -1.0675068 -0.44587255
0.3170529 -0.004306247 0.16355556 -0.17160805 -0.019146455 0.010195756 0.13168773 0.18219115
0.11316487 -0.549966 -0.34983835 0.8792099 0.63661164 0.0069409963 0.11616071 -0.10320617
-0.07117798 0.09081366 -0.4279083 -0.3841195 0.09681483 -0.24338853 0.11576031 -0.014937072
0.01558794 0.37672 -0.4197545 0.2278133 0.07986446 0.06713766 0.5102205 -0.6332021
-0.0094239935 0.03161308 0.28818738 -0.26569024 -0.26408058 -0.5207114 0.5002017 -0.77062166
0.090670444 0.0007402739 -0.03560864 0.49114126 0.29280135 -0.39126217 0.24611732 0.45318365
0.2992122 0.4419752 -0.5927782 0.18080284 0.27702513 0.10126235 -0.5091342 -0.2022213
0.39216977 0.022273459 0.046097867 -0.006570992 -0.011419208 0.19710796 -0.38431504 0.3754926
-0.40438336 -0.17211396 -0.3462782 0.54106766 0.08478797 0.7077364 0.25595894 1.0233134
-0.35298583 0.20646212 0.45240387 0.28768665 0.00964796 0.017237328 0.091873735 -0.05229878

Const_2 f4 [63]
00000000: d3bc 0a3f 14e2 1d3f 8311 263f 2e4b 1e3f
00000010: 0b1b 133f 8781 153f 8b3e 123f 41e7 103f
00000020: 98ca 0f3f 41e8 053f c0ae 013f ea46 043f
00000030: cf7e 063f 2965 f13e e511 e93e c536 f83e
00000040: e230 023f b002 db3e 0524 d43e c0ab dd3e
00000050: 1394 e53e efbf 393f 573c 2c3f ec50 173f
00000060: dc7d 073f 7009 003f 390b ee3e cc0c c43e
00000070: 2524 bd3e ee86 b83e 5876 f03e 2b0d cb3e
00000080: a20c d33e 637e d63e 576c fd3e 5ee5 e23e
00000090: 1c19 f93e ae8e 033f 049f 083f 2d2c fb3e
000000a0: 7f8e 023f 4afe 053f 0d6b 5834 e8be 4fbd
000000b0: c3a8 96bd 89c8 bebd 7200 e1bd e748 28bd
000000c0: b37a b0bd 3c4f f2bd 16cb 0cbe 1ef7 2bbd
000000d0: 1805 bbbd faea efbd 7807 03be 0983 4cbd
000000e0: 7266 dbbd e192 f3bd cf0c eabd 30d2 7cbd
000000f0: 227c d3bd 878a d7bd 4102 cabd
0.5419437 0.6167309 0.6487047 0.61833465 0.5746314 0.5840077 0.57126683 0.56602865
0.5616851 0.52307516 0.5065727 0.51670706 0.52537245 0.47147492 0.45521465 0.48479286
0.5085584 0.42775488 0.4143373 0.43295097 0.44839534 0.7255849 0.6727957 0.5910785
0.5292642 0.500144 0.46492937 0.38291013 0.3694164 0.36040443 0.4696529 0.39658484
0.41220576 0.418933 0.4949672 0.44315618 0.4865197 0.51389587 0.5336764 0.4905714
0.5099868 0.5234114 2.0155512e-07 -0.05071917 -0.073564075 -0.09315593 -0.10986413 -0.04108515
-0.08617153 -0.11831519 -0.13749346 -0.041983716 -0.09131831 -0.1171474 -0.12795818 -0.049929652
-0.10712899 -0.11893249 -0.11428224 -0.061723888 -0.10326411 -0.10524469 -0.09863711

sequential_1/dense_1_2/BiasAdd/ReadVariableOp f4 [28]
00000000: 693f 9b3d dc29 4d3e 7d3c 9bbe d59b ba3b
00000010: 6a5f 213e 5589 fdbd bb22 8f3d f7e8 0f3d
00000020: f5a3 85bd 827e 5a3c e833 d43d 3eee f53c
00000030: 4016 18bc 380b 4bbc 03dc 94bd b62c 34bd
00000040: b664 febd 0a26 c33c 0991 923d 557a b3bc
00000050: d207 bb3d 83b1 18bd a17c b1bc a5cd 003e
00000060: 29b6 77bd 530a 46bd 6f4e 6fbc 7178 74be
0.07580454 0.200355 -0.30319586 0.005694846 0.15759054 -0.1237971 0.06989046 0.035134282
-0.06525413 0.013335826 0.10361463 0.03002083 -0.009282649 -0.0123928115 -0.072685264 -0.043987952
-0.12421553 0.02382185 0.071565695 -0.021908918 0.09132351 -0.037278663 -0.021665873 0.12578447
-0.060476456 -0.04834969 -0.014606102 -0.2387407

sequential_1/dense_1/BiasAdd/ReadVariableOp f4 [64]
00000000: ab32 153e 894f d63e e83b 6b3e 33c6 6c3e
00000010: b243 13bd e8d7 e83d f079 de3d ee44 633e
00000020: da13 9b3e d69a 843e 29a9 273f 6934 ed3e
00000030: 89b1 c83e 0ebe a43e 57c6 973e 620e b73e
00000040: ed82 0e3e 8d55 053d a812 983e b90e 513e
00000050: 7b9d 713e 4bd4 d93e 445f af3b bd34 ddbc
00000060: 8426 853e 2b17 e43d 6639 173d b7fc c73e
00000070: da92 573e 2a89 b93e 60a6 833e 1950 663e
00000080: 6109 403e 583b 593e 8c41 9b3e bc6d 0f3f
00000090: 56a9 6b3e 1aba aa3d 663a bd3e ceec 5b3e
000000a0: 1ef7 163f 6bb5 a43e 423d a93e 9026 343e
000000b0: b9d3 c23e 5af2 f23e 009e a63e b1af 0c3f
000000c0: d028 af3e 63e0 d03d a9ac dc3c 76ca 913d
000000d0: 3a9e 163e 2af1 e63e 2cca 563e bc87 893e
000000e0: d6a4 1c3e 6b42 053f d322 ab3e 7ca6 863e
000000f0: 0575 ca3e 974c af3d dd18 0b3e 8a0a 683e
0.1457011 0.41857556 0.22972071 0.23122482 -0.03595323 0.11369306 0.108631015 0.22194263
0.30288583 0.2589938 0.6549249 0.46329048 0.3919795 0.3217625 0.2964351 0.3575316
0.13917132 0.03255229 0.29701734 0.20415772 0.2359523 0.4254478 0.0053519327 -0.027002687
0.26005948 0.111372314 0.036919974 0.39059994 0.21052113 0.3623746 0.25712872 0.22491492
0.18753578 0.21214044 0.30323446 0.56026816 0.23013815 0.08336277 0.36958617 0.21477053
0.5897082 0.3216966 0.33054549 0.17592835 0.38052157 0.47450525 0.3254242 0.54955584
0.34210825 0.10199048 0.0269378 0.071186945 0.14708796 0.4510587 0.2097556 0.2686137
0.15297255 0.5205447 0.33425006 0.26298892 0.39542404 0.0855953 0.13583703 0.2266027
