assets/models/asl_landmark_model_1.tflite (tflite, 72528 bytes, 4 tensors)

arith.constant f4 [28, 192]
-0.4658971 0.5206477 0.6536968 0.2546848 0.17540412 -0.7266572 0.07228601 0.8096183
1.3463293 0.027408602 -3.4623935 -0.73173976 0.2786701 0.95554173 0.4478572 1.4413419
0.08467236 0.07255341 -0.17540675 0.34381342 -2.0229557 0.6192764 -0.7531115 0.21440008
-0.5825735 0.24988563 -1.4847077 -0.735658 1.2067825 0.3520689 0.094731055 -0.7762625
0.6164867 -0.14978272 -0.14655903 -0.31382406 1.158607 0.2400734 -0.0026240388 -0.14789496
-0.3979015 -0.3933313 -1.2160963 -0.2850611 -1.0798501 -0.1061227 0.8654741 -0.62713814
-1.9963936 0.2976994 -2.4261055 -0.095025755 -2.1980531 -0.39142296 0.6193437 0.31729567
-0.05676779 -0.062054195 1.1408631 0.23453277 0.2111086 0.4385157 -0.4459274 -0.21725017
-1.0785283 -0.2943939 0.0036581226 -1.8393737 -0.75934887 0.36239025 0.16706885 -0.29046562
0.26722237 -0.16166651 -0.57432884 -1.0082593 -0.048594326 0.85834825 -0.72484684 0.05696937
1.1507993 1.2692425 -0.54740405 -0.8096641 -1.1249939 0.04742893 0.63150036 0.3067048
0.601043 -0.05837621 -0.26556033 -0.13037434 -1.10892 0.48894474 2.4543571 -0.08394327
0.3984605 1.239097 0.21859756 0.7178758 0.27234545 0.30379355 -0.04762204 -2.014403
1.1768925 0.44640264 -0.59654266 -0.7925581 0.9318642 0.09846665 -0.92813385 0.96370655
0.2638857 -0.121857814 0.8183074 -0.51392615 0.21895525 -1.6091993 0.5754097 0.5483257
-0.12647109 -0.104465574 1.1601965 -0.3467222 -0.96502954 -0.5375904 -0.25615776 0.66938776
0.25386396 -1.1469673 -0.50677836 -0.38855618 0.61154574 -0.14133288 -2.3135712 1.1284349
-0.1663086 -2.4172027 0.7035302 0.23196603 -0.35746852 -0.34350988 0.40244773 0.5205574
0.082561105 -1.0917628 1.0155654 0.4189656 2.2337656 0.17731017 0.0026657926 -0.90432143
0.86265135 0.6918557 0.7797265 -1.3465786 1.2136697 0.91377026 -0.32796836 -1.5740542
-0.15785898 1.1246729 0.037562545 0.4712645 -2.1114562 0.16529238 0.29550704 0.80771065
0.229389 -0.38358393 -2.3933978 0.8026705 0.14483936 1.4194558 -0.56418145 -1.2764999
-1.4691857 -0.7120859 0.011395253 -0.7871985 0.5833631 0.23003197 -0.091063 0.08049744
-0.41867566 0.011867317 0.3824901 -0.3859189 1.379257 0.91157806 -1.3802153 0.22424357
0.2941231 -0.51927966 -1.8956764 0.7344188 -0.29689634 -0.051112443 -0.31960803 -0.33858138
-0.7750569 -0.35552037 -0.56404614 -1.0292201 1.0451164 0.43648395 0.8520569 -1.3518674
0.85033804 0.01345456 -0.1771748 0.6192623 0.10061466 -0.25166413 -0.09853152 -0.5405164
-0.6961433 -1.1294974 -1.7793922 -1.2303447 0.5998458 -0.48630062 -0.16157018 -0.43133676
0.5728976 -0.54599893 0.01988316 -0.34505042 -0.50131226 0.31529495 1.7878112 0.22063759
-1.1450913 -0.30553183 1.5330904 -2.3169699 -1.7927806 -0.3647971 -0.5536658 0.017332891
0.5906194 0.7579632 -0.7983964 -0.6773011 -1.8028238 -0.21437675 -0.14728396 1.5491751
0.498872 -0.43146014 -0.7232744 -0.8006738 -0.2747202 -0.36975342 -0.53233457 -0.5517443
00000000: 118a eebe 2b49 053f ac58 273f 0c66 823e
00000010: 239d 333e 3506 3abf b00a 943d 2543 4f3f
00000020: 8554 ac3f 0188 e03c db97 5dc0 4c53 3bbf
00000030: d9ad 8e3e 629e 743f 8a4d e53e e47d b83f
00000040: b468 ad3d e296 943d d49d 33be 5008 b03e
00000050: 1b78 01c0 e688 1e3f eacb 40bf b28b 5b3e
00000060: 8923 15bf 05e2 7f3e e70a bebf 1554 3cbf
00000070: d977 9a3f 6042 b43e 5b02 c23d 24b9 46bf
00000080: 13d2 1d3f a460 19be 9213 16be 8cad a0be
00000090: 3c4d 943f cdd5 753e 11f8 2bbb c771 17be
000000a0: bfb9 cbbe b862 c9be 0ba9 9bbf 87f3 91be
000000b0: 8738 8abf dc56 d9bd b68f 5d3f 208c 20bf
000000c0: d389 ffbf 0e6c 983e 5045 1bc0 dd9c c2bd
000000d0: e7ac 0cc0 9768 c8be 4f8d 1e3f 9474 a23e
000000e0: 5885 68bd 8a2c 7ebd cd07 923f 5c29 703e
000000f0: da2c 583e 2185 e03e 9950 e4be d476 5ebe
00000100: 370d 8abf ccba 96be 1dbd 6f3b 9970 ebbf
00000110: b064 42bf 378b b93e 1914 2b3e e9b7 94be
00000120: 5fd1 883e e88b 25be 3707 13bf a40e 81bf
00000130: d80a 47bd b6bc 5b3f 908f 39bf b758 693d
00000140: 644d 933f 8a76 a23f ac22 0cbf 2546 4fbf
00000150: cdff 8fbf d644 423d 02aa 213f 6908 9d3e
00000160: f4dd 193f e51b 6fbd 86f7 87be da80 05be
00000170: 17f1 8dbf f756 fa3e 3014 1d40 73ea abbd
00000180: 0403 cc3e bb9a 9e3f 0ad8 5f3e b5c6 373f
00000190: dd70 8b3e d48a 9b3e 540f 43bd fbeb 00c0
000001a0: 6aa4 963f e38e e43e 05b7 18bf 16e5 4abf
000001b0: a78e 6e3f e2a8 c93d 2e9a 6dbf 79b5 763f
000001c0: 071c 873e 9790 f9bd 987c 513f aa90 03bf
000001d0: ce35 603e 3efa cdbf 0d4e 133f 135f 0c3f
000001e0: a381 01be 0cf2 d5bd 5281 943f 9285 b1be
000001f0: 2d0c 77bf 869f 09bf 1c27 83be ff5c 2b3f
00000200: 75fa 813e d3cf 92bf 3abc 01bf d6f0 c6be
00000210: 438e 1c3f 91b9 10be 8d11 14c0 8e70 903f
00000220: cd4c 2abe 73b3 1ac0 8e1a 343f 8188 6d3e
00000230: 1d06 b7be 87e0 afbe a10d ce3e 4043 053f
00000240: cc15 a93d e2be 8bbf 0cfe 813f a982 d63e
00000250: 04f6 0e40 cc90 353e 94b4 2e3b 9c81 67bf
00000260: b8d6 5c3f 751d 313f 289c 473f b05c acbf
00000270: 8759 9b3f d9ec 693f 78eb a7be 9c7a c9bf
00000280: c9a5 21be 48f5 8f3f 2fdb 193d 9549 f13e
00000290: 1922 07c0 6842 293e b34c 973e 20c6 4e3f
000002a0: f3e4 6a3e 1d65 c4be 6e2d 19c0 d07b 4d3f
000002b0: c550 143e bab0 b53f 326e 10bf 5964 a3bf
000002c0: 470e bcbf 434b 36bf 28b3 3a3c d785 49bf
000002d0: 4957 153f 808d 6b3e 3d7f babd d8db a43d
000002e0: a85c d6be 236f 423c bed5 c33e 2997 c5be
000002f0: 7e8b b03f 2e5d 693f e5aa b0bf 1ba0 653e
00000300: 4e97 963e 83ef 04bf 86a5 f2bf df02 3c3f
00000310: cc02 98be 485b 51bd aaa3 a3be 8a5a adbe
00000320: 216a 46bf c406 b6be 5465 10bf 7cbd 83bf
00000330: 60c6 853f d37a df3e 6720 5a3f fe09 adbf
00000340: c1af 593f 8470 5c3c 506d 35be f987 1e3f
00000350: 0f0f ce3d 1fda 80be e5ca c9bd 485f 0abf
00000360: 7336 32bf 5f93 90bf 20c3 e3bf ef7b 9dbf
00000370: 7f8f 193f 65fc f8be a772 25be 2cd8 dcbe
00000380: 6ba9 123f 96c6 0bbf 02e2 a23c 73aa b0be
00000390: 0056 00bf 576e a13e ffd6 e43f d2ee 613e
000003a0: 5a92 92bf ab6e 9cbe 4e3c c43f 3c49 14c0
000003b0: d679 e5bf afc6 babe 0bbd 0dbf b5fd 8d3c
000003c0: d532 173f e009 423f b563 4cbf 9b63 2dbf
000003d0: eec2 e6bf 9485 5bbe 9bd1 16be 5f4b c63f
000003e0: 276c ff3e 58e8 dcbe 8328 39bf f5f8 4cbf
000003f0: 20a8 8cbe 5250 bdbe 1447 08bf 1d3f 0dbf

arith.constant1 f4 [28]
1.2451483 3.78609 0.20482883 4.6110954 2.9337032 0.94431126 4.0033545 2.1993942
0.7145947 2.3295667 4.6105537 0.51085466 3.7373936 1.8647951 2.1555202 2.1300688
1.6548947 4.5850244 4.0657454 3.1324031 4.853071 -0.0038852273 0.68583214 5.3207345
-0.8903885 0.7768311 1.9942235 -0.17349237
00000000: 0561 9f3f 4c4f 7240 a6be 513e 188e 9340
00000010: cbc1 3b40 62be 713f 7b1b 8040 e0c2 0c40
00000020: aeef 363f 9f17 1540 a889 9340 5fc7 023f
00000030: 7531 6f40 9bb1 ee3f 0bf4 0940 0c53 0840
00000040: 97d3 d33f 85b8 9240 961a 8240 4b79 4840
00000050: 5c4c 9b40 4c9f 7ebb b292 2f3f 7543 aa40
00000060: 80f0 63bf 67de 463f b742 ff3f fca7 31be

arith.constant2 f4 [192]
0.01255007 -0.049965534 -0.0037960024 -0.12041747 -0.012674666 -0.009967985 -0.07094545 -0.0726694
-0.037487414 -0.06773412 -0.054587673 0.03631858 -0.116690956 -0.044132143 -0.0138507895 -0.04979592
-0.053365994 0.014054414 -0.01777223 -0.16612391 0.009486851 -0.053393185 -0.064929835 -0.023558771
-0.0059003355 -0.07530882 -0.04950269 -0.100552686 0.00050635246 0.020368902 -0.08301308 0.06890566
-0.08221425 -0.0092872 -0.06481833 0.036472224 -0.08783121 -0.22722617 0.0047511016 0.0004366525
-0.031458188 -0.028678086 -0.023188818 -0.15964314 -0.06839943 0.14822045 0.061723568 -0.0012968768
0.026202291 0.069623224 0.028153306 -0.08905143 -0.023356307 -0.059908457 -0.09944425 -0.04840425
0.046187155 0.003821917 -0.08380568 0.0034852633 -0.16743684 -0.031848345 -0.03386494 -0.068007335
-0.03659005 -0.06534594 0.016612373 0.045251917 0.12481475 -0.01122951 -0.1006722 0.07396963
-0.033461414 0.019091193 -0.078347825 0.005434608 -0.11680877 -0.05519318 0.081064366 0.022437805
0.012277563 0.050145514 -0.048356146 -0.0009166944 -0.10578035 0.043117687 -0.010123949 -0.2001951
-0.047778007 -0.028205084 -0.013056898 0.0069936593 -0.033380028 0.11037585 -0.05875955 -0.020622024
-0.03252349 -0.082832485 -0.054511085 -0.063439175 0.0161242 0.072507806 -0.044590846 -0.10873369
-0.09018797 -0.06194288 0.011965098 -0.1581424 -0.112990044 -0.101781905 -0.05645456 -0.034870565
0.105871886 0.16621394 -0.054286696 0.045969363 0.013756249 0.00847135 -0.039222397 -0.039181385
-0.057403885 -0.06972172 -0.024293588 -0.17277043 -0.019925738 0.02787482 -0.06498765 -0.0073386547
-0.1225391 -0.06989156 -0.022144714 -0.008067836 -0.028421251 0.022428188 0.02711035 -0.00012937335
-0.03531014 -0.06860232 0.06365571 -0.08135356 -0.032665685 0.070319764 -0.036294583 -0.06011335
-0.117790975 -0.0038997368 -0.09946558 0.044464353 -0.109866336 0.12795727 0.11384734 -0.016410844
0.02307078 -0.12403713 0.007361514 0.00024306816 -0.080731325 0.008470232 0.00011534956 -0.050645687
-0.049299676 0.020754827 0.0934287 0.009600798 -0.052735116 -0.101374224 -0.034510836 0.05599264
0.06104637 -0.10173687 -0.029166825 -0.09965927 0.08609947 -0.02203744 -0.070635684 0.066592164
-0.099058904 -0.002924581 0.027633287 -0.1511654 -0.10585174 0.0121753225 -0.050195962 -0.16095798
0.035465915 -0.072240174 -0.029636815 0.03964835 -0.07150056 -0.0028458051 -0.012672402 0.006699902
00000000: cf9e 4d3c a9a8 4cbd 5ac6 78bb 6f9d f6bd
00000010: 67a9 4fbc c250 23bc d94b 91bd b2d3 94bd
00000020: 678c 19bd 30b8 8abd 5397 5fbd cbc2 143d
00000030: abfb eebd e8c3 34bd 6cee 62bc cef6 4bbd
00000040: 4d96 5abd 7c44 663c 1197 91bc 631c 2abe
00000050: bd6e 1b3c d0b2 5abd eff9 84bd 53fe c0bc
00000060: 9a57 c1bb 833b 9abd 55c3 4abd 91ee cdbd
00000070: bdbc 043a afdc a63c c302 aabd 691e 8d3d
00000080: f25f a8bd 5729 18bc 79bf 84bd e663 153d
00000090: d9e0 b3bd faad 68be 21af 9b3b 82ee e439
000000a0: 4dda 00bd 4eee eabc 7af6 bdbc 7e79 23be
000000b0: 0015 8cbd 1ac7 173e dad1 7c3d f7fb a9ba
000000c0: 30a6 d63c 9f96 8e3d c3a1 e63c 9960 b6bd
000000d0: ba55 bfbc 9262 75bd 6da9 cbbd 8943 46bd
000000e0: be2e 3d3d 2179 7a3b 50a2 abbd 0469 643b
000000f0: 9074 2bbe 6973 02bd f7b5 0abd 6e47 8bbd
00000100: 73df 15bd 18d4 85bd ac16 883c 135a 393d
00000110: e09e ff3d fbfb 37bc 3a2d cebd 647d 973d
00000120: d60e 09bd 2265 9c3c d374 a0bd cc14 b23b
00000130: 7039 efbd 3e12 62bd 1305 a63d 7dcf b73c
00000140: d527 493c 6265 4d3d 1811 46bd 524e 70ba
00000150: 5ea3 d8bd 2c9c 303d ebde 25bc f2ff 4cbe
00000160: dfb2 43bd 590e e7bc 99ec 55bc 112b e53b
00000170: 7fb9 08bd bc0c e23d dbad 70bd 85ef a8bc
00000180: 5a37 05bd 14a4 a9bd 0447 5fbd 66ec 81bd
00000190: e616 843c f97e 943d e4a4 36bd c5af debd
000001a0: 78b4 b8bd d1b7 7dbd 4209 443c 15f0 21be
000001b0: 5367 e7bd 0873 d0bd e63c 67bd 70d4 0ebd
000001c0: 5cd3 d83d fd33 2a3e ba5b 5ebd 5f4a 3c3d
000001d0: e461 613c 6bcb 0a3c aaa7 20bd a97c 20bd
000001e0: 5620 6bbd 43ca 8ebd 5903 c7bc bbea 30be
000001f0: 4d3b a3bc bc59 e43c 3f18 85bd 1979 f0bb
00000200: c8f5 fabd 4e23 8fbd d568 b5bc f52e 04bc
00000210: afd3 e8bc 52bb b73c 8616 de3c 65a8 07b9
00000220: 5ea1 10bd 607f 8cbd ed5d 823d b29c a6bd
00000230: 74cc 05bd cf03 903d a1a9 14bd 6b39 76bd
00000240: 653c f1bd ba92 7fbb 9cb4 cbbd 4120 363d
00000250: 9a01 e1bd 3b07 033e cb28 e93d 0970 86bc
00000260: effe bc3c 2e07 febd db38 f13b 1de0 7e39
00000270: 7756 a5bd bac6 0a3c d3e7 f138 da71 4fbd
00000280: 75ee 49bd 0706 aa3c 8c57 bf3d aa4c 1d3c
00000290: c700 58bd 4a9d cfbd 3c5b 0dbd 8a58 653d
000002a0: c20b 7a3d 6c5b d0bd 44ef eebc 291a ccbd
000002b0: eb54 b03d dd87 b4bc 71a9 90bd 7961 883d
000002c0: 65df cabd 54aa 3fbb 345f e23c 1acb 1abe
000002d0: ccc8 d8bd 017b 473c 489a 4dbd 2bd2 24be
000002e0: b544 113d a8f2 93bd e8c8 f2bc 4f66 223d
000002f0: e36e 92bd b080 3abb e89f 4fbc da8a db3b

sequential_1/dense_1/MatMul f4 [192, 63]
-0.07413296 -0.013058749 -0.06860304 -0.06837214 0.1066792 -0.20428231 -0.02724808 0.055506896
0.037627254 0.034015007 -0.10098215 -0.05221053 -0.055702075 0.058373526 0.015451771 0.13800322
-0.09872542 0.055330254 0.05597866 0.12472174 0.15959424 0.084336236 0.15358338 0.0034772966
0.049490213 0.03783419 -0.12288457 0.13035592 -0.06709597 -0.09928576 -0.10632093 0.13552715
-0.067923136 -0.06397275 0.043596137 0.13642748 -0.11780923 -0.053798743 -0.017124103 0.003235347
0.0141377505 -0.0869372 0.17084824 -0.022283055 -0.060978506 0.073470235 0.053495273 0.04296911
0.014201865 -0.039179947 -0.12243939 0.042166136 0.1291839 -0.10515892 0.0988056 -0.16643389
0.11007608 -0.22468995 -0.08734786 0.06543881 0.11557868 0.11656746 0.08383243 0.08966776
-0.017872129 0.15773599 0.011572304 -0.059949163 0.1487144 0.087925136 0.006516904 -0.13242544
-0.045181766 -0.008105736 -0.013970328 -0.008483914 0.02199401 -0.16597763 0.01079638 -0.08689403
-0.035398617 -0.12493039 0.044737294 0.10230743 -0.057716854 0.09372346 -0.08934118 0.06119998
-0.07718466 -0.083527304 -0.06266437 -0.04471878 -0.06985162 0.026504451 0.115279846 0.21646792
-0.012471486 -0.019789277 -0.0012591624 0.056960776 -0.13809982 -0.0802403 -0.021436613 0.17798762
0.02141189 0.016272537 -0.04157717 0.1238877 0.05720253 -0.019733803 -0.03684201 -0.12227823
0.112253234 -0.01341543 0.025393093 -0.02009565 0.013632283 0.15256296 -0.054775566 -0.04353528
-0.117999636 0.048741627 -0.13478985 0.028303556 0.087599285 0.08800076 -0.052724052 0.051611952
-0.15255769 0.044664238 0.18799219 -0.062396973 0.021178333 0.13283762 -0.14865449 -0.053670377
-0.09094026 -0.047610942 -0.03870093 0.0372864 0.05618142 0.08037051 0.1278747 -0.10455323
-0.01302339 0.06639598 -0.02570617 -0.014552566 -0.060681514 0.15548128 0.0128750205 -0.11600942
-0.09235798 -0.06908305 0.18771654 0.15598457 0.03894863 -0.07773633 -0.110012345 0.0650344
0.031519596 -0.15005188 -0.06675246 -0.015429499 0.06278748 0.05761028 0.014022139 0.0495737
0.0352981 0.072321884 0.10209603 -0.04926109 -0.036206733 0.042710345 -0.021096487 -0.15778936
-0.11944012 -0.002415812 0.094588384 -0.09437734 0.12484688 -0.054379907 0.22875616 -0.041857857
-0.058936354 0.12115407 -0.046382967 -0.031943757 -0.032793924 0.0046766526 0.067158155 0.014728795
0.012718348 0.09262813 0.042329572 0.05086317 -0.020106932 0.011114341 -0.06374233 -0.05039046
0.031498954 0.06509057 0.08830361 -0.16582057 0.0047072964 -0.1101341 -0.07865436 -0.08047983
0.08804652 0.0056250873 -0.097587764 0.101776466 0.069407225 -0.013666977 0.11909167 -0.041704122
-0.13242978 -0.013125817 -0.01575841 0.037248265 -0.16412674 -0.09961874 -0.08616723 0.08731789
0.06736026 -0.111642875 -0.15329795 -0.050888088 -0.045881964 0.02558683 0.047471076 -0.12554398
0.06692196 0.11141072 0.05257678 -0.01350403 -0.036760658 -0.099170595 0.06990122 -0.23697478
-0.10733598 -0.03582024 -0.013946735 -0.010076224 0.14515975 0.090321176 0.04517386 0.045636155
-0.039060798 0.06973328 -0.062293857 0.13060696 -0.12893857 -0.08971048 -0.09172526 0.046288904
00000000: 05d3 97bd 5df4 55bc c07f 8cbd b106 8cbd
00000010: a07a da3d 622f 51be 5e37 dfbc 335b 633d
00000020: 091f 1a3d 5253 0b3d bbcf cebd b5da 55bd
00000030: dc27 64bd 1419 6f3d 6d29 7d3c b750 0d3e
00000040: 8e30 cabd faa1 623d e149 653d 1d6e ff3d
00000050: ac6c 233e 7ab8 ac3d f644 1d3e 5be3 633b
00000060: 40b6 4a3d 06f8 1a3d e8aa fbbd 067c 053e
00000070: 9d69 89bd 5556 cbbd cabe d9bd a1c7 0a3e
00000080: 491b 8bbd 2504 83bd dd91 323d a5b3 0b3e
00000090: f745 f1bd 125c 5cbd d947 8cbc 1e08 543b
000000a0: 06a2 673c 210c b2bd d7f2 2e3e f48a b6bc
000000b0: 99c4 79bd 9077 963d dc1d 5b3d 6100 303d
000000c0: f0ae 683c 277b 20bd 81c1 fabd 66b6 2c3d
000000d0: c948 043e 8f5d d7bd 975a ca3d a56d 2abe
000000e0: 916f e13d 1f15 66be 6fe3 b2bd c804 863d
000000f0: 84b4 ec3d ecba ee3d 56b0 ab3d bba3 b73d
00000100: 9268 92bc 8b85 213e c399 3d3c 418d 75bd
00000110: 9648 183e 1812 b43d c18b d53b 899a 07be
00000120: 8410 39bd eccd 04bc cde3 64bc 1d00 0bbc
00000130: c82c b43c 0af6 29be 4de3 303c 7ff5 b1bd
00000140: 24fe 10bd 81db ffbd 743e 373d 8f86 d13d
00000150: 8268 6cbd 16f2 bf3d 82f8 b6bd d5ac 7a3d
00000160: fe12 9ebd 5d10 abbd 2d56 80bd 0a2b 37bd
00000170: 5e0e 8fbd dd1f d93c d717 ec3d c4a9 5d3e
00000180: 3455 4cbc 1f1d a2bc 7b0a a5ba b44f 693d
00000190: 0a6a 0dbe 0755 a4bd d69b afbc 6342 363e
000001a0: fd67 af3c fc4d 853c d34c 2abd d6b8 fd3d
000001b0: 334d 6a3d c9a8 a1bc a6e7 16bd 026d fabd
000001c0: 06e5 e53d 64cc 5bbc 2d05 d03c a29f a4bc
000001d0: f059 5f3c 7739 1c3e 585c 60bd 0d52 32bd
000001e0: cba9 f1bd 4da5 473d 5a06 0abe dcdc e73c
000001f0: 4167 b33d be39 b43d 2df5 57bd 0e67 533d
00000200: 1538 1cbe d9f1 363d 0681 403e f893 7fbd
00000210: 2f7e ad3c 9606 083e e238 18be 78d5 5bbd
00000220: e33e babd b103 43bd de84 1ebd a0b9 183d
00000230: 7d1e 663d 4b99 a43d 96f1 023e 0120 d6bd
00000240: 0f60 55bc 9efa 873d bf95 d2bc e36d 6ebc
00000250: 2e8d 78bd 7c36 1f3e c0f1 523c 5996 edbd
00000260: 2e26 bdbd 6a7b 8dbd c438 403e 6bba 1f3e
00000270: 9988 1f3d 3a34 9fbd 274e e1bd c130 853d
00000280: b11a 013d 33a7 19be 84b5 88bd 02cc 7cbc
00000290: b996 803d c2f8 6b3d 1dbd 653c cb0d 4b3d
000002a0: be94 103d 7f1d 943d b917 d13d ffc5 49bd
000002b0: 834d 14bd 0bf1 2e3d 8ad2 acbc 8993 21be
000002c0: 069d f4bd 9a52 1ebb 8eb7 c13d e848 c1bd
000002d0: b9af ff3d 77bd 5ebd 0e3f 6a3e 2573 2bbd
000002e0: 3f67 71bd a01f f83d 11fc 3dbd 75d7 02bd
000002f0: ec52 06bd 9b3e 993b 378a 893d 0b51 713c
00000300: 9e60 503c d1b3 bd3d c661 2d3d e655 503d
00000310: 4bb7 a4bc ed18 363c 578b 82bd 3a66 4ebd
00000320: 0c05 013d 344e 853d 86d8 b43d decc 29be
00000330: aa3f 9a3b fd8d e1bd 8915 a1bd 9cd2 a4bd
00000340: bc51 b43d a752 b83b 18dc c7bd 2e70 d03d
00000350: 6025 8e3d 75eb 5fbc 55e6 f33d f1d1 2abd
00000360: ac9b 07be ab0d 57bc c817 81bc a391 183d
00000370: d710 28be e904 ccbd 7278 b0bd b9d3 b23d
00000380: 2df4 893d 05a5 e4bd 23fa 1cbe 0770 50bd
00000390: baee 3bbd 799b d13c 0871 423d 9a8e 00be
000003a0: 610e 893d 4e2b e43d c05a 573d 0240 5dbc
000003b0: 5892 16bd f419 cbbd 5f28 8f3d 84a9 72be
000003c0: f7d2 dbbd 3eb8 12bd d980 64bc bf16 25bc
000003d0: c2a4 143e 4ffa b83d 3a08 393d faec 3a3d
000003e0: 37fe 1fbd 52d0 8e3d d827 7fbd d5bd 053e
000003f0: 7908 04be 21ba b7bd 74da bbbd 6f99 3d3d
