assets/models/asl_landmark_model.tflite (tflite, 116028 bytes, 6 tensors)

arith.constant f4 [29, 128]
00000000: 7605 603e f18b 0bbe aa4d 30be dec3 45be
00000010: ffa4 85bd 2964 fc3d de12 103e 61d2 493d
00000020: b9c3 bfbd c934 a13d c424 e5bc 0b3e 9cbd
00000030: dbcc d9bd 24f4 1cbe d46b 12be 179e f0bd
00000040: a3dd 3fbe 2514 1b3e 26c4 2e3e fb98 32be
00000050: b8d2 b6bd 6800 b1bd 15d5 8ebd 84e2 083d
00000060: 7cd5 62bc 5c38 02bd 8410 2ebd 780f bb3d
00000070: 3943 f83d 4205 7d3d cef7 e7bd 0d3b cabd
00000080: 6f17 b93d 8756 7bbd 9387 a2bd 3777 b7bd
00000090: 02f9 27bd 2b95 343e f031 09be f249 273e
000000a0: f38f 363b 1d99 8fbd 9555 393e 540b e5bd
000000b0: a56b 973d c317 1abe fadb 65bd f795 65bd
000000c0: 20aa 313e 99b0 dabd 222d 273d 4c5c 91bd
000000d0: 8478 96bd 2f2c b03b 8424 e9bd 2d61 01be
000000e0: 3fb4 36bd 1cf7 a03d 4281 eebd 09fc bfbd
000000f0: 6f03 b8bb bc6e 073e 8c75 d6bd 4ad4 02be
00000100: 492c 1dbd 392f 6bbc f29c fdbd 6edc 0f3e
00000110: e59d 56bd c3d9 733d 7fcc e43d 0e38 0a3e
00000120: 5a82 013e 6b88 13be 98ef 003e 80d5 eabd
00000130: e5a2 c93b 466b 543e 1fd0 5f3e b2a4 11be
00000140: 2285 a43d 13de fcbc 0baa d2bd 85bc bcbd
00000150: a3e8 4f3e a4df 453e 1fec e13d ab98 56be
00000160: a5c4 58be c8c2 b5bd adda 0dbd cfea 58bd
00000170: 5983 0fbe 3a2b 14be c3e7 7abd 6566 d03d
00000180: dfad 933d bd4b 12be ff94 4e3d 2e30 0a3e
00000190: 9834 a2bd fe27 77bd faa4 593d 9d4f d03d
000001a0: a2f6 64be 7b75 17be 4b82 afbd 642a 21be
000001b0: 4f08 13be bb26 02be 1b09 ab3b 5dcc 0cbe
000001c0: 19df a03d 2ab8 0cbc 9587 223e 7551 b6bd
000001d0: 6cfe f1bc 3991 28be 5ac5 153e f93b c03d
000001e0: bb8b f63d 09fc 143e 8069 e5bd 5681 a5bb
000001f0: 3484 353e 535f 30be 6f99 f13d 58fe 0e3e
00000200: de4f ba3d c519 17be 67e0 7abd 0a7e a4bd
00000210: 6263 503e ec5d 9dbd c701 23be b800 4e3e
00000220: ece3 0f3d f67e abbd 5f43 eabd 5da2 edbd
00000230: 48c1 7dbd 44dd 70be 04a9 53be 2da9 983e
00000240: 73e7 5f3e 9d68 0c3e 0ae7 2dbe f310 da3b
00000250: 6613 0abd b6f6 03bd dc7a cd3c 3190 8ebd
00000260: b498 873c 4515 fe3d 1876 763d 3a46 c2bd
00000270: ca0b 28be 6446 40be 64d8 a4bd 3d33 6c3e
00000280: e232 2fbe 123f 283e 00d8 73bd 6f05 08bb
00000290: 4114 0cbe 3e3b 2ebe 2299 07be 4947 08bd
000002a0: 6393 09be fcd1 cc3d 8593 f0bd b79c 30be
000002b0: 9d08 8dbd 9ea0 f0bd ff63 713e ff8a 0a3d
000002c0: be95 0abe 0dda edbd 6ac4 883d 0646 553e
000002d0: fdc5 51bc 9a21 dd3d 8612 8c3e 3bed 3d3e
000002e0: f0b5 81bd 4285 40be 702f 543e 32a6 38be
000002f0: 5d59 2ebe 0b50 adbc addf 263e 806f 80bd
00000300: 4cb0 853d f343 21be 1f3f 3cbd 3a54 c2bc
00000310: 79fd 49bd 6103 07be 876e ed3d bf16 b7bd
00000320: 3b78 8cbd 8ce6 683e 44e0 27be 7bda d5bd
00000330: 278a 17be 58aa ecbd 7659 9abd f44b 56be
00000340: ca4b 023e 4262 ae3b 6855 1e3e bebb 2c3e
00000350: 0f94 413e d542 14bd dcbd 8e3d 6858 44be
00000360: 0f2b b5bd ae5d 64be 1183 debc d4e3 1c3e
00000370: a210 53be 2f8c 4dbe 7112 2cbe 72e8 99bd
00000380: 7fa6 48be e2c9 0ebe 7164 d5bd 7bfa 0fba
00000390: 1010 353e c620 3abe 4253 013e 1268 99bd
000003a0: 30ee a5bc 2bf3 543e 6ea7 2c3e 168f 31be
000003b0: 778a fdbd b305 c03d 6a99 3a3e 7568 1dbe
000003c0: 3c28 3dbd 6cd5 1d3e 37e6 50be 2179 d9bd
000003d0: 59a5 2cbe c2c2 0ebe 3f29 2dbc 2077 56bd
000003e0: dc21 e4bd 5204 14be 0eae 8bbd 4d83 1f3d
000003f0: 63db b1bd beb8 13bc dbe3 13be 7067 e13d
0.21877083 -0.13627602 -0.17217126 -0.19312999 -0.06525611 0.123237915 0.14069697 0.0492729
-0.09363503 0.07871396 -0.027971633 -0.07629021 -0.10634776 -0.15327507 -0.14298946 -0.11748903
-0.18736891 0.15144403 0.17067012 -0.1744117 -0.0892691 -0.086426556 -0.06974236 0.033419147
-0.013844844 -0.03179203 -0.04249622 0.0913381 0.12122197 0.061772592 -0.11326562 -0.09874544
0.09037673 -0.061361816 -0.07936015 -0.08958285 -0.041008957 0.17635028 -0.13397956 0.16336802
0.0027856797 -0.07011626 0.18099053 -0.11183801 0.073935784 -0.15048127 -0.05611799 -0.05605122
0.17350054 -0.106782146 0.040814526 -0.07097682 -0.07347205 0.005376361 -0.11383918 -0.12634726
-0.04460549 0.078596324 -0.11645748 -0.09374244 -0.0056156437 0.13225836 -0.10471639 -0.12776294
-0.03837231 -0.0143545205 -0.123834506 0.14048931 -0.052396674 0.059533846 0.11171817 0.13497946
0.12647381 -0.14407508 0.12591398 -0.11466503 0.0061534517 0.20744047 0.21856736 -0.14222983
0.080332056 -0.030867612 -0.10286339 -0.09215645 0.20303588 0.19323593 0.11031365 -0.20956676
-0.21168764 -0.08875042 -0.034632374 -0.052958306 -0.14014949 -0.14469615 -0.06125618 0.1017578
0.07210898 -0.14286704 0.050435062 0.13494942 -0.07920188 -0.060340874 0.05313585 0.10171435
-0.22359708 -0.14790909 -0.08569773 -0.15738827 -0.14358638 -0.12710087 0.0052195913 -0.13749833
0.078550525 -0.00858883 0.15872033 -0.089022554 -0.029540263 -0.16461648 0.14626065 0.09386439
0.1203837 0.14549269 -0.11201763 -0.0050508184 0.17726213 -0.17223863 0.11796843 0.13964212
0.09097265 -0.14755924 -0.061249163 -0.080318525 0.20350412 -0.0768393 -0.15918647 0.20117462
0.035129473 -0.08373825 -0.11438631 -0.11603234 -0.061951905 -0.23521906 -0.20669943 0.2981657
0.21865635 0.13711782 -0.16982666 0.0066548525 -0.033709906 -0.032217704 0.025082998 -0.06961096
0.016552307 0.124064006 0.060171217 -0.09486051 -0.16410747 -0.18776852 -0.08049086 0.23066421
-0.17109254 0.1643031 -0.059532166 -0.0020755192 -0.13679601 -0.17014787 -0.1324201 -0.033271108
-0.1343513 0.10000989 -0.11746887 -0.17247282 -0.068864085 -0.11749385 0.23573302 0.033823963
-0.13533685 -0.116138555 0.06678088 0.20827493 -0.012803552 0.107974246 0.27357882 0.18547527
-0.0633353 -0.18800834 0.20721221 -0.18032148 -0.17026277 -0.021156332 0.16296263 -0.06271267
0.065277666 -0.15748577 -0.045958634 -0.023721803 -0.049313996 -0.13184883 0.11593347 -0.08939885
-0.0685887 0.22744197 -0.16394144 -0.104420625 -0.14798795 -0.11555928 -0.075365946 -0.20927411
0.12724224 0.005321772 0.15462267 0.16868493 0.18904136 -0.03619655 0.069698066 -0.1917435
-0.088461034 -0.22301361 -0.027162107 0.15321285 -0.20611814 -0.20073007 -0.1680391 -0.075150385
-0.19594763 -0.139442 -0.10419548 -0.00054923416 0.17681909 -0.18176565 0.12629417 -0.07490553
-0.020255178 0.20795886 0.16860744 -0.17339739 -0.12379926 0.09376087 0.18222585 -0.15371878
-0.04618095 0.15413445 -0.2040032 -0.10618807 -0.1685995 -0.13941482 -0.010568916 -0.0523597
-0.11139271 -0.14454773 -0.06820308 0.038943578 -0.08684423 -0.009016214 -0.14442389 0.11006057

arith.constant1 f4 [29]
00000000: c0a4 cb3f c0df e13f c1a0 703e 9bca d03f
00000010: 2927 cc3f 5a56 bcbf b7e0 cf3f b4b5 fb3f
00000020: 1cb5 2e3e 4bb6 4540 2b9c 883f ba29 eebc
00000030: 2f53 d23f 3b03 ab3f 9710 1840 a16d 90be
00000040: b450 813f 5218 dd3f 40e4 8940 1edf ab3f
00000050: 2c5a 5140 d248 3640 c46a b13f b3ae 6240
00000060: 640c 2e3e 5dc0 2940 e200 9c3e bef2 5c3f
00000070: 9d71 53be
1.5909653 1.7646408 0.23498823 1.631183 1.5949451 -1.4713852 1.6240453 1.9664826
0.17061275 3.0892513 1.0672659 -0.029072631 1.6431636 1.3360361 2.3760126 -0.2820864
1.0102754 1.7273047 4.3091125 1.3427465 3.2711287 2.8481946 1.3860707 3.5419128
0.16996914 2.652366 0.30469424 0.86307895 -0.20648809

arith.constant2 f4 [128, 128]
00000000: 77f5 17be 2a5b 0fbd c10f 1e3f 72b4 2cbf
00000010: a1c7 d8bf 23bf ebbe cccd 2cbf 50c8 28bf
00000020: 22b6 8bbe 89c0 36bf 9d70 b43c baf6 ecbc
00000030: a491 86be 7d16 5bbe 55f7 a53e 7438 7d3e
00000040: f146 39bf a542 4d3e c1b8 63bd 9489 783f
00000050: 71c6 9cbe 4dd7 f53d 55b6 23bf c3c7 a73d
00000060: 9bfa dcbe 5ea1 743e c666 503d 846a 133f
00000070: bde1 bdbd c877 2f3e ab0f 253e 7e09 97be
00000080: 2faf 063f 66e1 2cbf b8a7 a73e 3a61 8fbe
00000090: 6f76 04bc ee6b e0bd 754c 99be 361a 1a3f
000000a0: 21e6 19be b8b5 553e 7c7b 063f ea4a 22be
000000b0: e6de ae3e 3e0d ad3e d1f7 dd3b 6e0a efba
000000c0: 7d32 813c 6218 343e 904b 873d 9282 1f3e
000000d0: 22f8 93be 4a20 8dbb 3eed 333d cc7b e7bd
000000e0: 3ccb c63e dddf 223e 49e6 7abe fb36 963e
000000f0: 940c 8fbe a37c 38bf b98b 08bf f832 903e
00000100: b850 c53d ca36 54bd 7f2b 17be 7961 563d
00000110: c7a1 d3be b839 9dbe ad61 523f 475b d6bd
00000120: 7ca3 38bf 1208 8fbe e266 00be 0d5e 48be
00000130: 27cf a3be c0ae 65be 0365 bc3e d29f c2bd
00000140: c38e 24be 6034 c83d afca 723e 7431 84be
00000150: 5300 313e 700e b93c bd9d 843d 1a55 ae3d
00000160: 0243 dfbf bbf5 5b3e 93c7 a0be f24a 00bd
00000170: 3272 41bf 5794 07be cbed c2be 95fa c13d
00000180: 2c12 41bf dfa2 7ebd 9601 33bc 1567 e43e
00000190: e2e2 083f 8eac 52be a493 02bf e833 963e
000001a0: d000 cdbd 7da2 95be 784b 093e 7ef1 0abf
000001b0: a520 a93d a505 a23b fb6b a03e d2bc 40bd
000001c0: 856d 883e fb5d 0dbe a7a5 b9be 1795 e83c
000001d0: 175d c73d 3df1 4bbe 2125 a8bd ce67 8a3d
000001e0: fa15 bb3e 148f 9fbc dad3 38bf 99f6 27bf
000001f0: 68eb e8bc 9a65 67be 7a42 a9be 9bce b03d
00000200: 20ef 213e 9477 cdbe ea80 b33e c2d7 a13d
00000210: 403d 6fbf 0f54 9b3d 0f1e 1abf 6cc3 bb3d
00000220: 1543 fe3e 34df b4bd 7ac8 58be 92ea c4be
00000230: 4300 55bf 90df 463e ff0e 1bbf 1e8c cd3e
00000240: 83d9 443f 0cb6 06be 16b0 16be ff35 8fbe
00000250: fdb8 edbe 47d0 8bbe ccf0 e1be 76ed 01bd
00000260: 931e 03be ae9d d93e a9fa 043e 8c56 603d
00000270: 51c9 063d 95a6 0bbf abea 79be 7069 d33e
00000280: 85c1 453f 1f62 06be 4611 0bbf 3525 903e
00000290: d64f ea3e 637a 56bd 5973 29be 9bf8 c43e
000002a0: 4f95 d93e ec59 c4be b1a1 adbe 7428 3bbf
000002b0: 950c c6bd 5c2c abbe 07ce 193f 5cc5 20be
000002c0: b18a f73e 8e3e 95be 3026 593e 2bff 5cbe
000002d0: 30e9 0bbd c936 d3be 01f8 b93c 0218 e9bd
000002e0: 7091 2abe 77d3 6bbf e5cb e8be 1c2d 163e
000002f0: 0e05 0d3f 6067 d3bc 2972 e7be 1b57 4cbe
00000300: 1556 8bbc 2576 393e 488d b13d 4151 57be
00000310: 0775 363e dcf3 613f bdac 8b3f c6b3 1cbe
00000320: 0f92 63be 4d23 0a3f 7281 0d3f 91f0 843e
00000330: aec0 1f3e feca eebe c0c9 aebe f679 98be
00000340: b1d6 df3d c4af 6c3e 68a5 ef3e 1e62 e13e
00000350: a757 6dbe f854 26be 6354 6fbe 3982 3ebe
00000360: f72b 813e 7fe7 29bf 7da8 5b3e f6ae 943e
00000370: 58b9 9ebe 416f 753e f55a 3b3d 9ce4 483d
00000380: 9c3b 5a3f dab9 3fbe 5881 6ebe 065f c43e
00000390: 5c88 b83e 283f 233f 6cbc ef3d 5189 ecbc
000003a0: 6b49 0e3e 4e6a fcbd d81e 053f c76e 9abf
000003b0: 0a4c 473e 9867 ce3e 0024 783f c5d3 883e
000003c0: 9eab b2bf 52d5 22be 29d8 fc3c b671 a8be
000003d0: 91f2 a4be 1c0c a33d a5d1 c83e e0ca dabe
000003e0: e5d9 bc3e 3c7c f0bd 92fb 72be 7aa2 8c3e
000003f0: a93a 29be c06d 83be cbbc 8f3e 19a1 85be
-0.14839731 -0.03499905 0.6174279 -0.6746284 -1.6935922 -0.46044263 -0.6750152 -0.6593065
-0.27287394 -0.71387535 0.022026354 -0.028926242 -0.2628299 -0.21395297 0.32415262 0.24728566
-0.72373873 0.20044954 -0.055596117 0.9708493 -0.3062015 0.12003956 -0.6395009 0.081923984
-0.43159947 0.23889682 0.050879262 0.57584405 -0.09271572 0.17135537 0.16119258 -0.2949943
0.5261106 -0.6753143 0.32745147 -0.28003865 -0.008084877 -0.10958086 -0.29941145 0.60196245
-0.15029193 0.20870101 0.5253217 -0.1584889 0.34154433 0.33799165 0.006773927 -0.0018237361
0.015771145 0.17587426 0.06606209 0.15577152 -0.28900248 -0.0043068277 0.043927424 -0.11302909
0.3882693 0.1590571 -0.2450191 0.29338822 -0.27939284 -0.7206518 -0.533382 0.28163886
0.096345365 -0.051810063 -0.14762686 0.05233905 -0.41334364 -0.30708098 0.8218029 -0.104666285
-0.7212446 -0.27935845 -0.12539247 -0.19567128 -0.31993982 -0.22429943 0.36795816 -0.095031396
-0.16070084 0.09775615 0.2371013 -0.2581898 0.1728528 0.022589892 0.06475399 0.085123256
-1.7442324 0.21480457 -0.31402263 -0.031321473 -0.75564873 -0.13240181 -0.38072047 0.09471623
-0.75418353 -0.062167045 -0.010925671 0.44609895 0.53471196 -0.20573637 -0.5100653 0.29336476
-0.100099206 -0.2922553 0.13407695 -0.5427474 0.082581796 0.0049445205 0.31332383 -0.047055073
0.26646057 -0.13805382 -0.36259195 0.028391404 0.09734552 -0.19916244 -0.08210207 0.067580804
0.36540204 -0.019477405 -0.7219826 -0.65610653 -0.028432563 -0.22597352 -0.3305853 0.08633157
0.15813875 -0.40130293 0.3505929 0.07902481 -0.93452835 0.07584392 -0.60202116 0.09168133
0.49660555 -0.08831635 -0.21170226 -0.38460213 -0.83203524 0.1942122 -0.6056976 0.40145963
0.76894397 -0.13155383 -0.14715609 -0.27970883 -0.46430197 -0.2730734 -0.44129026 -0.0317206
-0.12804632 0.42503113 0.12986244 0.054770038 0.032906834 -0.5455106 -0.24405925 0.4129138
0.7724841 -0.13123368 -0.5432323 0.28153387 0.45764035 -0.05236281 -0.16547908 0.3847092
0.42496726 -0.38349855 -0.33912423 -0.731086 -0.096703686 -0.3343228 0.6008 -0.15700287
0.48348 -0.29149288 0.21205974 -0.21581714 -0.03415793 -0.41252735 0.022701265 -0.11381532
-0.16657043 -0.92119545 -0.4546806 0.14665645 0.5508584 -0.025806129 -0.45204285 -0.19955103
-0.01700882 0.18111475 0.086695254 -0.2102709 0.1781808 0.88262725 1.091209 -0.15302953
-0.22223686 0.53960115 0.5527564 0.25964788 0.15600845 -0.46639246 -0.34138298 -0.2978055
0.10929621 0.23113924 0.46805882 0.4402017 -0.23177968 -0.1624335 -0.23372035 -0.18604364
0.25228855 -0.6636886 0.21450992 0.29039735 -0.3100078 0.23968221 0.04574104 0.049046144
0.85247207 -0.1872324 -0.23291528 0.38353747 0.36041534 0.63768244 0.117058605 -0.028874071
0.13895194 -0.123249635 0.5200019 -1.2065057 0.194626 0.4031341 0.9692993 0.26724067
-1.3958623 -0.15901688 0.030864792 -0.32899255 -0.32216313 0.07961294 0.39222446 -0.42732906
0.3688499 -0.11742446 -0.23728779 0.2746771 -0.16526283 -0.2566967 0.28073725 -0.2609947

arith.constant3 f4 [128]
00000000: 7002 c73f cba4 c13e f862 603f 2fed 003f
00000010: d477 ce3f 0f4d ef3f 5669 b23f d6a5 f23e
00000020: 5b89 8abe 227c 903f b73c 303f 27fc 2440
00000030: 2122 2440 b1b1 403f 2af0 0140 0fd6 d03f
00000040: 8a40 f23f fca7 f13f cca3 e93f 5fee 1e3f
00000050: 99bb 293f e4ad a83f 0957 513f ab47 243f
00000060: 16c7 4b3f 9ac2 2040 5777 a63f 35a8 6e3f
00000070: 7756 0c40 8941 1240 81a8 8f3f 99fd ac3f
00000080: 8fd1 8b3f 2c23 1940 4749 d33f e90c 163f
00000090: 59f3 febd 298d 263e b09c b43f 5700 b93f
000000a0: 6448 df3f ee86 3c3f 4bf8 fc3f 798d 9d3e
000000b0: aecb 8e3f ea17 243f 19be c33e ee5c bd3f
000000c0: cff0 1940 d8ef 1040 afcf ca3f dc1d e13f
000000d0: d4c4 c73e 1823 133f ee2c 2440 30b9 f73f
000000e0: 17c9 1a40 4890 983f 17fe 9a3f 965b 023f
000000f0: 1339 b73e 6abf 1340 736b d13f 806a 09bd
00000100: 8d28 a63f 8d81 b23f caed b23e f444 a53f
00000110: 88b9 413f af22 433f 70da 873f d8b2 8b3f
00000120: fa29 2d3f 686f e03f c3df cb3f ca85 013f
00000130: 0a63 ee3f 44fe e33f d2b8 f93f d619 e03f
00000140: 03bd 1b40 6b1f 313f 02a9 e93f 89c3 ab3f
00000150: 6c04 a43f 0f3c 1540 94d8 d53f c361 343f
00000160: a974 8e3f acd8 dd3f dc61 553f 6c37 b53f
00000170: 0e08 ae3f 7635 da3f 9949 873e 0401 97bd
00000180: 822b d23f 940c cc3e 3d53 563f cbc3 c43f
00000190: 2f1f 2d40 3956 b73f edad e63f b9c0 693f
000001a0: a502 a73f 5897 ed3f 25a3 2a3f ba3c 993f
000001b0: 21ac 923f aba4 3640 56c4 8b3f 78e1 a23e
000001c0: 0531 ec3f 87ac ef3e a2a1 d33f dc6f a03f
000001d0: 18ef a53f bf7b 873f c092 0140 9f55 1c40
000001e0: 29c3 d03f a24c 20bf aea5 7f3f c674 be3f
000001f0: a10e 2a3f 8ac3 183e 7888 313f 116a 993f
1.5547619 0.3782104 0.87651014 0.50361913 1.6130319 1.8695391 1.3938396 0.47392148
-0.2705792 1.1287882 0.68842643 2.5778902 2.564583 0.75271136 2.0302835 1.6315325
1.8925946 1.887939 1.8253112 0.62082475 0.66301876 1.3178067 0.8177343 0.64171857
0.79600656 2.5118775 1.300517 0.93225414 2.1927774 2.28525 1.1223298 1.3514892
1.0923327 2.3927717 1.6506737 0.5861345 -0.12448759 0.16264786 1.4110317 1.4453229
1.7443967 0.73643386 1.9763273 0.30771998 1.1155908 0.6409899 0.3823097 1.4793985
2.4053228 2.264639 1.584463 1.7587237 0.39017355 0.57475424 2.5652423 1.935339
2.4185236 1.1919031 1.2108792 0.50921 0.35785732 2.308558 1.6360916 -0.033548832
1.2981125 1.3945786 0.34947044 1.2911668 0.75673723 0.762248 1.0613537 1.0913954
0.67642176 1.7533998 1.5927662 0.5059477 1.8623974 1.7811971 1.9509528 1.7507885
2.4334114 0.69188565 1.8254702 1.3419048 1.281385 2.3317907 1.6706719 0.7046167
1.1129352 1.7331748 0.83352447 1.4157538 1.3596208 1.7047565 0.26423338 -0.073732406
1.6419528 0.39853346 0.8372076 1.5372251 2.7050283 1.4323188 1.8021828 0.91309696
1.3047682 1.8561811 0.6665519 1.1971657 1.145878 2.8538005 1.0919292 0.31812644
1.845246 0.46811315 1.6533701 1.2534137 1.2963591 1.0584639 2.024582 2.442726
1.6309558 -0.6261693 0.9986218 1.4879386 0.6642857 0.14918342 0.6934886 1.1985494

arith.constant4 f4 [128]
00000000: f880 3a3c dd1f 3ebb 6cd2 8abd eab8 efbd
00000010: 10f7 f0bd 6c29 593d c713 1fbe 6822 923d
00000020: 9458 2fbe f8dd f13b 6ea1 debb d5e6 8f3d
00000030: 6b8b 19bd a278 3d3c 0d7b cbbd e42d 9fbd
00000040: c128 9b3d ebc4 a43c 4074 9dbd a284 3f3d
00000050: f5e3 28be db86 2fbe dfff 033a 8141 ccbb
00000060: 1163 c4bd 6e9c 16bd 6039 79bc a3a9 22bd
00000070: 8ab6 72bd 1a6b c0bd 67c9 0cbe 48f6 bfbd
00000080: 0f16 eb3b c191 50bd 90b0 6e3c fba4 cfbd
00000090: 3a78 10be a51d 9dba b0d3 6abd a29b f73d
000000a0: 8384 953d 5431 be3d c7d0 0c3d c9f6 2f3d
000000b0: 0005 d0bd ce03 e83d 2c74 033e ee1f 513d
000000c0: 8455 d63c c494 87bd 0126 3cbd a24b 3cbd
000000d0: b3de f53d 9062 05be 6070 20bd 5b54 68bd
000000e0: d38d 33bd d998 13bb 5c66 923d c21f 8b3d
000000f0: 6f41 92bd 6069 d33d aabc 0f3d 076e b0bc
00000100: f62e 013e 0040 a93d ad37 a7bd 8b90 aebd
00000110: 4eaf c33d 0b2d d4bc 587b a7bc bcf0 053d
00000120: efff ce3d 77ff 83bd 18f6 8ebd ea65 ca3d
00000130: 626f 97bd 2b95 39bd c055 af3d df98 c03c
00000140: 1c85 6ebd 0e06 a93d d902 273d 68c1 bfbd
00000150: 3ad9 33bc 41a6 e5bc ee3f b8ba ee4c 26bd
00000160: 0baa 113d 60c9 4b3d 684a 68bd aa16 973a
00000170: 0ab0 1e3d f573 c13d d440 eb3c 62a3 8a3d
00000180: 3bae fc3c 7d54 ae3c 131e 3ebd b589 bcbc
00000190: 9b60 643c ce65 eabc 9a14 4bbe f8b6 813c
000001a0: 0d1b 77bd 1216 a7bd 6520 6bbd 122e 05be
000001b0: 379b fe3c 132c 14bd d666 353b b503 1f3d
000001c0: 2dbb bdbc 0963 a2bd feda 07bd f1f0 ba3d
000001d0: 4971 c13d 236b e1bc 3334 18bd b35d ff3c
000001e0: 43ba 21be d191 203d 2062 02bb 2d22 973a
000001f0: c65c 1d3c c79b 0c3d 1fa5 e33d 8050 ea3c
0.011383288 -0.0029010691 -0.06778416 -0.117051914 -0.117658734 0.05301802 -0.15534888 0.07135469
-0.17123634 0.007381197 -0.0067941463 0.070264496 -0.037486475 0.011564406 -0.099355794 -0.07772425
0.075761326 0.020113429 -0.076881886 0.046757348 -0.16493209 -0.17141287 0.0005035381 -0.0062333946
-0.09589208 -0.036770277 -0.015211433 -0.03971256 -0.059256114 -0.09395428 -0.13748704 -0.09373146
0.0071742604 -0.05092025 0.014568463 -0.101388894 -0.14108363 -0.0011986984 -0.057330787 0.120902315
0.07300665 0.09286752 0.034378793 0.042959962 -0.10157204 0.11328851 0.12837285 0.05105584
0.026163824 -0.06620172 -0.04593468 -0.045970567 0.12005367 -0.1302588 -0.03916967 -0.056721073
-0.043836426 -0.0022521524 0.0714843 0.06793167 -0.07141387 0.10322833 0.035092033 -0.02153684
0.1261557 0.0826416 -0.08164916 -0.08523663 0.09554921 -0.025900384 -0.020444557 0.032700285
0.10107409 -0.064452104 -0.069805324 0.0988272 -0.073942915 -0.045308273 0.085612774 0.023510395
-0.05823241 0.08253108 0.0407742 -0.09363061 -0.010977084 -0.028033378 -0.0014057138 -0.04060071
0.035562556 0.049752593 -0.056711584 0.001152714 0.038742103 0.09445945 0.028717436 0.06769444
0.030844798 0.021280522 -0.0464154 -0.023014883 0.013939048 -0.028612997 -0.19832078 0.015834317
-0.060328532 -0.081585065 -0.05740394 -0.13005856 0.031079872 -0.036174845 0.0027679703 0.038821895
-0.023160541 -0.07929046 -0.03316783 0.09127987 0.094454356 -0.027516907 -0.037159156 0.031172609
-0.1579371 0.03920156 -0.0019894913 0.0011530571 0.009604638 0.03432825 0.11115479 0.028602839

sequential_1/dense_1/MatMul f4 [128, 63]
00000000: ff73 24ba 41f1 183d a339 1b38 0607 f33d
00000010: d7df 57be c084 853d 94b8 923d f175 ed3c
00000020: 8d40 45bc e8b2 e43d b0c4 92bc c6a1 ad3d
00000030: f778 23be 08fe 493d c2db 82bd 6440 a23c
00000040: 6df6 13be 3dd5 4c3e 7390 2cbe c2aa e43c
00000050: 09b2 c63d 0a90 04bd ff4f 27be fb2a 3d3d
00000060: 2d78 34bd ce4e 0f3d de82 84bd 4845 763d
00000070: 2737 3c3e 7137 8fbd 4ed9 cdbd c961 8dbd
00000080: 0f51 083e 6b74 62bd 201a abbd 9925 463e
00000090: 638b 403e 7a7d b63c 661d 37be 87d4 26bd
000000a0: 223c 0bbe 368a cdbc c22c 1b3c eac8 19bd
000000b0: fb20 263e e2aa adbd 136b 07be 2e36 abbc
000000c0: 5cf5 e03d f3ed 98bd aa5c a33d ab98 123c
000000d0: 3d0e 1d3c 7807 c6bc 42c0 c5bd 18e9 633c
000000e0: b164 6a3d d4af 3abb 59da e6bd 0d7f 15be
000000f0: 0676 ec3d 4819 33be 846a cebd b908 a13d
00000100: 3d31 a03d 9222 923c d462 9c3d b43d 7ebe
00000110: 19a4 803d 7d8b c5bd e80c 673e e227 7d3d
00000120: e097 b9bd c105 1dbe ef0f bc3d 1b4f e43d
00000130: 186f 0a3e 7647 383d 887b 233e 5513 adbd
00000140: c7fb 8fbd c56e 04be 568d c2bc c8c6 8fbb
00000150: f40d 933d 9736 f33d 6cea 58be 8975 c1bd
00000160: 01c9 833d b6ad 1c3e a1f0 7c3d 99e9 d73d
00000170: 9b36 ae3d 73aa a93c 0c33 07be 8e1e cebd
00000180: 9891 c33d 126d 5a3d 40f7 e03d 1920 9fbb
00000190: ec39 cabb 6c29 283d 50d2 d3bd da95 41be
000001a0: 6ead d7bd 4c09 28bd c5f7 d2bd eef0 fc3d
000001b0: 2ce1 d6bd de7b 13be 3856 adbd aee4 153e
000001c0: 5867 153e 2574 ae3d bd85 a03d 2d7d b23c
000001d0: 89bf ae3d e57b cbbd 3f44 a13b 668e 1cbe
000001e0: 40f9 c5bd 4a6b 66be 8292 66bd c270 bebc
000001f0: 88f8 573e 68c9 bcbd 9b78 1d3d ee69 e83d
00000200: 968b fbbd e162 043d 3757 abbd d872 b3bc
00000210: cf02 b53d 6164 923d 873c 2ebe bda5 e1bd
00000220: c6b9 a23d df98 1e3e 16cf 73bc 37b5 c83d
00000230: ad57 8f3c 9e66 01be 81cf b0bd 6bb8 0fbe
00000240: e833 dc3d 1794 0fbd 26e2 d43d 932b 8a3c
00000250: e8c0 0d3e ba90 54bd ad69 703d 0b08 ff3d
00000260: bfcb 0abe 5761 3bbd 0421 923d 6ec5 d83d
00000270: 66a0 88bd c511 18be d710 173a 3220 5f3d
00000280: fe60 40be 7d58 d7bc 78a1 24bd f311 29be
00000290: ee60 8fbc 22de 573d b4bb 0c3e 997d 783e
000002a0: 6aa3 1bbb a51c 93bc 6969 b83d 53dc 3cbd
000002b0: cd70 2abe a0f4 893d d506 253e f4e9 063b
000002c0: c283 2ebe 3886 2dbd 16fa b6bc 5bee 733e
000002d0: dbaf 36bd 0def 5b3d 42df eb3d 33fe 163c
000002e0: f747 3a3e 191d 02be 57f2 a0bc 24e8 15be
000002f0: 9c59 64bd 1e60 d4bd 44a2 dfbd e25c 26bb
00000300: 0f7a 723d 013d d83d 8bbf bbbd cc3a 13bd
00000310: edc5 05bd c6ef efbd 8bca 3f3d fdd3 00bd
00000320: 7c89 253e deca 87bd 349b a43d 5067 133e
00000330: 4c05 803d ae91 37bd 3a28 e13c 702f d83b
00000340: 98fd 093d 99a3 10be 7d51 8fbd eb0f 25be
00000350: 9ccf 263e 5513 cb3d 2fa5 7e3d dbbe 1cbe
00000360: 8c59 12be d545 19be e385 d83d 6cb9 2a3d
00000370: 480b bb3c 22d5 6a3d ffcb 403d 3bbc 80be
00000380: b71a b23d 13a9 763d 6cd6 0d3e 1918 fcbc
00000390: f4a3 a7ba 3793 3f3d 2a4a 4d3e 0461 ed3b
000003a0: 504c c13d 2f3e c7bc b909 a1bc 77ca c5bd
000003b0: d5e7 1e3d c38a 9dbd d626 07bd 989f 0ebe
000003c0: caf2 0e3e 1689 893c ab8b 8d3b e1cc 22bd
000003d0: 7d0a 073d a9be 513e 5929 db3d db83 36bd
000003e0: 05cf ae3d 183b a8bd 7207 19be 5138 af3d
000003f0: 9af5 35bd 6ba1 233e 0b16 37bd b4b9 44bd
-0.0006273388 0.037339453 3.7008558e-05 0.11866574 -0.21081482 0.06519461 0.07164112 0.028986903
-0.012039316 0.11166936 -0.017916054 0.084781215 -0.15964113 0.04931453 -0.06389572 0.019806094
-0.14449473 0.20003219 -0.16851978 0.027913455 0.09701926 -0.03236393 -0.1633911 0.046183567
-0.04405992 0.034987263 -0.064702734 0.060124665 0.18380414 -0.069929965 -0.10051213 -0.06903417
0.13312171 -0.055286806 -0.08354592 0.1935028 0.18803172 0.022276629 -0.17882308 -0.040730026
-0.13597158 -0.025090318 0.00947112 -0.037545122 0.16223519 -0.08479859 -0.1322444 -0.020899858
0.109842986 -0.0746726 0.07976659 0.008947532 0.009585914 -0.024173483 -0.09655811 0.013910554
0.057224933 -0.002848615 -0.11272115 -0.14599247 0.11545949 -0.17490113 -0.1007891 0.07862992
0.078218915 0.01783875 0.076360375 -0.24828225 0.06281299 -0.09645746 0.22563517 0.061805613
-0.09062171 -0.15334226 0.091827266 0.11147901 0.13518941 0.044990025 0.15965092 -0.08450953
-0.070304446 -0.1293288 -0.023749035 -0.0043877102 0.07180396 0.118756466 -0.21183175 -0.09446246
0.06434823 0.1530064 0.06175292 0.10542602 0.08506509 0.02071116 -0.13203067 -0.100644216
0.09549254 0.053326674 0.10984659 -0.0048561213 -0.0061714556 0.041055128 -0.10342848 -0.1890482
-0.10531126 -0.04102449 -0.103011645 0.12350641 -0.10492167 -0.1440272 -0.084637105 0.14638016
0.14590204 0.085182466 0.078380086 0.021788204 0.08532626 -0.099357404 0.0049214656 -0.15288696
-0.09666681 -0.22501865 -0.056292064 -0.023247126 0.21090901 -0.09218103 0.038445096 0.113483295
-0.12282483 0.03232086 -0.08366244 -0.021905348 0.08838426 0.07148052 -0.17015277 -0.1101794
0.0794559 0.15488003 -0.014880916 0.09800189 0.017497862 -0.12636802 -0.08633328 -0.14035194
0.10752088 -0.03505334 0.10394697 0.016866481 0.13843119 -0.051895835 0.05869453 0.12452706
-0.13554285 -0.045747127 0.071352035 0.10584532 -0.066712186 -0.14850529 0.0005762702 0.054474063
-0.18787 -0.026287312 -0.04019305 -0.16510753 -0.017502274 0.052702077 0.13743478 0.24266662
-0.0023748525 -0.017957995 0.090044804 -0.046108555 -0.16644593 0.06736112 0.16115887 0.0020586224
-0.17042449 -0.04236433 -0.022336047 0.23821394 -0.044601303 0.053694773 0.115171924 0.009215879
0.18191515 -0.12706412 -0.019646807 -0.14639336 -0.05574952 -0.103698954 -0.109196216 -0.0025384952
0.059198435 0.105585106 -0.09167393 -0.035944745 -0.03265946 -0.11715655 0.04682402 -0.031452168
0.16165727 -0.06630491 0.08037415 0.1439488 0.0625101 -0.044816665 0.027485002 0.006597452
0.03368911 -0.14124908 -0.069979645 -0.16119353 0.16290134 0.09915797 0.06216925 -0.1530718
-0.14291972 -0.14968045 0.10572412 0.04168074 0.022832528 0.057332166 0.047069546 -0.25143608
0.08696502 0.060219835 0.13851327 -0.03077321 -0.0012789951 0.046771254 0.20047823 0.007244231
0.094383836 -0.024321644 -0.019657956 -0.09657758 0.03879531 -0.07692482 -0.03299602 -0.13928068
0.13959804 0.016789 0.0043196282 -0.03974617 0.032968987 0.20482887 0.10701246 -0.04455934
0.085355796 -0.08214396 -0.14944246 0.085556634 -0.044423677 0.15979545 -0.044698756 -0.048028663
