assets/models/asl_landmark_model.tflite (tflite, 367404 bytes, 6 tensors)

arith.constant f4 [28, 128]
00000000: 978b 3f3d 64f5 973c de0b 2abc 006b e3bd
00000010: 7cf2 e8ba 5199 273d f20e d43c afbc d1bd
00000020: b39f a0bd 9504 91bd 3a2a debb e3dd 413d
00000030: 7ea2 e93b 4027 093d 5feb 7fbd c2e3 5c3d
00000040: 0bcf 15bd 8422 603d 4e63 63bd 8000 63bd
00000050: 9313 203c 4089 2a3d 2691 4fbd 9863 b23c
00000060: 0ade 43bb b738 953c b1af 0cbd 8d45 1a3d
00000070: 03c6 6ebd 3054 4c3a ebaa 2a3c 8d32 193d
00000080: 692c 84bd 2c2b d03c d2a4 cabd 542e 5b3c
00000090: 2520 9a3d c362 d93c f690 6b3b cf31 cdbc
000000a0: 67dc 1ebc 2f6e 223c c925 b73c 6e91 10bb
000000b0: 32ef 54bd 16d3 053c 001f 4bbc 255a 75bd
000000c0: 498b 6fbd 78fd 37bd 710d aabb de71 1fbd
000000d0: aadf 88bd 3109 8c3d 9ba3 5abc a421 df3c
000000e0: f397 78bc d1a5 c0bc 42c3 0b3d a26a 77bd
000000f0: ae01 21bb acfb 573c 9752 2bbc 7a0b e6bc
00000100: c7f2 a3bc a836 91bd e3dc 403d 045c c0bd
00000110: 66e9 53bd 53fc 1dbd 3395 56bc e7a8 83bc
00000120: 06e4 52bc 1e03 6a3c 5dc3 9bbd 6901 acbd
00000130: 0dbd a23c d7f6 c3bd 633c 3b3c feec aabd
00000140: 5e1f ff3c 4937 8e3c 01f7 6cbd 3fb4 63bd
00000150: 649a 5dbd 8116 e23c 6145 bf3c a652 66bd
00000160: e8e0 fabd 24a2 8bbd a751 143d ac0f 71bc
00000170: 1cc1 123d 425d f53c 7cb3 92bd 7ee4 84bd
00000180: b3a3 7eba fa08 0ebe 2321 383d fe74 6f3c
00000190: 7be1 19bd af18 39bd af14 833c 7cfa 233d
000001a0: e98d aabc 74fa 06be bb42 02be 9794 3d3d
000001b0: 2ff3 f2bc 2250 163d ca4f 10bd 5b5e c8bc
000001c0: e20d e43c 5aa5 9a3c d181 3cbd 10af b43c
000001d0: 3a56 cabc 5bf1 ab3b aaf5 7f3d fa9d 953d
000001e0: 522d adbc f0a9 96bc 9ab6 ad3c 3771 30bd
000001f0: 8eef 603c 9adf 1f3b 72a3 773c a782 133d
00000200: d304 153d cecc e5bc a576 c73c 74dc 1e3d
00000210: d61d e13c 09d9 00be dd0f abbd 622f 04be
00000220: e8fb 29bd a3ae 0abd bb97 92bc ecd5 89bd
00000230: d674 92bd b451 e3bb 4ef0 49bd f75b 613c
00000240: f8be 27bc fc38 99bd 4ee7 403d 5627 953d
00000250: 977d c9bc 93f3 ebbc 4416 49bd 7054 cf3c
00000260: ca93 04bc 7206 a7bc 9e2e 9fbc e067 1fbd
00000270: 959e 40bd 1122 093c d3b2 833c cde3 2bbd
00000280: 2156 073d 7a0a c3bc 4a21 5f3d fdb9 82bd
00000290: 5030 873c 9c90 f7bc 79fb 8cbd 7ede 3e3c
000002a0: a922 57bc 590a 503c 72a7 31bb 9c43 26bd
000002b0: 4759 4d3c bf0c 9ebc 86c2 4bbc 0dc6 973d
000002c0: 8cf2 293c 19c8 54bd 4210 a8bc cb93 83bd
000002d0: 5b14 92bd f0f9 b93c 32af be3c 1256 7b3d
000002e0: 4d63 bbbc 3d6e a5bc cf8b fa3c 7426 58bc
000002f0: 0633 94bd 495c e73c 638c 85bd 5067 15bc
00000300: 2414 2cbd fbab 0d3d aa17 87bd 1f84 053c
00000310: 30ca 663d 5146 e73c e67b f93c a53a 1a3d
00000320: 1a1c 1d3d 8f8a 98bd 355b 093d e567 e3bc
00000330: 00d7 d43c 6ba1 833d 2d38 29bd 6b8d acbc
00000340: 54df 93bd b3b5 5ebd 0ce0 82ba 48ca 493d
00000350: c9e5 f6bd e02f 25bd ca58 cfbc 363a 363d
00000360: 1be2 c0bd 7337 c5bd a843 ac3b 360d 3c3d
00000370: 04e7 39bd 0749 893a ef29 613d 129c fa3c
00000380: d049 943c ea37 8cbc bf70 9abb 261c be3c
00000390: a7ce 16bc c8d6 ba3c 0a44 57bc f960 5abd
000003a0: fcfd 3abc d8a1 3ebc db07 71bd babd 5c3d
000003b0: 4118 0cbc f82a 043c 3895 d2bd 7500 b03b
000003c0: 72c7 c0bd fd7b b3bc f075 103d b765 e33c
000003d0: 705d 2c3c 50a8 e6bc cf1a 12bd 46d3 4dbd
000003e0: 2213 07bd 2bb0 d43c 3507 5a3b cc94 8dbd
000003f0: f49d 083d a2b4 d93c 8637 3fbd 96db babd
0.046763983 0.018549629 -0.010378806 -0.11104393 -0.0017772461 0.0409177 0.025886033 -0.10241067
-0.0784296 -0.07080952 -0.006779936 0.04733075 0.0071299663 0.033484697 -0.062480327 0.053928144
-0.036574405 0.054720417 -0.055514626 -0.0554204 0.009770292 0.041634798 -0.050675534 0.021776006
-0.0029886984 0.01821552 -0.03434724 0.037663985 -0.058294307 0.00077945273 0.010416727 0.037401725
-0.06453783 0.025411211 -0.09894718 0.013377745 0.07525662 0.026536351 0.0035944558 -0.025048165
-0.009696103 0.009913965 0.022356885 -0.002205934 -0.051985927 0.008168003 -0.012397528 -0.05990042
-0.058482442 -0.04491946 -0.0051895906 -0.03892695 -0.066832855 0.068376906 -0.013344671 0.02723772
-0.015172946 -0.023516567 0.03412176 -0.060404427 -0.0024567652 0.013182562 -0.010456703 -0.028081644
-0.020013226 -0.07090503 0.047085654 -0.093925506 -0.051736258 -0.038570713 -0.013097095 -0.01607175
-0.012871748 0.01428297 -0.07605622 -0.083987065 0.019865537 -0.09568565 0.011427972 -0.08345984
0.031142887 0.017360346 -0.05785275 -0.055591818 -0.054102316 0.027598621 0.023348512 -0.056231163
-0.12249929 -0.06818035 0.036210682 -0.014713209 0.035828695 0.029951695 -0.0716314 -0.06488894
-0.0009713724 -0.13870612 0.044953477 0.014615295 -0.03756855 -0.045189556 0.016001074 0.040033802
-0.020819621 -0.13181478 -0.12720768 0.046284284 -0.029656975 0.036697514 -0.035232343 -0.024459055
0.027838651 0.018877674 -0.04602224 0.022056133 -0.02469932 0.0052472777 0.062490143 0.07305522
-0.021139774 -0.01839158 0.021205235 -0.04307672 0.013728989 0.0024394752 0.015114652 0.03601327
0.036381554 -0.02805176 0.024348566 0.03878446 0.027480047 -0.12582792 -0.08352635 -0.129087
-0.041500002 -0.033857953 -0.017894616 -0.067302555 -0.07151191 -0.00693723 -0.049301438 0.013754836
-0.010238402 -0.07481572 0.04709559 0.07282893 -0.024596019 -0.028802669 -0.0490935 0.025308818
-0.008091876 -0.020388816 -0.019431408 -0.038917422 -0.047026236 0.0083699385 0.016076481 -0.041965295
0.033041123 -0.023808707 0.054475106 -0.06383131 0.01650253 -0.030220322 -0.06883902 0.011649726
-0.013130822 0.01269778 -0.0027107862 -0.04059182 0.012533492 -0.019293187 -0.012436515 0.07410822
0.010372769 -0.05194864 -0.020515565 -0.06424674 -0.07132789 0.022702187 0.023276899 0.06136138
-0.022874499 -0.020194167 0.030584244 -0.013192762 -0.072362944 0.028242247 -0.06520917 -0.00911887
-0.042011395 0.03458784 -0.065963104 0.008149176 0.056345165 0.028231772 0.030454587 0.037653584
0.038356878 -0.07448303 0.033534247 -0.027759502 0.025981426 0.064272724 -0.04131334 -0.021063527
-0.07220331 -0.0543725 -0.0009984984 0.049265176 -0.12055547 -0.04032886 -0.025310893 0.044489108
-0.09418126 -0.09629717 0.0052570887 0.045911036 -0.04538633 0.0010474034 0.05497163 0.030591998
0.018101603 -0.017116506 -0.0047131474 0.023206782 -0.009204543 0.022807494 -0.01313878 -0.053315137
-0.011413094 -0.011635266 -0.058845382 0.053891875 -0.008550704 0.008066885 -0.102823675 0.005371148
-0.09413041 -0.021909708 0.035268724 0.027758462 0.010520324 -0.02815643 -0.035670098 -0.050250314
-0.03297723 0.02596291 0.0033268456 -0.069131464 0.03335376 0.02657539 -0.04668381 -0.09123914

arith.constant1 f4 [28]
00000000: 425f 8d40 c063 8840 6ef2 af40 1a5f 0540
00000010: 79c1 c53f 0e2d b440 c8ea 6640 9882 0d40
00000020: b2d6 5b40 80f9 be3f 18b7 8940 884e 8a3f
00000030: c413 d740 74ad aa40 afd3 8b40 fa4e bc3f
00000040: 7a38 6f40 e3c8 b13f 8aed b040 0880 0640
00000050: 2e6f 7440 33dc 1440 d699 b03f 8f52 8e40
00000060: f4f1 4340 bc0d a740 4e27 9a40 ffe1 8c40
4.417878 4.2621765 5.4983435 2.0839295 1.5449668 5.6305 3.60808 2.2110958
3.434979 1.4919891 4.3036003 1.0805216 6.721163 5.3336735 4.3695903 1.4711602
3.737822 1.3889431 5.5289965 2.1015644 3.8192859 2.32594 1.3796947 4.447578
3.0616426 5.2204266 4.817298 4.4025874

arith.constant2 f4 [128, 512]
00000000: 3c8a fb3e 2e54 afbe 3c71 833e 04a5 07be
00000010: 91fc e53d d121 da3d e07f 44bd 479d c03e
00000020: 6478 90be f1d6 29bd 5e65 c7bd ac13 2fbe
00000030: b2ad 72be a753 03be 1155 b3bd 64fa 9c3d
00000040: 6a9f 7c3f 993d e7be b23c 84be ca0b a0bd
00000050: b844 dabf 4899 bdbd 2aad 90be 6f23 39be
00000060: 20e9 be3d c6f1 3abd 05f3 24be 0b61 153d
00000070: a170 51be 9e5a 6b3d cde9 f2bd cfc0 443f
00000080: 150d 65be f443 13bf 0302 b13d f319 853d
00000090: e438 b6bd e7f8 44bd e1f7 c4be 8493 3bbd
000000a0: ce72 443e 761e 05be e605 adbd b5d9 a4bf
000000b0: 2e7a 8b3e 6b7d 6dbd 7454 4fbf 4c38 a83e
000000c0: 3f40 c1be 9b5d 86be 6ca8 523b 2466 cdbe
000000d0: ce17 abbe 36d4 d93e a23e ad3e 30ad 153e
000000e0: 2d0b 0cbf 1d4f 783e 9683 d53e aa0c 133f
000000f0: 0791 86be 35ad 6bbf 55d4 203e e258 bfbf
00000100: 26a1 1abd 3cda 983d 349b 373f 7b96 3f3f
00000110: 20cf 1ebf 86cd 5abf 252c 99be a1ce 3e3d
00000120: b0f1 0b3f 9ad8 f03e 8bd2 06bf 65b5 bb3e
00000130: 1957 f0bd ad14 10bf 3712 66be bc3a 1e3f
00000140: 303f 90be b754 60bf f833 93be 5689 b8bd
00000150: 4c55 643d 8528 cdbd 37b9 17be 0a26 f2bd
00000160: 3e1a 6fbe 0a0f fcbd 6480 aebd e229 583e
00000170: 6fae 2fbe 28e2 f2be 5d33 1ebf 283b a5be
00000180: 4c68 6cb9 d3c6 ed3e ab47 253e d67e bb3c
00000190: c8f9 743f b12c 3cbf 98e8 5fbe da99 b33d
000001a0: 6cab 95bb 6cea 3dbe 3eb6 053e c05c a4bd
000001b0: e894 623f 3701 d33e e0ba f73d ec91 e7bd
000001c0: ce67 223e e8ad 5f3e 017c 99be e9d8 eabe
000001d0: 541f d3be 4f1c 55be 43a6 28be a6e8 d4bd
000001e0: 9416 4ebf 72c3 febf f056 3c3f 3f9a 613e
000001f0: 8fbe 3c3d 1255 293e baa4 75be 5e59 26be
00000200: da64 adbf fa36 e3be c562 933e 01d0 e93c
00000210: 8f6b 8ebf d0b7 adbe abce 69bf dafd 0f3f
00000220: 7a2e 97be 582f 723e dff8 2d3f b2f0 4dbf
00000230: d4f6 06b8 84a7 5c3e fdd5 03bf 3923 8abf
00000240: a0ea eebd 12e1 95be f336 083e a70c 993c
00000250: 6a5e fa3e 0ef0 713d 24f8 9fbd 78d1 c3be
00000260: f811 4f3d 6609 2fbe dd6d 9fbe cd71 eabe
00000270: b36b 06be 142a 3d3e bdd7 cf3e f006 2cbf
00000280: 0bdf b43c 286f 70bf 3489 14be 2231 94be
00000290: 54c5 573c f0b1 07bf 712d aebe 15fb e7be
000002a0: ff01 2d3e 34c2 00be f1b3 9f3e 4e15 20bd
000002b0: 0067 40bd 1f74 56bd 97d7 31bf cd6a 993d
000002c0: 7884 f93e 4fa0 edbf 674b bd3d cc73 f0be
000002d0: 6f74 743e 80b3 48be ee03 863e c9c7 b13e
000002e0: 34c1 73be 2bcc aabd eede 393e 0049 1d3e
000002f0: 9a9e ddbd 63a5 293d 8ac6 bb3e 6ca5 253e
00000300: 9a71 11bd bff4 8d3e 5df5 06bf a7ea b13d
00000310: 3143 423e ffde 253e 60da 0d3c ad5e 37be
00000320: 2b74 963d 029a 32bf d5b9 113e 87ca 513e
00000330: b0ee d53c ce83 ba3d 599c 91bf a6ad bd3d
00000340: f7ec 8cbe e3e2 a5bd 51fc 85bf 177f 553f
00000350: 6ca0 13bf 9460 80be 2b6a 3cbe f224 0e3e
00000360: 0af7 b9bd 89ae 21bf 489b 133f cb36 273f
00000370: 91de 1abf ceb7 6dbf 1039 36bf 0f0e 393e
00000380: 8acc e1bd e56f 88be 3822 0a3f 596c b8bd
00000390: 7865 2e3e 28cb 00bf 6aa8 20bf 2d4c 223e
000003a0: b8b2 02bf b6bc 9d3d 1dca 57be 7f33 ba3d
000003b0: f9c2 2fbf 21f4 99be 0449 44be c5c2 3dbd
000003c0: b2b6 55be 83e5 273e 4ef6 6fbd d150 a63b
000003d0: 33ca a6be 7be7 b2be 4cf0 42bc 9109 643e
000003e0: 19ac 8bbe f83f f93b 7cb3 a0bf a95c 10bf
000003f0: 238e e03d d731 103e fd57 a03d 8604 a1bf
0.49128902 -0.34243912 0.25672328 -0.13246542 0.11229814 0.10650981 -0.047973514 0.37619993
-0.2821685 -0.04146475 -0.09736131 -0.17097348 -0.23699072 -0.1282488 -0.087564595 0.07664946
0.98680747 -0.45164183 -0.25827557 -0.078147486 -1.7052221 -0.09257752 -0.28257114 -0.18079923
0.09321809 -0.04564073 -0.1610833 0.0364695 -0.20453121 0.057459466 -0.11861 0.768567
-0.22368272 -0.57525563 0.08642962 0.0649909 -0.0889757 -0.048088934 -0.38470367 -0.04579498
0.1918442 -0.12999901 -0.08448391 -1.2878939 0.27241653 -0.057980936 -0.8098824 0.3285545
-0.37744328 -0.2624329 0.0032143844 -0.4011699 -0.334166 0.42544717 0.33836848 0.14616847
-0.5470455 0.2424893 0.41701955 0.574412 -0.26282522 -0.9206117 0.15705998 -1.4949
-0.03775134 0.074635 0.71721196 0.7483899 -0.620348 -0.85469854 -0.29916492 0.046583775
0.5466566 0.47040254 -0.52665013 0.3666183 -0.117353626 -0.5628155 -0.22467886 0.6180837
-0.28173208 -0.87629265 -0.28750587 -0.0901057 0.055745408 -0.10017494 -0.14816748 -0.118236616
-0.23349854 -0.12307556 -0.08520582 0.21109727 -0.17156385 -0.4743817 -0.61797124 -0.32271695
-0.00022545567 0.46440753 0.1614062 0.022887629 0.95693636 -0.73505694 -0.21866071 0.08769579
-0.004567554 -0.18546456 0.13057801 -0.08025503 0.8850846 0.41211864 0.120961905 -0.11307129
0.15859911 0.21843684 -0.2997742 -0.45868614 -0.4123484 -0.2081158 -0.16469674 -0.10395937
-0.805032 -1.9903395 0.73570156 0.22031496 0.04608017 0.16536358 -0.2398862 -0.16245028
-1.3546402 -0.4437788 0.28786293 0.028541567 -1.1126574 -0.339293 -0.91330975 0.5624672
-0.29527646 0.23650873 0.6795787 -0.80445397 -3.2177966e-05 0.21548277 -0.51498395 -1.0791999
-0.11665845 -0.29273278 0.13302211 0.01868279 0.48900157 0.059066825 -0.07811001 -0.3824575
0.050554246 -0.17093429 -0.31138507 -0.45789948 -0.13127021 0.18473083 0.40594283 -0.67198086
0.022079011 -0.9391961 -0.14505464 -0.28943735 0.013169605 -0.53005886 -0.34019044 -0.45308748
0.16895293 -0.12574083 0.31191972 -0.039082818 -0.04697323 -0.052356835 -0.6946959 0.07491074
0.48733878 -1.8564547 0.092428975 -0.46963346 0.23872541 -0.19599724 0.26174873 0.34722736
-0.2380417 -0.08339723 0.18151447 0.15359879 -0.108212665 0.04141749 0.3667491 0.16176385
-0.03550873 0.2772579 -0.52718145 0.086873345 0.18970944 0.16198348 0.008658022 -0.1790721
0.07346376 -0.6976625 0.14231046 0.20487414 0.026114792 0.09107171 -1.1375839 0.092616364
-0.2752454 -0.08099916 -1.0467626 0.8339705 -0.5766666 -0.25073683 -0.18399875 0.13881281
-0.09080322 -0.63156945 0.57658815 0.6531798 -0.6049586 -0.9285859 -0.7118082 0.18071769
-0.11025341 -0.2664787 0.53958464 -0.09005041 0.17030895 -0.5030999 -0.6275698 0.15849371
-0.51053953 0.077020094 -0.21073194 0.09091853 -0.6865688 -0.30069068 -0.19168478 -0.046328325
-0.20870474 0.16396146 -0.058584504 0.005075552 -0.3257614 -0.3494223 -0.011898112 0.22269274
-0.27279738 0.0076065026 -1.2554774 -0.5639139 0.109646104 0.14081512 0.078292824 -1.2579505

arith.constant3 f4 [128]
00000000: bee8 7d41 409f ee40 339f 9541 6942 9341
00000010: bcd6 2f40 77f5 8741 0167 9d40 0e06 b141
00000020: fe28 af41 70c9 ad41 c6ad 0441 809a 7d41
00000030: 8996 9441 09dc 8f41 f652 c5c0 2b12 b041
00000040: 0365 2c41 c5c4 0740 6569 7441 9824 6941
00000050: 4e2f 90bf ade3 7641 343d f6bf 18b5 99c0
00000060: 7987 1cc1 59a9 0941 0395 fc40 2c1b 1f41
00000070: 82a5 3e41 77d6 9940 ee72 2141 3230 8341
00000080: b53f b341 cd82 5141 f8b9 c541 1dda 9341
00000090: 9428 1a40 095c 10c1 6603 e940 9368 5ac0
000000a0: 37bc a2c1 387d 90bf cdd6 1141 a658 2141
000000b0: ea44 3541 e313 e940 14c4 2440 d91a 2241
000000c0: 5930 6441 cc27 5541 23fd 6e41 148a 9141
000000d0: cc5d ad40 7ca8 9741 44af da40 23e1 adc0
000000e0: 40b0 c041 d899 23c1 a6ca 8141 5963 39c0
000000f0: af35 34c1 ad43 0bc0 a5cd 8dc0 2537 bd40
00000100: f782 93c0 7eba ae41 808c 7a41 cfad 8341
00000110: ed17 c541 eb13 1641 3132 4c41 d7ee 3740
00000120: 8478 9341 2aeb 4c41 0eeb 89c0 4430 6ebe
00000130: 3166 b041 95db 5241 f9bf 7f41 5c0a 9941
00000140: a0ce 3e40 8329 7141 2f88 6cc0 910f 4841
00000150: faa1 7c41 9a9d 4941 fcb3 3341 8d0e cb41
00000160: d28d 9140 4713 3c40 b6ff 6b41 e93c cc40
00000170: 28df c440 5329 8041 79c1 9341 13fa 7041
00000180: 77a9 e6be 197a 1e41 03d3 0341 2e12 4441
00000190: c1a7 3341 8ba6 f341 e9a4 6e41 2161 9741
000001a0: 5149 7340 cd17 9e40 0e7a e940 2dd4 0841
000001b0: d923 a240 5429 4741 0c55 1840 f797 be3f
000001c0: 116f a140 e73f 2140 7597 74c1 cab9 2941
000001d0: db09 b441 2538 f9bf 731e 5041 4212 9140
000001e0: 609e 6541 fcbf af40 a63c 2141 66f1 8c40
000001f0: f677 733f 7d6c 9d40 8789 9941 13fc 5b41
15.869322 7.4569397 18.702734 18.407427 2.7474813 16.994856 4.9188237 22.127956
21.895016 21.723358 8.292425 15.85022 18.573503 17.982439 -6.166377 22.008871
10.774661 2.1213849 15.275731 14.571434 -1.1264436 15.430585 -1.9237428 -4.803356
-9.783074 8.603845 7.89319 9.944134 11.915407 4.80743 10.090559 16.398533
22.406107 13.094434 24.715805 18.4815 2.4087267 -9.0224695 7.281665 -3.4126327
-20.341902 -1.1288214 9.114942 10.084143 11.329325 7.2836776 2.5744677 10.131555
14.261804 13.322216 14.936801 18.192421 5.4177 18.957268 6.8338947 -5.4337325
24.08606 -10.2250595 16.22395 -2.8966887 -11.263106 -2.1760056 -4.431353 5.9129815
-4.609737 21.84106 15.659302 16.459867 24.636683 9.379863 12.762254 2.8739526
18.433846 12.807413 -4.309943 -0.232606 22.049898 13.178609 15.984368 19.130058
2.9813614 15.072635 -3.695812 12.5038 15.789545 12.600977 11.2314415 25.382105
4.548562 2.9386766 14.749929 6.3824353 6.1522408 16.020178 18.46947 15.061053
-0.45051166 9.904809 8.239017 12.254438 11.228456 30.45632 14.915261 18.922426
3.8013499 4.9404054 7.2961493 8.551801 5.066876 12.44759 2.3801908 1.4890126
5.044808 2.5195253 -15.286977 10.607859 22.504812 -1.9470259 13.007434 4.5334787
14.351166 5.4921856 10.077307 4.4044676 0.9510492 4.919493 19.192152 13.749042

arith.constant4 f4 [512]
00000000: 3bc0 7ebf f916 49bf b1d4 83bf 03e7 1ebf
00000010: 8a3b 12bf 44c7 d3bf 0ce3 28bf 4828 9cbe
00000020: d2a4 c2be 9103 00bf 2efa a2be dd9e e43d
00000030: 5a60 85bf 0291 22bf 1b02 a5bf 1f69 cabe
00000040: 8f8e 2ebe af75 afbf 911c b13e cc62 02bf
00000050: 565f 89be 021f efbe 0f2f 72be 9547 36bf
00000060: 9054 71bf 0919 23bf a603 9abf 84b6 b2be
00000070: 550b febe ddfa 8a3e 58a1 b33d 9eca 38be
00000080: 3661 6cbe de43 55be eccd 84bd 105b babe
00000090: 249e b5be d8d6 48bf 434b 2abf 88d2 48bf
000000a0: 834e 1bbf 2276 933e aca7 6fbf d320 0ebf
000000b0: fb31 b9bf abe3 cfbe d2b7 ebbe 7b61 70bf
000000c0: 190c ae3d 6dc4 d3be 8a26 7ebe d221 3cbf
000000d0: 0381 25bf b851 a2bd c35e 85bf 512e 92bf
000000e0: 0056 9ebf be8b b1bf f97b 92bf 557f d7bf
000000f0: ba2f 13bf 6cdc 03bf f330 1cbf 03e7 b3be
00000100: dae1 babe 5e54 8bbf a5e9 46bd 04be 94bf
00000110: df2a cfbd 24fc ecbe 5f03 1cbf c1d1 d6be
00000120: 1a2e 9cbf 9690 6abe e72c 2ebf cefa 90be
00000130: 5ab5 b6be 2556 e4be e32b e2be 6326 00bf
00000140: e186 61bf 7d5a 4abe c6f3 a0be f8e0 9ebf
00000150: 9d88 57bf 518d 21bf 2f82 a0bf 0faa 57bf
00000160: f02d 0dbf b733 4cbf 54f9 80be bf5c 46bf
00000170: f5f7 31bf a0c2 3abf 62cb 6bbe dd4b f1be
00000180: f16c b9be 9f7f 06bf 1e32 b1bd a519 57bf
00000190: 07c1 e5be c978 ffbe f2b1 2bbf dd15 9dbf
000001a0: c24c 97bd 9155 3bbf 2d2e 1bbf b717 52bf
000001b0: 1720 33bc 10b7 20be d395 b9bf 86bf e4bd
000001c0: d982 80bf 769b a6bf 235b 11bf 9edf 87bf
000001d0: dcb9 9dbf c4d1 af3e b427 c7be 4c0f aebd
000001e0: ded3 5dbe 4b0c a2be 7fcf 8a3d 2dc1 0abf
000001f0: 71b7 ebbe 3fee e8be 333b 40be f018 32bf
00000200: 9f86 fbbe 7779 bdbe 7336 2bbe 56d8 c6be
00000210: 9c7e 103d fe35 2bbf f939 b93e d868 923d
00000220: 6402 2bbf 2822 53bf 0304 89bd dd0e 0dbf
00000230: 16ea 12bf 50ff 6bbf ffe5 bfbf a9be c03e
00000240: 9c2b f6be f86f 2bbf a16d 9cbe 47f9 85bf
00000250: e470 bfbe 614f a2be acc3 2bbf 413a 4bbf
00000260: e48c 22bf 2a01 b6bd 792c 21bf 965b 11bf
00000270: 1373 e7be 76bf 5abe b84f ffbe d694 c7be
00000280: bbc6 39bf 1217 2bbe db87 45bf 0ff0 93bf
00000290: 4df9 83be c2df 6dbe cfac aabf 3eb6 4bbf
000002a0: 7365 5dbf 72a9 40bf ed7e c7bd fb2a 42bf
000002b0: d567 d3bd 7fae 893e e64d d7be 1da8 0cbf
000002c0: 79d8 52bf b6ad 93be 2275 bcbe 2a74 4fbf
000002d0: 7835 c93b 5a25 d93e 5c8a 0ebf 8102 7fbf
000002e0: 5afb afbf 8f1b 88bf 25f3 383e dd58 cfbe
000002f0: 7207 613e 6ea8 87bf 5159 e0be 61a5 06bf
00000300: 29da bc3d f813 3fbf e80e ccbd d1a5 fbbe
00000310: fffc 13be f0af 97be 5651 f6be f4ca 1cbf
00000320: fff5 70bf a1e2 e7be 4e60 fbbe 2226 89bd
00000330: de47 fabe cc42 85be 54a5 19bf 8a58 92bd
00000340: dc15 e4be ade1 88bf 8d59 55bf 3e5f b7be
00000350: 5c85 c53e 22f8 a9be 8372 d4be ae3b 5abf
00000360: a0af ccbe b161 323e 0ab6 70bf 4bcc d0bf
00000370: d7c9 62bd 0a74 6bbf 12de 18bc 4bb6 f9be
00000380: 197a 40bf bb1f 03be 7867 4cbf 826f 82bd
00000390: 9ae8 11bf 6ded 0abf 24c3 a1bd c512 afbf
000003a0: 453d 66be 8bc5 a7be f833 d0be d1c7 a9bf
000003b0: a744 9dbf d0a6 73bf 8be8 813d a548 1dbf
000003c0: a120 f2be 851a e3bd c073 2ebf d51d adbf
000003d0: ef99 6dbf ca4d 963d daff d43c 808a 90be
000003e0: 6895 36bf 9434 29bf 03fe 95bd 2687 2ebf
000003f0: 1707 eabd 7cdd 92be b013 a9be 66be 35bd
-0.9951207 -0.7855068 -1.0299283 -0.62071246 -0.571221 -1.6545186 -0.65971446 -0.30499482
-0.38016373 -0.5000544 -0.31831497 0.11163113 -1.0420029 -0.63502514 -1.2891268 -0.39533326
-0.1704657 -1.3707789 0.34592107 -0.50932 -0.26830548 -0.46703345 -0.23650764 -0.71202976
-0.9426966 -0.63710076 -1.2032363 -0.34904873 -0.4961802 0.27144518 0.08771008 -0.18046042
-0.23083958 -0.2082667 -0.06484589 -0.363976 -0.35472214 -0.78452826 -0.6652109 -0.78446245
-0.60666674 0.28801066 -0.9361522 -0.55518836 -1.4468378 -0.40603384 -0.4603868 -0.93898743
0.08498401 -0.41360798 -0.24819389 -0.73489106 -0.6464998 -0.07925743 -1.0419544 -1.1420385
-1.2369995 -1.3870771 -1.1444083 -1.6835734 -0.574947 -0.5150821 -0.6101219 -0.35137185
-0.36500436 -1.0885122 -0.048562665 -1.1620488 -0.10115599 -0.46286118 -0.60942644 -0.41956905
-1.2201569 -0.22906718 -0.68037266 -0.2831635 -0.35685235 -0.44596973 -0.44174108 -0.50058573
-0.88096434 -0.19761081 -0.31435984 -1.2412405 -0.8419283 -0.63106257 -1.2539729 -0.84243864
-0.5514822 -0.7976641 -0.25190222 -0.7748527 -0.6951898 -0.72953224 -0.23026803 -0.47128192
-0.36215928 -0.52538484 -0.08652137 -0.84023505 -0.4487383 -0.4989684 -0.670684 -1.2272297
-0.07387687 -0.7317744 -0.60617334 -0.82067436 -0.010932944 -0.15694833 -1.4498848 -0.11169343
-1.0039932 -1.3016193 -0.5677969 -1.0615118 -1.2322345 0.34339726 -0.3889748 -0.084990114
-0.21662852 -0.31650004 0.06777858 -0.5420101 -0.46038392 -0.45494267 -0.18772583 -0.695693
-0.49126145 -0.37006733 -0.1671999 -0.38836926 0.035276994 -0.6687926 0.36177042 0.071489036
-0.6680052 -0.82473993 -0.06690218 -0.55100805 -0.57388437 -0.9218645 -1.4992064 0.37645462
-0.48080146 -0.66967726 -0.3055239 -1.0466698 -0.37390816 -0.31701186 -0.67095447 -0.79385763
-0.6349623 -0.08886941 -0.62958485 -0.56780374 -0.45204982 -0.21362099 -0.49865508 -0.3898074
-0.72568864 -0.1670802 -0.77160424 -1.1557635 -0.2577614 -0.23229888 -1.3333987 -0.79574955
-0.86482924 -0.75258553 -0.09741006 -0.75846833 -0.10322539 0.26890942 -0.4205162 -0.5494402
-0.8236156 -0.28843468 -0.36808115 -0.8103663 0.006140407 0.4241131 -0.5567987 -0.99613196
-1.3748581 -1.063341 0.18061502 -0.40497485 0.21975496 -1.0598276 -0.43818143 -0.525961
0.09221298 -0.74639845 -0.09963781 -0.49149945 -0.14451979 -0.29626417 -0.4810893 -0.6124718
-0.9412536 -0.45290092 -0.49096912 -0.066967264 -0.48882955 -0.26027524 -0.60017896 -0.07145794
-0.44547927 -1.0693871 -0.8333977 -0.35814852 0.38578308 -0.33197123 -0.41493616 -0.85247314
-0.3997774 0.17420079 -0.9402777 -1.6312345 -0.05536827 -0.91973937 -0.009330289 -0.4877189
-0.75186306 -0.12805073 -0.7984538 -0.06368925 -0.56995547 -0.54268533 -0.07898548 -1.3677603
-0.2248431 -0.327679 -0.4066465 -1.3264104 -1.2286576 -0.9517641 0.06343182 -0.6143897
-0.4729052 -0.110890426 -0.6814537 -1.3524729 -0.9281301 0.07339056 0.026000906 -0.28230667
-0.71321726 -0.6609585 -0.073238395 -0.6817497 -0.114271335 -0.28684604 -0.33022833 -0.04437103

sequential_1/dense_1/MatMul f4 [512, 42]
00000000: 65dd 7a3d 2a6b a0bd 4493 05be 32ca 563e
00000010: 430e 2d3f 53fe 53be 2556 00be e890 87be
00000020: b169 f1be dcd0 8cbe b9d4 213e b3ef 5b3e
00000030: cefb 933c 1a1f 76be d215 bf3e 1a2b d13e
00000040: ee49 e33e 0d7b 38be 9d45 dd3d 1e6b d8bd
00000050: 237e afbe 5b3a bc3d 166f 823e 18a6 61be
00000060: aafd 83be 011c 20bf 9355 65bd 1c83 973d
00000070: 6576 f83c 930d 80bd c974 61be b08d bb3e
00000080: f55b 9f3d 6dd6 e43d b1c1 30be ea9b f93e
00000090: 9659 773e cb3d 003e 744f a7bd 6660 ea3e
000000a0: 1335 273d 7f8b cfbe 6ad5 51bd 95e6 2c3d
000000b0: 0433 81be c926 ab3e 5085 6e3f 61da 09be
000000c0: 0295 35be cfd0 86be ce06 8cbe 6200 afbd
000000d0: 0975 04bd 60ef a63d 8139 82be 6454 813c
000000e0: 7261 3d3e 9db7 2e3e 90d1 a93d 08ca 173e
000000f0: 7a02 0b3e 7b07 943b 2387 47be d074 b4be
00000100: d595 4abe f931 85be 4f8a cf3d 82fe 19be
00000110: 50b0 353e 94be 943e d1ba c13d 343d f83d
00000120: ab9f a83b 454a c43a d3dc 08bf 3265 fcbe
00000130: ba0b 223d e2e9 133c ea6e a53e 388c 2e3f
00000140: 16e7 7e3d b6ec a6be 7890 d3be 8d4a 2ebe
00000150: 0798 d9bd e16f ecbd 904a 113e 01fa ebbd
00000160: f9d9 2fbf 23ca 953e 94c0 5f3e 7547 ba3d
00000170: 6213 83be 8246 2c3e eb44 123e 198f 9fbc
00000180: 949f 20be 3ed7 f33c fc8f 683c a2ff 9bbe
00000190: 2d4d 06bf 92d3 06be abbe cabd 47a6 b4bd
000001a0: ea5d 82be 77ac 9d3e aaf2 da3e 7e72 8c3e
000001b0: d245 26be 96f5 d1be fde4 2a3e 6655 cbbe
000001c0: 4367 11be dd95 2ebe 75c2 273e c310 afbe
000001d0: dc55 00be e1f2 eebe 4bf2 303d 3e90 8cbe
000001e0: a49e 08be 0300 9abe f51b a1bc 4ddf abbd
000001f0: 63d0 a63e db38 de3e 371f 183e bc52 523e
00000200: 31d5 c43e 8aa5 1b3d 93b1 18bf 2401 0a3f
00000210: 41a1 19bd ecff a5bd 3a43 9abe 02e8 053e
00000220: 1786 6cbe 130b e4bd 6ab6 5ebd 63c2 ad3d
00000230: dcf3 99be 539a c4bd 1458 463e ad0b 88be
00000240: b27b 85be bdbc 6bbe e33c c1bc a8c4 27be
00000250: b3e3 5e3d 5a72 803e d4cc eb3d 24c7 2bbd
00000260: 681d 5dbe 4301 4cbf 7b3e 5bbe 1081 a1bd
00000270: eb7a f9be 6a0e 36be cf25 d13e eb29 c33e
00000280: 00ba f8be 8211 503c 810f 6c3e 602c 9cbe
00000290: e4aa c4be 924b 543e aa72 ed3e 2ffd 273e
000002a0: f293 f6be 3ed1 eebe 4d68 193e cb44 8e3e
000002b0: c825 babd 7f43 d03e 8da8 e33e fe4f 293e
000002c0: 7a5b b4bd 6275 d53e f1da 143c e1e3 09be
000002d0: 2dac efbd 64ae 113e 708e 76bc 9369 61be
000002e0: 4a21 1abe 418c 153e a225 26bd 9c9e 3fbe
000002f0: 26ec adbe f7de db3d 3a04 2dbd 2552 7abe
00000300: c8e7 56be 90b8 5cbe 2f5e 1b3c 8e0a b3bd
00000310: c050 793e 456e 873e fe06 30be fa6f 643e
00000320: 3549 9a3e 7cc8 f73d 6ed0 f8bd 3b8b e13e
00000330: 5991 373e f570 2ebf b442 133d f2f9 f93e
00000340: 5172 f4bc 6ae3 6abf 1927 cebd 12fc 533c
00000350: d7da 293e 8966 b53e cff6 8d3e 2c00 773e
00000360: 3593 303e 7c6f efbc fb09 babd a2ef e03d
00000370: a2cf e7bc 192b a23c 82dd b13d 29c1 c63d
00000380: 000a 0b3d 03b1 fbbd e84e fbbc a28e 3c3d
00000390: c213 51bd 0490 c43d d02b 5e3b 06b4 88be
000003a0: 42f6 dbb9 0b38 4b3e 5a89 993c 05d4 d33d
000003b0: aad8 00be a8b7 87bb f1d0 7b3e 6216 1d3e
000003c0: f0cf 74be e643 4abd 4beb 8b3e 1d42 e13c
000003d0: 9815 0cbe 659c cbbe 3e6e 20bf 6af7 42bf
000003e0: 8203 95be aa98 c4be beca b1be 7695 c8be
000003f0: 892d e3bc c331 c8be 0a3b 7abe ee7f 733c
0.061246295 -0.0783294 -0.13044459 0.20975569 0.67599887 -0.20702486 -0.12532862 -0.26477742
-0.4715095 -0.27503097 0.15803804 0.21478157 0.018064406 -0.24035302 0.37321335 0.40853196
0.4439234 -0.1801569 0.10804293 -0.10567306 -0.34275922 0.09190818 0.25475377 -0.22036016
-0.25779468 -0.6254273 -0.055989813 0.07398054 0.030329892 -0.06252589 -0.22017206 0.36631536
0.07781211 0.11173711 -0.17261387 0.48751765 0.24155268 0.12523572 -0.08169451 0.4577667
0.0408221 -0.40536115 -0.051228918 0.042212088 -0.25234234 0.33428028 0.9317217 -0.13462211
-0.17732623 -0.26331183 -0.27348942 -0.08544995 -0.032338176 0.08151126 -0.25434497 0.01578731
0.18494204 0.1706223 0.08291924 0.14823163 0.13575163 0.0045174933 -0.19485144 -0.3524537
-0.19783719 -0.2601469 0.10133802 -0.15038493 0.17743039 0.2905165 0.094594605 0.121210486
0.005145987 0.0014975747 -0.5346195 -0.49295956 0.039561965 0.00902793 0.32311183 0.68182707
0.0622321 -0.3260247 -0.41321158 -0.17020626 -0.106247 -0.11544777 0.141886 -0.11522294
-0.68691975 0.2925578 0.21850806 0.090956606 -0.25600725 0.16823772 0.14284103 -0.019477414
-0.15685874 0.029765721 0.014194485 -0.3046847 -0.5246151 -0.13166645 -0.09899648 -0.088207774
-0.25462276 0.30795643 0.42763263 0.274311 -0.16237572 -0.4100768 0.16688915 -0.3971359
-0.14199547 -0.17049356 0.16382773 -0.34192476 -0.12532753 -0.46669677 0.04319982 -0.27453798
-0.13341767 -0.30078134 -0.019666651 -0.083922006 0.3258086 0.43402752 0.14855658 0.20539373
0.38443902 0.037999667 -0.59645957 0.5390799 -0.0375073 -0.08105454 -0.30129415 0.13076785
-0.23098026 -0.11134925 -0.054373182 0.08484342 -0.30068862 -0.095997475 0.19369537 -0.26571408
-0.26070935 -0.23021217 -0.023588603 -0.16383612 0.05441637 0.25087243 0.11513677 -0.041937962
-0.21593249 -0.79689425 -0.21410553 -0.07885945 -0.4872659 -0.17778936 0.40849158 0.38117918
-0.48579407 0.012699487 0.2305279 -0.30502605 -0.3841163 0.20731953 0.46376544 0.16405176
-0.48159748 -0.46644014 0.14981194 0.2778686 -0.090892375 0.40676495 0.44464532 0.16534421
-0.0880651 0.41691118 0.009085403 -0.13465835 -0.11702762 0.14226681 -0.015048608 -0.2201293
-0.15051761 0.14604284 -0.040563233 -0.18712848 -0.3396923 0.107358865 -0.04224036 -0.24445398
-0.20986855 -0.2155478 0.009482904 -0.087422475 0.2434721 0.26451316 -0.17190167 0.2230834
0.30133978 0.12098786 -0.1214913 0.44051537 0.1792654 -0.6814111 0.035952285 0.48823506
-0.029839667 -0.91753256 -0.10066051 0.012938516 0.16587387 0.3542979 0.27727363 0.2412116
0.17243655 -0.029227965 -0.09083935 0.10983206 -0.02829725 0.019795941 0.086848274 0.09704811
0.033945084 -0.12289622 -0.030677274 0.046034463 -0.051044233 0.09597781 0.0033900626 -0.26699847
-0.0004195441 0.19845597 0.018742252 0.10343174 -0.12582651 -0.0041417666 0.24591424 0.1534057
-0.23907447 -0.04938116 0.27327952 0.027497346 -0.13680112 -0.39767757 -0.62668216 -0.76158774
-0.2910424 -0.38397723 -0.34724993 -0.3917653 -0.027731674 -0.39100465 -0.24436584 0.014862044
