assets/models/asl_landmark_model_1.tflite (tflite, 92752 bytes, 4 tensors)

arith.constant f4 [28, 320]
000000 03 fe 0c c0 07 e6 6a be 20 24 95 bf 41 49 55 be
       -2.2030036 -0.22939311 -1.165165 -0.20828725
000010 1b b3 99 3e b9 56 37 3f 56 c9 1b bf a6 e9 42 bf
       0.3001946 0.71616703 -0.6085409 -0.7613777
000020 a6 08 50 bf 39 9d 74 3e 59 c2 36 bf f0 89 9a bd
       -0.81263196 0.238881 -0.713903 -0.07545841
000030 87 7d 0f 3e bc 2c 2e bf 0e 96 14 3f 61 43 99 bf
       0.14012729 -0.6803701 0.58041465 -1.1973687
000040 a7 85 91 bf 27 b3 27 3e 5f 1e 81 3f 7f 48 97 bf
       -1.1368912 0.16376935 1.0087394 -1.1818999
000050 46 6c 1a bf 08 29 87 be 36 97 01 c0 3a 4f b9 3e
       -0.6032146 -0.26398492 -2.0248542 0.36193258
000060 c2 bb 65 3f a7 d8 a7 3e 2d 79 c1 3e ac 82 44 3d
       0.8973962 0.3278248 0.37787762 0.04797618
000070 38 5d b1 bf ee b8 94 bf 6c 3a 24 3f ef fb 81 be
       -1.3856573 -1.1618936 0.64151645 -0.25387523
000080 4f bc ed bf 62 f9 08 bf 54 2e d8 be 55 f2 73 3c
       -1.8573092 -0.5350553 -0.42222846 0.014889319
000090 96 f1 1a 3e 4d 78 15 3f 42 2c 0a be fe 6c 27 3e
       0.1513122 0.5838669 -0.13493446 0.16350171
0000a0 01 7b 1a bf 80 de a4 bf 55 6c b1 bf 8a ca 5f 3e
       -0.6034394 -1.2880402 -1.3861185 0.21854606
0000b0 47 50 d0 3e 2c 8a 83 3e 1c 57 3d 3e 39 89 bc 3e
       0.40686247 0.25691354 0.18490261 0.36823443
0000c0 c1 aa a5 be dc 8b a9 bf 9b c4 d0 be 78 c3 60 3e
       -0.32356837 -1.3245807 -0.40774998 0.21949565
0000d0 65 57 1d 3f 1a 28 56 3f f4 0b 01 3e 77 35 e3 3e
       0.6146148 0.8365494 0.12602216 0.44376728
0000e0 cb 7f 06 bf f0 27 2b 3f b7 dd 71 3e a1 b6 9f be
       -0.52538747 0.66857815 0.23619734 -0.31194022
0000f0 9c f4 10 bf ce f2 0a 3f 01 c9 d0 be 66 9b 1c 3f
       -0.56623244 0.5427674 -0.40778354 0.6117462
000100 9f 44 0b 3f 2d 98 11 bc a9 ed a7 bd e1 02 2d 3f
       0.5440158 -0.008886379 -0.08199627 0.6758252
000110 f3 05 85 3d e6 6d 50 3f 02 00 4a be 7d dd a1 bd
       0.06495275 0.8141769 -0.19726565 -0.07903574
000120 9e 65 5c bf 90 0a ad 3e 7d f6 eb 3e 31 92 12 bf
       -0.86092556 0.3379712 0.46086493 -0.5725432
000130 b1 1a 33 be 83 f2 a1 be 4d ec f4 3e c0 ae 15 3f
       -0.1749065 -0.31630334 0.47836533 0.5846977
000140 82 8b 47 3f 7e 0d 44 3e f1 bc 0e c0 db 0f d4 3e
       0.7794725 0.19145772 -2.230282 0.41418347
000150 84 bd ef 3e 6f 98 1e bf 1b 21 35 3f ea a7 73 3f
       0.46824276 -0.61951345 0.7075364 0.9517809
000160 4c ca a3 3f 73 99 cb bf f8 e3 1e 3f ce c1 8f 3f
       1.2796111 -1.5906204 0.620666 1.123102
000170 7f ee 26 bf 2e 50 a1 bf 98 58 cd 3e 24 c6 49 3f
       -0.65207666 -1.2602594 0.40106654 0.78817964
000180 e4 45 85 bd ca 98 af bf 83 bc 0b be 79 0b d6 bf
       -0.06507471 -1.3718503 -0.1364613 -1.6722251
000190 3a a7 19 3f 0d bd f9 3c 21 49 e0 be df 2d 3d bf
       0.6002079 0.030485654 -0.43805793 -0.7389812
0001a0 ce 22 ff bf 81 80 4c 3e 6b 8b cf 3e 07 65 f1 3e
       -1.9932497 0.19970895 0.40536055 0.4714739
0001b0 62 9f d0 3d 6e 94 41 bf b0 9f a2 be 5a d8 55 be
       0.1018665 -0.7561711 -0.31762457 -0.20883313
0001c0 85 78 2f bf b7 14 2c be 04 57 82 3f 1f 84 0f bf
       -0.68543273 -0.16804777 1.0182805 -0.56060976
0001d0 06 d3 79 be c1 43 ff be 2a 05 52 bf 4b f2 96 3e
       -0.24396905 -0.4985638 -0.8203913 0.2948173
0001e0 a9 bd 61 3f 48 56 93 3e fb 27 08 3f 8c 7a f8 bf
       0.88180023 0.28776765 0.53186005 -1.9412398
0001f0 2e 92 37 bf c3 fd 91 3d d7 b8 d1 bf 7e 3d 1d bf
       -0.7170743 0.07128479 -1.6384534 -0.61421955
000200 ff 12 fc bd 8f 0f 07 bf 4c 1e a5 3e 78 40 21 3f
       -0.12308311 -0.52758116 0.32249677 0.62988997
000210 c2 83 f1 be 8b 30 ca 3e f8 68 9e 3e 04 bb 9f 3e
       -0.47170836 0.3949016 0.3093946 0.3119737
000220 66 37 55 3c f0 9d b0 3e 32 21 00 c0 11 e4 05 3f
       0.013013696 0.34495497 -2.002026 0.52301127
000230 8c 8f 3f 3e 1e 87 29 bf b8 76 ab bf 0a 4d 80 be
       0.18707103 -0.662218 -1.3395605 -0.25058776
000240 3c 54 87 3e 14 d8 b4 3e 1f eb 2e 3e 1d c7 bd 3e
       0.26431453 0.35321105 0.17081879 0.37065974
000250 45 90 93 3c 28 70 b0 3e 07 07 20 3e eb 50 eb bd
       0.018013129 0.34460568 0.1562768 -0.11490043
000260 73 0c b4 bf 1d 74 12 3f 2f 4d 52 3f 61 0c 80 bf
       -1.4066299 0.57208425 0.8214902 -1.0003778
000270 49 52 37 bf 29 d3 35 bf c3 9d 65 bd a5 d9 6a 3f
       -0.7160993 -0.7102533 -0.056058656 0.9173835
000280 fa c4 19 3f 4b ef 37 bf 62 26 d6 3e 72 9a eb 3d
       0.6006619 -0.7184951 0.4182616 0.115040675
000290 c5 24 fd be c9 c2 5a 3f df 29 4c 3e 53 be c8 3d
       -0.49442115 0.8545347 0.19937848 0.098019265
0002a0 c2 d1 c5 3e bd 9e 92 be c8 a5 c6 bf 0b 5f e3 be
       0.38636595 -0.28636733 -1.5519342 -0.4440845
0002b0 e7 56 dd bd be 05 95 3e 1c 50 a5 bf f4 71 b5 be
       -0.10807591 0.29105943 -1.2915072 -0.35438502
0002c0 bf 55 19 bf 52 4b dc 3e 74 90 83 bd d4 25 ac bd
       -0.59896463 0.43026215 -0.064240366 -0.08405653
0002d0 a9 2a 70 be bd 05 5e 3f 6b 4a ca 3f 51 01 f3 3b
       -0.23453774 0.86727506 1.580396 0.0074159284
0002e0 32 b7 8f 3f 41 32 0b 3f 4a 30 d8 bc 04 93 a3 3e
       1.1227782 0.54373556 -0.026390214 0.31948102
0002f0 78 8f 26 bf 39 a6 c6 3e 02 fd 40 3e 8a 04 2a bf
       -0.65062666 0.38798693 0.18846515 -0.66413176
000300 39 61 24 bf cf 10 91 3d 6b 1f 08 bf 19 4d ce bf
       -0.6421085 0.07083284 -0.5317294 -1.6117278
000310 82 13 85 3f 56 c0 23 3f 2e 08 0e 3f 9c ce 33 3e
       1.0396578 0.63965356 0.5548123 0.17559284
000320 75 af ff be 2c 48 04 3f c7 e1 0a 3f 0c fd ad 3e
       -0.4993855 0.51672626 0.5425076 0.33982122
000330 7b b8 51 3e 85 49 cd be e1 75 91 bf 6c 58 04 bf
       0.2048053 -0.40095153 -1.1364099 -0.5169742
000340 ed 97 9f bf 36 d2 02 3f 1f fd b5 bf 51 03 9f 3e
       -1.2468239 0.51102006 -1.4217871 0.31057218
000350 46 83 59 3c 62 b4 be 3e 45 12 97 3e 8e 23 9d be
       0.013275927 0.37246996 0.29506126 -0.3069119
000360 eb 2f d2 3e ac 49 1b 3e f0 71 ad be f0 0f 1a c0
       0.41052184 0.15164822 -0.3387599 -2.4072227
000370 6d 89 03 bf d0 ca cc 3e 2e 21 d8 3e 32 98 69 bc
       -0.5138157 0.39998484 0.42212814 -0.014257478
000380 03 0f d8 be 09 9e 0d 3f 6c bf dd 3e 14 8e dd 3e
       -0.42198953 0.5531927 0.43310106 0.4327246
000390 ca 05 ef bd 68 d6 2b bf 68 e7 63 bf a3 e0 0f be
       -0.11671026 -0.6712403 -0.8902497 -0.14050536
0003a0 1d 64 b9 be 88 2c 03 3f d8 e1 2b bf 92 a5 f2 be
       -0.36209193 0.51239824 -0.67141485 -0.47391945
0003b0 4f 7e 92 3e 4b 38 f1 3e 4f a7 a0 3e 85 af 9d bf
       0.2861199 0.4711326 0.31377646 -1.2319189
0003c0 67 63 e7 be c1 ab 55 bf ee c9 06 3f b5 9d 4d be
       -0.45193025 -0.834652 0.5265187 -0.20079692
0003d0 11 2f 5a bf fd 97 1a bf d9 44 d8 be 6b cd 0c 3f
       -0.8522807 -0.60388166 -0.42240027 0.5500094
0003e0 42 04 1b 3f 6c 96 b8 3e 50 08 a0 bf f2 fb e3 3e
       0.6055337 0.36052263 -1.2502537 0.44528157
0003f0 68 11 65 be 88 cb 1f bf 05 85 99 bf d7 23 26 be
       -0.22369921 -0.6241994 -1.1993719 -0.1622461

arith.constant1 f4 [28]
000000 81 8f 4b 40 a2 3b ac 40 0e ce 28 3e 86 ca 55 40
       3.1806338 5.3822794 0.16484854 3.340486
000010 18 e8 94 40 84 05 98 3f da d6 71 40 02 6f d8 3f
       4.6533318 1.1876683 3.7787385 1.6908877
000020 37 d2 a0 be 47 f2 13 40 94 59 83 40 e0 e9 05 bf
       -0.3141038 2.3116624 4.104685 -0.5230999
000030 0d 12 6a 3f c5 2b 47 bf d4 07 b2 40 91 48 8d 3f
       0.91433793 -0.7780116 5.5634556 1.103777
000040 8d c5 04 40 38 92 ce 40 39 d5 9a 40 fb ac 77 40
       2.0745575 6.455349 4.838528 3.869933
000050 a8 8f 95 40 f5 c2 c7 3f 2d 40 fd bc 87 37 07 41
       4.673786 1.5606371 -0.03091439 8.4510565
000060 92 e2 fb bf c1 2b 8e be dc 96 00 40 ca 57 b3 bf
       -1.9678519 -0.27767757 2.0092077 -1.4011166

arith.constant2 f4 [320]
000000 c2 b5 89 3c 06 a3 8b bd 6e d4 09 be 0d 9d 23 bd
       0.016810302 -0.06818204 -0.13459942 -0.039944697
000010 ca d0 33 bd 8d 3a b0 bd 62 90 42 bc 69 c3 3f ba
       -0.04390029 -0.08604918 -0.011875244 -0.000731519
000020 5e 82 81 bd d9 08 09 be ad 19 9a 3b 24 d5 ed bd
       -0.06323694 -0.13382281 0.004702768 -0.11612919
000030 89 c8 16 bd a0 6d 8a bd 06 6f fc 3c 1d 76 c7 bd
       -0.03681234 -0.067591906 0.030814659 -0.09739325
000040 e0 50 b6 bc 27 80 6f bd 70 f5 ae bd 53 d9 d0 3c
       -0.022255361 -0.058471825 -0.08542907 0.025494253
000050 ad 1f 00 3c 76 d0 33 bd 13 0f a3 bd 12 ed 5d 3d
       0.007820052 -0.043899976 -0.079618596 0.054181166
000060 d4 11 1d 3d d7 4f 2d bd ae 0c 56 bd cf ad 36 3d
       0.03834708 -0.04231247 -0.052258186 0.04459935
000070 71 dc a8 3c 3f ba a3 3d bf a7 91 3c d1 ff 82 bc
       0.020612927 0.07994508 0.017780183 -0.015991123
000080 19 07 86 bd 3e c2 6a 3d c2 f9 e2 3c 45 97 07 be
       -0.065443225 0.05731415 0.027706984 -0.13241298
000090 1b 14 80 3b ca 2d a8 bc bd b5 b2 3b 24 57 6e bc
       0.0039086468 -0.020529646 0.005453794 -0.014547143
0000a0 b9 0a 88 bd 60 d2 dc 3c 78 54 56 3d 44 91 30 bd
       -0.0664267 0.026955783 0.05232665 -0.043107286
0000b0 08 f9 e7 bd 52 fc c0 3c 14 69 41 3c 15 55 b4 bd
       -0.11326796 0.023557816 0.011804838 -0.088052906
0000c0 01 d5 0e bc 25 19 85 bd 9b d7 b5 bd 57 0c 19 bd
       -0.008717776 -0.064989366 -0.08879014 -0.037365284
0000d0 19 a2 04 3d 83 31 af 3d e4 04 eb bc 7f b1 87 3c
       0.03238115 0.085543655 -0.028688855 0.016564129
0000e0 20 9c 4d bd 64 1e 16 bd 82 c4 50 bd 91 50 50 ba
       -0.05019772 -0.036650077 -0.050968654 -0.00079465756
0000f0 87 ca d8 3b 9d ca 22 bd 32 4e a9 bb 1a 22 8e bd
       0.00661594 -0.03974401 -0.0051667923 -0.06940098
000100 d6 f5 4e bd 20 c1 1d 3b e6 d2 c8 bc c0 e5 15 bd
       -0.050527416 0.002407141 -0.024514627 -0.03659606
000110 9c 53 d0 3b ce 3d e7 bc 54 3b ce bb 9e af c0 bc
       0.0063576233 -0.028227713 -0.0062936936 -0.02352124
000120 f6 6a 25 3d 6b 5b 3b bd 3d e9 c5 3c 68 45 48 3b
       0.04038521 -0.04574148 0.024159068 0.0030558947
000130 e3 ab 7d bd 4f 6b b3 bc 4d b1 44 bd 7f 85 ce bc
       -0.061931502 -0.021901755 -0.04802065 -0.02521014
000140 4c 0b 0c be 78 06 4b bd 32 71 ca bc ad ba 89 bd
       -0.13676184 -0.049566716 -0.024712179 -0.06725059
000150 38 f6 f4 bc c4 8d bb 3b d4 64 be 3c 77 8a 8b bd
       -0.029902562 0.005723687 0.023241438 -0.068135194
000160 42 68 25 bd 25 be 8d bd 0a 78 c2 bc c6 36 8a bd
       -0.04038263 -0.06921033 -0.02373888 -0.067487285
000170 5e df e1 3c ba b2 a1 3c 47 2c 01 bd 7f ac 45 3d
       0.02757233 0.019738544 -0.031536367 0.04826021
000180 78 1e 1b bb 61 63 3b bc 62 26 fb bc 21 2f 71 bd
       -0.0023669284 -0.011437268 -0.03065795 -0.058882836
000190 f6 fe f1 bd df a9 bb 3c f7 8d 04 bd 11 63 d0 3c
       -0.11816208 0.02290815 -0.03236195 0.025437864
0001a0 0e e5 35 3c 90 32 06 bd f2 69 45 3c a7 c9 82 bc
       0.011101974 -0.032763064 0.012049185 -0.015965296
0001b0 bc c6 b1 bd dc 03 06 bd 4e 02 7e bd 30 f0 62 3d
       -0.08680484 -0.032718524 -0.062013917 0.055404842
0001c0 dd 62 0a 3d ad 06 82 bb e8 8b c9 3c 40 bc 7c bd
       0.03378569 -0.003968081 0.024602845 -0.061702967
0001d0 05 a5 8b 3b 5d 0a 80 3d 17 f8 9d bc 98 82 05 be
       0.004261615 0.06251977 -0.019283338 -0.13038099
0001e0 c3 d2 9c bd 99 88 23 bc c1 c3 0f 3d 95 98 b8 bd
       -0.07657387 -0.009981298 0.035098795 -0.09013478
0001f0 ea 7e 8f bd 09 f6 97 3c 96 a9 c6 3c 37 f4 73 3d
       -0.07006629 0.018549936 0.024250787 0.059559073
000200 a1 b6 93 bd f3 be 74 bc c3 16 0a 3d 5b 53 18 bd
       -0.07212568 -0.014938104 0.033713114 -0.03718887
000210 e7 ab 33 3d 0a 92 8b 3c 78 b1 09 bd af 4a da bc
       0.04386511 0.01703741 -0.033616513 -0.02664694
000220 5b 78 08 bd 4e cf 7c bd b0 09 92 3c c8 e3 05 be
       -0.033317905 -0.06172114 0.017826885 -0.13075173
000230 fc 90 f4 3c 34 dc c3 3d 8f 3b cb 3d 74 87 6b bb
       0.02985429 0.09563485 0.09923469 -0.003593889
000240 24 6d ab bd 9e 9a dc bc c8 9d 4b 3e 53 a8 91 3d
       -0.08370426 -0.026929196 0.19884408 0.071121834
000250 ca 69 29 3d c7 dd 8d bc 1e 42 15 bd cf c6 c1 bd
       0.041360654 -0.017317666 -0.036440007 -0.09461748
000260 df ce 7d bc e8 39 41 3c 4a 57 8d 3d fc 5e a7 38
       -0.015491216 0.011793591 0.06901415 7.980873e-05
000270 bc 84 b1 bc ad 88 11 3d f8 c1 a8 3c 1c a7 1c bd
       -0.021669738 0.035530735 0.020600304 -0.038245305
000280 1b b7 21 3d 5d 56 b4 3c 90 8e a4 3c 2b 11 af bc
       0.039481264 0.022013837 0.02008751 -0.021370491
000290 71 2e 03 3d af 5f 26 bc f2 ed 3e bd 81 81 91 bc
       0.03202671 -0.010154649 -0.04661364 -0.017761948
0002a0 0f 4c ab bc 4a e9 d2 bc 76 89 cf bd 38 2d ab 3c
       -0.020910291 -0.025746007 -0.101336405 0.020895585
0002b0 ae 56 cc bd c4 cb 87 bd b4 1c d0 bc 30 43 c7 3c
       -0.0997747 -0.06630662 -0.025404312 0.02432403
0002c0 4f f6 9b bb 98 6e dc bc 80 c4 0b be 1f 09 dc bc
       -0.004759587 -0.026908204 -0.13649178 -0.026859818
0002d0 2a 1e 14 3d 66 3f c8 bb 05 a2 82 bd 0d 98 15 bd
       0.03616158 -0.0061110733 -0.06378559 -0.03652196
0002e0 4a 3b 37 3c 5f ce d1 bd 68 5b aa 3c ea a5 2a 3d
       0.011183569 -0.1024444 0.020795539 0.041662134
0002f0 27 cf b3 bd 25 a9 b1 3b 03 de 36 bd 8d cf 80 bc
       -0.087797455 0.005421775 -0.04464532 -0.015723968
000300 30 12 b8 b8 00 6f 09 bc 9f 24 0f 3d dc 2f 86 3a
       -8.7771914e-05 -0.008388281 0.034947034 0.0010237652
000310 9b 66 48 bd 73 1e 02 bd 03 bc ec bc 88 e0 48 3d
       -0.048925977 -0.03176732 -0.028898245 0.049042255
000320 65 36 b8 bb bd 19 69 bc ea c7 c3 bd e9 cd fa bd
       -0.0056217187 -0.014227328 -0.09559615 -0.122463055
000330 bc 99 51 bd dc a2 01 bd 41 c5 1e bd de af b0 bc
       -0.051172003 -0.031649455 -0.038762335 -0.021568235
000340 91 83 60 bc c4 72 13 3d b3 41 80 3c 7c 16 96 3d
       -0.013703243 0.03599812 0.015656328 0.07328507
000350 c2 2a 07 bd e7 a2 6b 3d a6 53 20 bd 09 88 06 bd
       -0.03299976 0.057528403 -0.039142273 -0.032844577
000360 e7 42 52 3d 59 3e 3f bd d1 34 8d bb f6 73 44 bd
       0.051333334 -0.04669032 -0.0043092747 -0.04796215
000370 bb cc 46 3d 4e 83 0a 3d d6 61 50 bc f9 c3 99 39
       0.04853509 0.03381663 -0.012718638 0.00029328445
000380 89 c2 a3 ba c2 aa 33 3c c8 82 c9 bd 57 4e 8d bd
       -0.0012493889 0.010966005 -0.09839398 -0.06899708
000390 9d be 20 bd a3 5d 90 3c 75 fe 57 bc fb ee 85 bd
       -0.039244283 0.017622774 -0.013183226 -0.065397225
0003a0 0e 59 4f bd 7d 56 59 bd b7 2c 76 3b 45 05 24 bb
       -0.05062204 -0.053060997 0.0037563273 -0.0025027555
0003b0 54 25 29 3d ad ba fb 3b 4f 93 01 3d 02 a4 8d bb
       0.041295364 0.0076821656 0.031634625 -0.00432253
0003c0 6e 43 59 bc 32 31 43 3d 60 b7 d0 bd 9b a0 28 3d
       -0.013260705 0.04765434 -0.10191226 0.04116879
0003d0 a6 79 43 3b 9b 00 84 bc b7 02 0c bd c3 6a b6 3d
       0.0029827147 -0.01611357 -0.034182277 0.08907082
0003e0 13 c2 41 be 33 b6 ad 3d fc 08 40 3d 5a 08 92 ba
       -0.1892169 0.08482017 0.04688357 -0.0011141405
0003f0 25 af 9d 3c 4e dc cd 3c 65 07 86 bd 79 89 e4 3c
       0.019248554 0.025129464 -0.06544379 0.027897583

sequential_1/dense_1/MatMul f4 [320, 42]
000000 8e 62 6a bd 92 00 c7 3d 99 60 c2 bd b7 d2 36 3c
       -0.057222895 0.09716906 -0.09491081 0.011158637
000010 29 9e 12 be e0 53 4f bd 36 3f 28 bc 0c 85 2a 3e
       -0.14318146 -0.0506171 -0.010268977 0.16652316
000020 03 1e 1d 3d 08 5f a0 3d 1b c5 ed 3d 10 1b 6f 3b
       0.0383587 0.07830626 0.116098605 0.0036484636
000030 dc 86 57 bd 05 56 be bd 01 ea 17 3e a1 5c 42 bd
       -0.052618846 -0.09293751 0.14835359 -0.04745162
000040 ac 52 2e 3d 8a c8 19 be 84 cb 51 3d d3 a3 73 3d
       0.04255931 -0.15017906 0.05121948 0.059482407
000050 ad 07 06 be dd 66 86 bb 74 c9 71 bd 92 98 31 bd
       -0.13088866 -0.0041016177 -0.05903001 -0.043358393
000060 bd 3c 77 3d ed 25 52 3e 67 81 a9 bd 54 14 91 bc
       0.06036066 0.2052228 -0.08276635 -0.017709889
000070 ee d6 9b bd f0 16 42 3b e3 55 7e bc 85 32 ef bc
       -0.07609354 0.0029615723 -0.015523407 -0.029198894
000080 7b c0 d8 3d 0d f1 a4 bb 8d 9e cf bc 6a 51 8a 3c
       0.10583588 -0.0050336183 -0.025344158 0.016884524
000090 0b d5 50 bc b4 ed d1 3d 21 9e 2f 3d a2 b4 2b bc
       -0.012746106 0.102504164 0.042875413 -0.010480078
0000a0 fb a2 05 be cc 3a 22 3c 2b ee 27 3d f1 ac 36 bd
       -0.13050453 0.009901714 0.04099862 -0.044598524
0000b0 5d 95 7b 3d fb 42 a6 3d 45 4e be 3d 31 b3 88 bd
       0.06142174 0.08118244 0.092922725 -0.06674803
0000c0 c6 55 ee 3b 11 09 1b be 18 98 56 bd 60 4e b5 bd
       0.0072734086 -0.15140177 -0.05239114 -0.088528395
0000d0 2d 7c 92 bb 11 ff 16 be 97 9d b3 3d 0a 56 d8 3d
       -0.0044703693 -0.14745738 0.08770292 0.10563286
0000e0 19 6c fc 3c 05 3a 96 bc 04 80 7f 3d 0e ec 85 3d
       0.030813264 -0.018338213 0.062377945 0.065391645
0000f0 d5 2a ec bc 61 ed a6 bd 39 c9 f0 bd 2a 45 8d 3d
       -0.028829018 -0.08150745 -0.1175713 0.068979576
000100 6a ff 89 bd fa fa 27 bc 90 2d 56 3c 97 77 11 3d
       -0.067381695 -0.010252709 0.013072386 0.03551444
000110 9d fd b6 3d 02 11 5c bd d7 69 77 3c 32 a0 1f 3e
       0.08935092 -0.053727157 0.015100918 0.15588453
000120 e7 00 78 bd d7 ef dc 3d 9f 16 80 3d 5d ab 86 3d
       -0.060547736 0.10787933 0.06254315 0.06575654
000130 2d 3e fe bd 4c 6d 60 3c 9c b0 88 3d 15 21 bc 3d
       -0.12414203 0.013697933 0.066743106 0.091859974
000140 83 b5 22 bd f3 a2 e4 3b 64 a7 b8 bd 25 49 85 bc
       -0.039723884 0.006977433 -0.09016302 -0.01627023
000150 da 4c 83 3d 32 1d d6 3a 98 3c b0 bc e4 ae 4a 3d
       0.06411143 0.0016335605 -0.021513268 0.049483195
000160 2f 17 8b bc 64 de c3 bd 52 0f b8 bd ca 05 28 3d
       -0.016978828 -0.09563902 -0.08987297 0.041021146
000170 74 82 c5 3d 13 de c7 3d 97 52 d9 3c 15 a0 ab bd
       0.096440226 0.09759154 0.02652864 -0.083801426
000180 ba 37 ec bd 9c 25 72 bd b7 e8 a7 3c d6 ed 53 bd
       -0.115340665 -0.0591179 0.02049671 -0.05174049
000190 24 c2 34 3d 0a 67 23 3e e1 56 45 bc 6f 92 0a 3c
       0.04413046 0.15957275 -0.012044639 0.008457764
0001a0 0f cc b1 bd e7 cd 51 3d e3 83 70 3d 70 ca 49 3d
       -0.08681499 0.051221754 0.058719527 0.049265325
0001b0 d9 40 89 3d f9 d0 eb bd 22 12 77 3d 41 69 66 3d
       0.06701822 -0.11514468 0.060320027 0.05625272
0001c0 ab fd a2 bd e6 72 29 3d 11 83 38 3d db 74 62 3d
       -0.079585396 0.04136934 0.04504687 0.055287223
0001d0 11 58 fe bd 55 f2 c1 3d f5 31 e6 bd 8e ba 73 ba
       -0.12419141 0.09470049 -0.11239997 -0.0009297513
0001e0 52 87 1b be 9c 36 88 3d e4 3a 67 3d ac 09 96 bc
       -0.1518834 0.06651041 0.056452647 -0.018315159
0001f0 e3 7b dc 3d a1 01 8b 3d 9e 5d db 3b 94 e8 b5 3c
       0.10765817 0.0678742 0.0066945096 0.022205628
000200 fd a7 1e 3d f0 1b 39 bd d2 6c 31 bd 75 17 10 be
       0.038734425 -0.04519266 -0.04331667 -0.14071448
000210 fc e1 92 3d cf b7 3a 3e 75 1a 7c 3e 14 79 ac 3c
       0.07172009 0.1823418 0.24619468 0.021053828
000220 9e 5f 0c be 26 80 a8 bc ba 23 26 3b 73 9a ca bd
       -0.1370835 -0.020568918 0.0025350885 -0.0989274
000230 32 11 93 3d 22 6c d4 3b f3 c3 9c bd 29 06 88 3d
       0.07181014 0.006482617 -0.07654562 0.066418
000240 1d 0d 85 bd 99 ae 91 bd a9 dd 9c 3d da d7 9c bc
       -0.06496642 -0.0711338 0.07659466 -0.019145895
000250 00 32 bb bd 8a 22 56 bd e8 09 6d 3b 6e db db 3c
       -0.09140396 -0.052279033 0.0036169235 0.02683803
000260 1e be 8a bd e7 d6 14 3d 62 07 83 bc 9c cd f3 bc
       -0.06774543 0.03633776 -0.015994731 -0.029761128
000270 08 f9 9a 3c dc c6 85 3d ed 69 17 bd 7f 6e 08 3c
       0.018917575 0.0653207 -0.036966253 0.008327126
000280 00 a2 bb 3d d3 73 cf bd 78 ca 9c bd 86 ba c3 3d
       0.091617584 -0.101295136 -0.07655805 0.09557061
000290 30 8a 0d 3d 79 e1 9a 3c f2 c7 db 3b 06 55 de 3d
       0.034555614 0.018906342 0.006707185 0.10856061
0002a0 d6 98 46 3d 9b a2 a4 3d 62 42 0e 3e f6 d0 cc 3c
       0.0484856 0.08038827 0.1389251 0.025001984
0002b0 80 1d 77 bd c8 83 f4 3c d9 4b 91 bd 33 4f df bc
       -0.060330868 0.029847994 -0.07094545 -0.027259445
0002c0 19 53 34 bd 57 e4 bf 3d f1 a9 a0 3c 04 61 b6 bc
       -0.04402456 0.09369724 0.019612284 -0.022263058
0002d0 db 31 c0 bd 97 4d 0f be 88 96 b5 3d 2a 00 fb 3d
       -0.09384509 -0.13994442 0.08866602 0.12255891
0002e0 12 53 80 bd 0d fd 10 be 72 eb e7 bd d9 5a 81 3d
       -0.062658444 -0.14159031 -0.113242045 0.06316156
0002f0 84 13 14 3e 84 08 a3 3c 20 4c aa bc 65 1e 52 bd
       0.1446057 0.019901522 -0.020788252 -0.051298518
000300 9f ec 3e bd 9f 62 81 3a 4a e6 10 3e 19 da 0a bd
       -0.04661238 0.000987131 0.14150348 -0.0338994
000310 d7 7d f7 3d f2 94 3d bd ef 43 00 3e db 49 d8 bd
       0.12084549 -0.046284623 0.12525915 -0.10560962
000320 67 54 c1 bc 08 08 c1 bc ab cd ff 3c 79 12 53 bd
       -0.023599816 -0.0235634 0.031226 -0.05153129
000330 95 fb c0 bd 3e c2 e1 bc 9c 01 b9 bd a8 c7 84 3c
       -0.094229855 -0.027558442 -0.0903351 0.016208485
000340 38 22 a9 3d d8 fa bd 3d 87 17 1a bd b9 58 eb bd
       0.0825848 0.0927636 -0.037620094 -0.11491532
000350 b2 65 d0 3d dd 61 a8 bd 20 3c 1a 3d 1a c7 94 3d
       0.10175647 -0.08221791 0.037654996 0.07264538
000360 d1 fa d9 3d 67 da f4 bd 0d b0 1d 3d 6c 98 99 3d
       0.106435426 -0.119557194 0.038497973 0.07499775
000370 57 b6 ae bc f1 46 0f bd a1 b1 e1 3c 0b 48 27 3d
       -0.02132718 -0.034979764 0.02755052 0.04084019
000380 45 54 9e bd 3c 1a b9 bd c3 f7 a7 bd 3e fd a7 bd
       -0.07730917 -0.09038207 -0.08201554 -0.08202599
000390 ed a6 a1 bc c1 2f 1d 3e e4 26 ed 3d 8e d3 1a be
       -0.019732917 0.15350248 0.115796834 -0.15119764
0003a0 2f 6c 80 bd 91 e0 38 3a bb 68 0a 3e 92 bc cf bd
       -0.062706344 0.0007052506 0.13516514 -0.10143389
0003b0 f5 ea 86 bc f3 75 44 bd f2 80 b5 3c dc 91 0e 3d
       -0.016469458 -0.047964048 0.022156212 0.03480707
0003c0 f1 24 5c bb 82 49 c7 bd a6 80 d9 bc 22 9f d8 bd
       -0.0033591355 -0.097308174 -0.026550602 -0.10577227
0003d0 55 fd eb 3d 1a 4e 4f 3d 0a d3 5e 3d 57 18 93 bd
       0.115229286 0.050611593 0.05440048 -0.07182377
0003e0 2f ec c0 3d b1 32 87 3d c8 9c c9 3d e7 1a 9b bd
       0.094200484 0.066014655 0.09844357 -0.075734906
0003f0 14 1f ac bc 3a 17 0d be 2e 11 4d 3c a4 90 0a bb
       -0.021010913 -0.13778391 0.012516303 -0.0021143341
