assets/models/asl_landmark_model.tflite (tflite, 815284 bytes, 14 tensors)

arith.constant f4 [28, 256]
0.07348616 0.0019913528 0.083391644 -0.07189506 0.018997857 0.07792734 -0.07642235 -0.038617663
0.048469793 0.021061294 0.029358556 0.072166026 -0.02254461 0.009809673 0.040929936 -0.04845287
0.007630222 0.06449002 -0.07310856 -0.09568333 0.0106630605 0.053575832 -0.025200123 -0.044768788
0.08033382 -0.031797033 0.067063786 -0.029711029 -0.00779768 0.008703806 0.018411266 0.05521018
0.028818853 -0.031400964 -0.072881855 0.015285624 -0.01312768 -0.0529758 0.03920262 -0.059938718
-0.006914149 -0.04067866 0.044169422 -0.038494915 0.022308279 0.061410364 -0.022867788 -0.048481695
-0.07319548 -0.07489735 0.012888915 0.00334307 -0.03701924 0.05486585 0.06468769 -0.06130332
-0.049251534 -0.007665875 0.038983278 -0.04916626 -0.021043975 0.047847703 -0.05555816 0.00293361
0.06726349 -0.0046944106 -0.06259569 0.035099465 -0.037735336 -0.03822668 0.035227593 0.016264262
0.049809664 -0.029265327 0.0071063633 0.03451821 -0.07349425 -0.03445415 -0.06214951 -0.03724036
-0.037870087 -0.017768601 0.03695346 -0.03004412 0.025307998 -0.03343858 -0.064170144 -0.03408734
-0.077816196 -0.013735029 -0.0020541567 0.004475996 -0.024803473 0.059647046 0.016081344 0.044180606
0.0053254347 -0.00034827206 0.050191395 -0.05207357 -0.08197213 -0.027680323 -0.0013406764 0.054483827
-0.056876358 -0.03270404 -0.06938957 0.01982859 -0.03253751 -0.017264893 -0.004619688 -0.03233547
-0.0029258602 -0.04826078 -0.066992335 0.015678752 0.033333603 -0.043997485 -0.05294564 0.07415095
-0.01461996 0.06863546 -0.08061939 0.060446776 -0.0071809464 0.006506442 0.03694351 -0.005820153
0.023711065 -0.039634652 0.05085281 0.07170398 0.04568814 -0.022010703 0.05173239 0.017658735
0.02510053 -0.04463358 -0.05251203 0.04204693 -0.022449441 -0.0655529 -0.049925417 0.048539303
-0.015805177 0.06752469 0.028995585 -0.024567178 -0.008299038 0.062108554 -0.020575471 -0.051135294
-0.087178364 -0.052194607 -0.004633923 0.057313487 0.023351435 -0.10947725 0.055813808 -0.06567063
-0.06758861 -0.017430078 0.006043882 -0.035584427 -0.027911061 0.0004704636 0.034221727 -0.02532656
0.018884039 0.005079622 -0.072600685 0.03489734 -0.020046273 -0.036270756 -0.064870685 0.053377952
-0.076804265 -0.0554799 -0.01133833 0.026955796 -0.0647752 -0.04414262 0.028772647 0.008851065
-0.026967129 0.04447974 -0.0644912 -0.012987298 -0.015564219 0.0061492394 0.017831704 -0.042653203
0.02594962 -0.004220369 0.019793672 0.046930883 0.057071704 -0.018459741 0.013280257 0.022894658
-0.011717274 0.033755332 -0.061052144 -0.057187002 0.03231422 0.07355041 0.06272337 0.00037207894
-0.07080848 0.020998726 -0.08573369 0.051367022 -0.023744132 -0.07216375 0.039239336 -0.046974104
-0.039144233 -0.045154333 -0.03606404 0.06977024 -0.01996078 0.07939892 -0.05771736 -0.030930292
-0.006434788 -0.05664443 0.004859538 0.036288444 -0.04316989 0.0041698846 -0.026818182 -0.06627514
-0.010680867 0.06401707 -0.0457059 0.042625356 -0.019169496 -0.012633104 0.05480726 -0.055643022
-0.01246146 -0.07659102 0.011882066 -0.031235287 -0.027777236 0.025669046 -0.037890486 0.02181723
-0.004354239 0.013692584 0.06079229 0.02262737 -0.044835877 -0.07090595 0.038359962 -0.06034617
00000000: e97f 963d 5b81 023b 3dc9 aa3d b83d 93bd
00000010: 65a1 9b3c 5f98 9f3d 5283 9cbd 8e2d 1ebd
00000020: 4388 463d bc88 ac3c 5b81 f03c c8cb 933d
00000030: 79af b8bc c0b8 203c 26a6 273d 8476 46bd
00000040: f106 fa3b 5813 843d f1b9 95bd 9ff5 c3bd
00000050: 1eb4 2e3c 5572 5b3d 7d70 cebc 7a5f 37bd
00000060: 0f86 a43d 9b3d 02bd bd58 893d 8b64 f3bc
00000070: ae83 ffbb 699a 0e3c 39d3 963c 1224 623d
00000080: 8415 ec3c 4c9e 00bd 1543 95bd 8e70 7a3c
00000090: 7b15 57bc 27fd 58bd ed92 203d 4d82 75bd
000000a0: 1690 e2bb ab9e 26bd ffea 343d d8ac 1dbd
000000b0: dabf b63c 6f89 7b3d 3a55 bbbc be94 46bd
000000c0: 83e7 95bd c863 99bd 072c 533c 6817 5b3b
000000d0: 7da1 17bd 03bb 603d fb7a 843d 3119 7bbd
000000e0: fabb 49bd 0532 fbbb eeac 1f3d 8f62 49bd
000000f0: 6a64 acbc f4fb 433d f490 63bd cf41 403b
00000100: 71c1 893d 92d3 99bb 2b32 80bd 75c4 0f3d
00000110: 5e90 1abd 9493 1cbd cf4a 103d a13c 853c
00000120: 3805 4c3d d7bd efbc 7fdc e83b f762 0d3d
00000130: 2784 96bd cb1f 0dbd 7c90 7ebd 5989 18bd
00000140: aa1d 1bbd 758f 91bc 835c 173d 161f f6bc
00000150: b852 cf3c e4f6 08bd a36b 83bd 2b9f 0bbd
00000160: 195e 9fbd e308 61bc 089f 06bb 60ab 923b
00000170: a730 cbbc 7650 743d 06bd 833c b9f6 343d
00000180: fc80 ae3b 4998 b6b9 7e95 4d3d 194b 55bd
00000190: 01e1 a7bd d8c1 e2bc a3b9 afba 6f2a 5f3d
000001a0: 2ff7 68bd acf4 05bd 1e1c 8ebd 916f a23c
000001b0: 0d46 05bd 1b6f 8dbc c060 97bb 3372 04bd
000001c0: cabf 3fbb 18ad 45bd 4733 89bd ba70 803c
000001d0: d188 083d b536 34bd 87dd 58bd 74dc 973d
000001e0: 8f88 6fbc c090 8c3d c71b a5bd 0a97 773d
000001f0: 254e ebbb fe33 d53b 1452 173d fbb6 bebb
00000200: b53d c23c f257 22bd 094b 503d 89d9 923d
00000210: 7d23 3b3d ca4f b4bc 58e5 533d 0da9 903c
00000220: a09f cd3c b3d1 36bd db16 57bd 6739 2c3d
00000230: e4e7 b7bc 9940 86bd 987e 4cbd 26d1 463d
00000240: dc79 81bc 624a 8a3d 2688 ed3c 1b41 c9bc
00000250: b0f8 07bc 8a65 7e3d e48d a8bc 3e73 51bd
00000260: 928a b2bd 03ca 55bd 2ad8 97bb 8cc1 6a3d
00000270: 824b bf3c 9c35 e0bd 059d 643d 537e 86bd
00000280: e66b 8abd 86c9 8ebc c20b c63b fac0 11bd
00000290: bda5 e4bc 8ea8 f639 152c 0c3d a579 cfbc
000002a0: b3b2 9a3c f572 a63b abaf 94bd 83f0 0e3d
000002b0: 1538 a4bc a590 14bd ecda 84bd d7a2 5a3d
000002c0: 8e4b 9dbd e43e 63bd 67c4 39bc 67d2 dc3c
000002d0: dca8 84bd e4ce 34bd 9db4 eb3c 0f04 113c
000002e0: 2bea dcbc 6330 363d f613 84bd adc8 54bc
000002f0: 1101 7fbc 8f7f c93b cb13 923c 20b5 2ebd
00000300: 4c94 d43c 054b 8abb 5726 a23c 993a 403d
00000310: 05c4 693d e238 97bc 6f95 593c 948d bb3c
00000320: cff9 3fbc 0843 0a3d d011 7abd eb3c 6abd
00000330: ea5b 043d 99a1 963d 1c75 803d 9713 c339
00000340: 0904 91bd 8505 ac3c 2595 afbd 3a66 523d
00000350: 0e83 c2bc 97ca 93bd 6db9 203d eb67 40bd
00000360: b455 20bd c0f3 38bd e3b7 13bd b3e3 8e3d
00000370: ca84 a3bc e79b a23d 0a69 6cbd 8661 fdbc
00000380: eada d2bb fd03 68bd c23c 9f3b 31a3 143d
00000390: e9d2 30bd 87a3 883b ceb1 dbbc 43bb 87bd
000003a0: cefe 2ebc 621b 833d 1c36 3bbd ed97 2e3d
000003b0: 5909 9dbc 14fb 4ebc 947d 603d f0e9 63bd
000003c0: 272b 4cbc c1db 9cbd ffac 423c 25e1 ffbc
000003d0: 168d e3bc e447 d23c 0e33 1bbd 0cba b23c
000003e0: 01ae 8ebb dc56 603c 5601 793d 095d b93c
000003f0: d3a5 37bd 2437 91bd 561f 1d3d 8c2d 77bd

arith.constant1 f4 [28]
1.3973045 0.18672149 0.06310221 1.3322617 0.8183408 -0.5888605 -0.35812342 0.8383236
0.21455008 1.4098079 1.0990806 -0.045784224 1.8303545 1.506329 1.4706241 -0.39370343
0.043580413 0.897154 2.6774461 0.32435513 1.600234 1.6008387 -0.033301026 2.2331808
0.0702905 1.6609147 -0.2530587 1.1806331
00000000: e0da b23f eb33 3f3e bb3b 813d 8d87 aa3f
00000010: c87e 513f 90bf 16bf f45b b7be 609c 563f
00000020: 04b3 5b3e 9674 b43f acae 8c3f 3d88 3bbd
00000030: 0e49 ea3f 64cf c03f 693d bc3f 7f93 c9be
00000040: 6081 323d e2ab 653f 475b 2b40 e011 a63e
00000050: 78d4 cc3f 48e8 cc3f a866 08bd 6fec 0e40
00000060: 77f4 8f3d da98 d43f e990 81be fc1e 973f

arith.constant2 f4 [256, 448]
0.056426488 -0.07077237 0.005062623 0.051251274 0.053645834 -0.06253043 -0.047144625 -0.024410222
-0.021758858 -0.007054516 0.027914794 -0.02197851 0.004083611 0.051041026 -0.039550494 0.026992198
0.031739507 -0.035101797 -0.06339681 -0.051466577 0.0029895483 -0.039477684 -0.010742075 0.02045012
0.09208864 -0.071386024 -0.015993565 0.016507708 -0.055326942 -0.07292427 -0.06417862 -0.039626177
-0.055505596 0.008766531 -0.042534646 0.0040668887 -0.081208356 -0.0054452214 -0.041937474 0.030305091
-0.052830473 0.03299344 0.030435227 0.04456267 -0.057284493 -0.078034624 0.018553108 -0.02353071
-0.03957754 -0.057864055 -0.04938622 -0.026962653 0.02657673 0.041785892 0.077550285 -0.009150837
-0.0005608251 -0.016164262 -0.056858193 0.043709297 -0.032145284 -0.06839008 0.030901827 -0.017061614
0.016724113 0.009862531 -0.0009301428 0.0749255 0.031461295 -0.021775736 -0.04325383 -0.06935708
0.0011306343 -0.03583381 0.0045383293 0.030222747 0.098138414 -0.018105378 -0.06942501 -0.019783175
-0.039326403 -0.010553507 0.039340407 -0.09168457 0.0075628683 -0.07244051 0.031024951 0.06591709
-0.04469202 -0.05334088 0.039674375 0.04223365 -0.03024673 0.05178077 0.029709734 0.03749754
0.0284402 0.06569205 0.015375387 -0.044079274 -0.061600525 0.037514545 -0.04710179 -0.0021556444
0.0023028757 -0.011419704 -0.017255612 0.015429586 0.074727096 0.0204011 0.058210332 0.0071632266
-0.06193348 0.021625761 -0.08087629 0.048571564 0.043232705 -0.0021988107 0.026105005 -0.051892396
-0.015229059 0.010603336 -0.037337117 -0.07428035 -0.022653816 -0.06475878 -0.06753547 0.07088469
-0.08015043 -0.047959097 0.017331451 0.035819136 0.07034329 -0.011054214 0.010728592 -0.0035988358
0.026203582 -0.065749854 0.008857749 0.04537068 -0.04800443 -0.06503468 -0.06147848 -0.015937408
0.002752089 -0.057724956 -0.06456631 -0.017195977 0.03370837 0.060372964 -0.0562254 -0.011612279
-0.009107309 -0.006409319 0.055642672 -0.031045334 0.00774415 0.047382228 -0.048494387 0.0497641
0.02622836 -0.051668245 0.025929483 -0.010759847 -0.034340963 0.006731966 -0.046261664 -0.034507673
-0.036508206 0.014231969 -0.085785605 0.08041348 0.00013700013 0.060249813 -0.03563428 -0.058679316
-0.058524046 -0.054952472 -0.009846861 -0.069770604 0.0540262 0.08496897 -0.027985623 -0.07927274
-0.02314996 -0.10115797 -0.08607942 -0.037028614 0.061064843 0.06311196 -0.019337123 0.010740525
0.028741213 -0.022534858 -0.0038958187 0.005238547 -0.028125623 -0.117115386 0.05267729 0.05172029
0.015876222 0.040655933 0.06082038 -0.010930917 0.0037841932 0.051498793 0.02863401 -0.039463505
-0.008711982 0.08258643 -0.03449128 -0.01357914 0.065707594 -0.081277914 -0.048579674 -0.03871075
0.027248189 -0.012251123 -0.022968287 0.011646843 -0.064711116 0.03889326 -0.035801962 0.023987688
-0.06805499 -0.063753106 0.024447037 0.0480383 0.079020604 0.0024730347 -0.0077140243 0.01006139
0.05111805 -0.05617527 -0.036440175 -0.03815753 -0.019401502 -0.03368697 -0.02455132 0.05010207
0.07519995 0.0767092 0.05438299 0.018381467 0.0532339 -0.052737627 0.02449371 -0.049076233
-0.013439076 0.0325032 -0.06272379 -0.03550192 -0.050281424 0.01489318 -0.11993402 0.054376002
00000000: 761f 673d 1bf1 90bd 5ce4 a53b dbec 513d
00000010: bcbb 5b3d f40f 80bd b91a 41bd f2f7 c7bc
00000020: a23f b2bc 9229 e7bb 91ad e43c 470c b4bc
00000030: d0cf 853b 6510 513d b3ff 21bd be1e dd3c
00000040: 4901 023d e7c6 0fbd 30d6 81bd 9ece 52bd
00000050: 4cec 433b 5ab3 21bd 87ff 2fbc 0387 a73c
00000060: f898 bc3d d632 92bd f004 83bc 2c3b 873c
00000070: 819e 62bd 5259 95bd 1570 83bd 0f4f 22bd
00000080: d659 63bd 7fa1 0f3c cf38 2ebd 8943 853b
00000090: 9150 a6bd d46d b2bb a1c6 2bbd 6242 f83c
000000a0: c464 58bd 2124 073d 4c53 f93c 5987 363d
000000b0: 25a3 6abd 9ed0 9fbd b0fc 973c 7ac3 c0bc
000000c0: 0f1c 22bd dc02 6dbd 3449 4abd c8e0 dcbc
000000d0: 71b7 d93c af27 2b3d afd2 9e3d 64ed 15bc
000000e0: 5604 13ba ea6a 84bc 23e4 68bd 8508 333d
000000f0: c6aa 03bd 1910 8cbd d425 fd3c ccc4 8bbc
00000100: 0201 893c 7496 213c d4d4 73ba 8a72 993d
00000110: 8fdd 003d 0763 b2bc ee2a 31bd 160b 8ebd
00000120: cb31 943a 79c6 12bd 44b6 943b b295 f73c
00000130: cbfc c83d bb51 94bc b32e 8ebd 5310 a2bc
00000140: b914 21bd 9ee8 2cbc 6823 213d 1fc5 bbbd
00000150: f0d1 f73b b15b 94bd 0a28 fe3c 8aff 863d
00000160: fb0e 37bd f77b 5abd 9981 223d 31fd 2c3d
00000170: fec7 f7bc 1318 543d d461 f33c 0597 193d
00000180: 6cfb e83c 8e89 863d 0ce9 7b3c 788c 34bd
00000190: d550 7cbd daa8 193d ceed 40bd b645 0dbb
000001a0: d8eb 163b b619 3bbc a45b 8dbc 60cc 7c3c
000001b0: 850a 993d 3520 a73c f56d 6e3d 80b9 ea3b
000001c0: f6ad 7dbd 8228 b13c 78a2 a5bd faf2 463d
000001d0: c714 313d ec19 10bb 2ada d53c 1f8d 54bd
000001e0: 4e83 79bc 9db9 2d3c ceee 18bd 4c20 98bd
000001f0: 7f94 b9bc 40a0 84bd 0950 8abd fe2b 913d
00000200: e925 a4bd c270 44bd b0fa 8d3c 16b7 123d
00000210: 2510 903d bc1c 35bc fac6 2f3c 72da 6bbb
00000220: e5a8 d63c dca7 86bd 1820 113c 9bd6 393d
00000230: 4ba0 44bd e730 85bd dcd0 7bbd 2b8f 82bc
00000240: 645c 343b 0171 6cbd 573b 84bd 94de 8cbc
00000250: ca11 0a3d a449 773d 9b4c 66bd 6e41 3ebc
00000260: d336 15bc 4405 d2bb 92e9 633d c952 febc
00000270: a3c2 fd3b de13 423d 0da2 46bd 71d5 4b3d
00000280: dcdc d63c 15a2 53bd 116a d43c 124a 30bc
00000290: 1ca9 0cbd d397 dc3b df7c 3dbd eb57 0dbd
000002a0: a189 15bd 342d 693c 5db0 afbd d3af a43d
000002b0: b1a7 0f39 82c8 763d 40f5 11bd b959 70bd
000002c0: e9b6 6fbd d815 61bd ba54 21bc e4e3 8ebd
000002d0: 944a 5d3d 3604 ae3d 1b42 e5bc bf59 a2bd
000002e0: fca4 bdbc e92b cfbd 684a b0bd 51ab 17bd
000002f0: 211f 7a3d d840 813d e368 9ebc 07f9 2f3c
00000300: b172 eb3c 069b b8bc fe50 7fbb 1ea8 ab3b
00000310: b567 e6bc 31da efbd 24c4 573d a8d8 533d
00000320: da0e 823c d686 263d ca1e 793d 9717 33bc
00000330: 3a00 783b 66f0 523d df91 ea3c 7ca4 21bd
00000340: b3bc 0ebc 1323 a93d ba46 0dbd 0b7b 5ebc
00000350: b491 863d 0975 a6bd 7bfb 46bd 2a8f 1ebd
00000360: 9837 df3c efb8 48bc fd27 bcbc 66d2 3e3c
00000370: 4387 84bd 8a4e 1f3d 14a5 12bd d481 c43c
00000380: 6a60 8bbd fd90 82bd 2745 c83c cfc3 443d
00000390: 8ed5 a13d a312 223b edc5 fcbb 87d8 243c
000003a0: 2961 513d 0a18 66bd 4b42 15bd 124b 1cbd
000003b0: e6ef 9ebc 59fb 09bd da1f c9bc d437 4d3d
000003c0: 6e02 9a3d b719 9d3d b3c0 5e3d bb94 963c
000003d0: ca0b 5a3d 6903 58bd 08a7 c83c 2904 49bd
000003e0: 922f 5cbc 1322 053d 5575 80bd 766a 11bd
000003f0: e5f3 4dbd 8602 743c f89f f5bd 5fb9 5e3d

arith.constant3 f4 [256]
2.0912976 1.0760318 0.62330544 2.7847528 0.8692353 0.41917622 1.5921364 1.8174864
1.7170107 1.9149086 -0.07877605 1.9269366 1.6800783 -0.29427037 1.1355953 2.628294
2.1012723 0.5174337 2.925912 1.5421886 2.1817887 0.10952452 0.12269571 -1.0847079
1.97247 2.4540286 0.8297535 1.864734 0.6593425 0.8395476 1.4516492 1.7693316
2.073513 1.4174585 2.402588 1.342819 3.1415913 0.83656687 -0.4466375 1.5502405
0.52804375 2.5619214 3.0317483 2.2672782 2.287032 2.2947612 -0.20721512 2.6876602
2.040724 1.6748234 1.4908636 1.2532157 2.232507 1.5233238 2.944215 0.57996994
1.3152945 0.4348088 1.1649921 1.8374257 0.9412374 1.2580668 1.7790558 1.2121
1.4872966 0.82648826 2.1093209 0.9568408 -0.03861425 2.6741896 1.0984075 2.7142286
0.19626856 1.7151158 1.3055432 1.3850316 1.7504302 1.7024972 1.2646524 2.7170591
2.960846 2.617729 1.672294 1.8764672 0.78856796 1.5437663 0.34057793 1.321651
0.49030417 2.011878 1.4192512 1.950853 0.63857245 1.2022275 2.236094 0.6442127
2.3188748 3.1171935 1.7792786 0.63994104 0.33715194 -0.052885696 1.6893749 0.5807399
1.1401799 -0.23816451 1.063666 2.4159775 2.719784 1.3129234 1.7848469 0.927515
1.9955652 0.46550956 3.2537389 0.03823421 2.4530003 1.6969627 0.88319975 2.863097
1.219454 1.3025125 1.5310618 1.7470806 0.09706544 0.7493786 2.7760258 2.3300576
0.66901666 1.3053114 2.9578815 1.5492905 1.503676 0.8993956 2.8900223 2.6692178
2.6359532 0.71664196 2.1020777 0.8772098 1.9839038 2.5388007 0.04435175 0.662694
-0.58429426 2.9074419 2.5897045 2.2445774 0.23100892 1.2481848 0.20330676 0.7530608
0.982343 0.10664592 2.4409966 1.6177909 1.4611533 1.9215275 1.6050236 0.039040197
2.1026983 1.2120447 2.0990336 1.9622914 -0.67199624 1.539721 1.7897282 1.2272828
-0.12201854 2.9383717 1.7560352 0.67645615 2.1534622 1.6073813 1.3091607 1.5657485
3.5303795 0.14350864 2.0759804 2.452274 1.5614896 2.0728402 1.6604006 2.6496618
1.6637387 0.3708245 -0.4779581 0.7276722 -1.194028 0.9580743 0.6778622 2.3095758
1.3346868 0.49030665 1.3686514 2.1249952 2.978777 0.4878268 0.45919913 -0.70239687
0.88648206 1.2570131 0.4085359 2.6418684 1.7805754 1.8647248 1.9386125 0.034132127
0.22956914 0.45685568 1.6778123 1.720234 1.222091 1.3697789 1.5047756 -0.8991422
1.7985646 2.3152087 1.7130349 -0.774962 0.093763866 1.7981797 1.2107527 0.70003486
0.7115613 -0.2621331 1.1481634 1.4404925 2.798009 2.9259472 1.0927601 2.6893222
1.7651513 1.8017417 2.2820232 0.6874703 1.2660042 2.4211318 1.4584162 2.473921
1.0640452 1.4476513 1.9786891 0.25429463 1.555818 2.1471934 1.6216068 1.6883134
1.457518 0.5051104 1.9932914 0.6084858 0.7394129 0.7433269 0.92507255 2.0896919
00000000: d2d7 0540 69bb 893f f290 1f3f 6439 3240
00000010: 3486 5e3f 449e d63e 20cb cb3f 65a3 e83f
00000020: 02c7 db3f ba1b f53f 5655 a1bd dca5 f63f
00000030: ce0c d73f 9baa 96be 305b 913f f835 2840
00000040: 3f7b 0640 8976 043f 2442 3b40 7066 c53f
00000050: 6da2 0b40 644e e03d e347 fb3d b5d7 8abf
00000060: e679 fc3f ce0e 1d40 ba6a 543f 9baf ee3f
00000070: acca 283f 97ec 563f a4cf b93f 7579 e23f
00000080: 70b4 0440 486f b53f 00c4 1940 7ee1 ab3f
00000090: d50f 4940 3f29 563f acad e4be 486e c63f
000000a0: e02d 073f 85f6 2340 2a08 4240 161b 1140
000000b0: bb5e 1240 5edd 1240 3330 54be a002 2c40
000000c0: 399b 0240 9d60 d63f 9ed4 be3f 5f69 a03f
000000d0: 65e1 0e40 46fc c23f 056e 3c40 e978 143f
000000e0: 925b a83f 429f de3e 761e 953f c430 eb3f
000000f0: eff4 703f 5508 a13f 1ab8 e33f 1826 9b3f
00000100: bc5f be3f bc94 533f 1dff 0640 85f3 743f
00000110: fa29 1ebd ec25 2b40 9e98 8c3f ecb5 2d40
00000120: a0fa 483e ea88 db3f 0a1c a73f b748 b13f
00000130: 190e e03f 6eeb d93f 21e0 a13f 4ce4 2d40
00000140: 807e 3d40 df88 2740 bb0d d63f 1430 f03f
00000150: 97df 493f 229a c53f 3b60 ae3e dc2b a93f
00000160: 2609 fb3e 9cc2 0040 06aa b53f 8db5 f93f
00000170: 7c79 233f 97e2 993f 2a1c 0f40 20eb 243f
00000180: 7268 1440 1980 4740 67bf e33f 2dd3 233f
00000190: 2e9f ac3e ac9e 58bd 703d d83f 5fab 143f
000001a0: 6af1 913f 66e1 73be 3526 883f 609f 1a40
000001b0: f110 2e40 e00d a83f dd75 e43f 9f71 6d3f
000001c0: ae6e ff3f 4557 ee3e 423d 5040 7a9b 1c3d
000001d0: f5fd 1c40 1336 d93f 6119 623f fb3c 3740
000001e0: 1217 9c3f bbb8 a63f d5f9 c33f 56a0 df3f
000001f0: 3fca c63d 47d7 3f3f 68aa 3140 aa1f 1540
00000200: ad44 2b3f 7214 a73f ee4d 3d40 274f c63f
00000210: 7578 c03f ca3e 663f 20f6 3840 77d4 2a40
00000220: 75b3 2840 d975 373f 7188 0640 d290 603f
00000230: 8ff0 fd3f b67b 2240 2eaa 353d 50a6 293f
00000240: 4f94 15bf 8713 3a40 b8bd 2540 28a7 0f40
00000250: 9a8d 6c3e 85c4 9f3f a62f 503e 98c8 403f
00000260: d57a 7b3f 2d69 da3d 4a39 1c40 c613 cf3f
00000270: 1207 bb3f 9df4 f53f 6a71 cd3f 9de8 1f3d
00000280: 9c92 0640 4824 9b3f 9156 0640 5d2c fb3f
00000290: f207 2cbf 9415 c53f d015 e53f 9a17 9d3f
000002a0: dbe4 f9bd 480e 3c40 c3c5 e03f 3b2c 2d3f
000002b0: 53d2 0940 acbe cd3f 9492 a73f 726a c83f
000002c0: bdf1 6140 eef3 123e dddc 0440 0ff2 1c40
000002d0: e4de c73f 6aa9 0440 0288 d43f 0f94 2940
000002e0: 64f5 d43f b5dc bd3e edb6 f4be ba48 3a3f
000002f0: e9d5 98bf 5b44 753f 6188 2d3f 17d0 1340
00000300: 04d7 aa3f 7909 fb3e f82f af3f ecff 0740
00000310: 48a4 3e40 6fc4 f93e 261c eb3e 48d0 33bf
00000320: 7df0 623f cee5 a03f 9e2b d13e 5f14 2940
00000330: e5e9 e33f 4daf ee3f 7424 f83f 21ce 0b3d
00000340: 2c14 6b3e fde8 e93e 8ec2 d63f a130 dc3f
00000350: 7a6d 9c3f ea54 af3f 7d9c c03f 2f2e 66bf
00000360: 5d37 e63f 612c 1440 ba44 db3f e963 46bf
00000370: 4507 c03d c12a e63f f2f9 9a3f 7c35 333f
00000380: e228 363f 4f36 86be 05f7 923f 0f62 b83f
00000390: 9412 3340 b842 3b40 90df 8b3f db1d 2c40
000003a0: 7af0 e13f 799f e63f ab0c 1240 0efe 2f3f
000003b0: 6d0c a23f d3f3 1a40 62ad ba3f b954 1e40
000003c0: a232 883f a34c b93f af45 fd3f e832 823e
000003d0: 0b25 c73f 9e6b 0940 d090 cf3f a71a d83f
000003e0: f38f ba3f ea4e 013f 2c24 ff3f bac5 1b3f
000003f0: 2a4a 3d3f ac4a 3e3f 8ed1 6c3f 83bd 0540

arith.constant4 f4 [128, 128]
0.27327514 0.027865643 -0.3137192 0.29785255 0.1969156 -0.1863755 -0.34488586 -0.3208665
0.17394559 -0.1072199 0.57889086 -0.29552802 -0.71118194 0.7865589 -0.27513313 -0.043743275
-0.057794083 -0.47559643 -0.64717245 0.3578709 0.01988425 0.58091575 -0.073940404 0.3925278
0.27295712 0.65667653 0.16482478 0.047411017 -0.38447613 0.26838946 -0.19320476 0.5490335
-0.88189065 -0.22251557 -0.57298046 0.02813885 0.16779721 0.43797693 0.2936157 -0.2369191
-0.06493516 -0.17708853 -0.26325473 0.44649297 0.13861315 -0.13552386 -0.19899806 -0.008118431
-0.10876441 0.32278872 -0.12927584 0.6381217 -0.21043332 -0.38189906 0.51081556 -0.38289672
0.48131558 -0.23422433 0.05692878 0.62360597 -0.7934935 0.49445632 -0.5702514 0.11134055
1.5290343 -0.37986276 0.5908334 -0.29896653 1.0096154 -0.6462121 -0.16929449 -0.0057377378
-0.32126716 -0.21657002 0.059997525 -0.031823475 1.1609542 0.2555963 -0.30102754 -0.4166762
0.64153314 0.087896705 -0.01478968 0.049233645 0.16116531 -0.3745064 -0.3298008 0.5138076
-0.26972634 0.04389768 0.46154365 0.25311038 0.58585215 0.7451524 -0.5244663 -0.28384477
-0.7325639 -0.26459244 0.08302906 0.6332125 0.29972994 0.3422345 0.030514564 1.1502739
0.40593466 -0.18790938 0.43180272 -0.3843718 -0.028718079 -0.540898 -0.45628652 0.36235726
-0.1623216 0.4030042 0.39890125 0.039821338 -0.527792 0.57395035 0.5011443 -0.4924044
-0.31435922 -0.35517514 -0.19508624 0.32922748 -0.3323533 -0.9707038 -0.49576536 0.38780698
0.9192072 0.65627813 0.7979717 0.6825696 0.15569541 -0.36098704 0.3109214 -0.111509815
-0.26922506 0.1426861 -0.08757061 0.28628236 0.110672705 -0.30105534 -0.16288711 0.03668932
0.7731366 -0.2861962 -0.41998214 0.690308 0.48919633 0.4339024 0.047862463 -0.028672928
-0.4013653 0.123569146 -0.35060066 0.09174886 0.008083405 0.624485 0.4410403 0.21864761
-0.83985317 -0.4831984 0.45041847 0.061456144 0.062620394 -0.13939378 0.17018421 -0.009316997
0.6895 -0.28834325 -0.60381365 0.5056264 0.29882848 -0.48437908 0.12801844 -0.120271794
-0.32541555 0.3069498 -0.02390663 -0.26040098 -0.30485845 0.21169484 -1.1403462 -0.011885906
-0.13914509 0.03977265 0.026477735 -0.7903207 -0.4620296 -0.2047691 -0.627977 0.5178005
-0.42123035 -0.020900333 -0.5257372 -0.20970136 0.24562427 -0.2970392 -0.19159378 -0.18429331
0.50559664 0.5052929 -0.28529543 -0.07430861 1.1057646 -0.6489999 0.15383443 -0.9674809
0.084952 -0.4087821 0.18517299 -0.5556582 0.6767746 -0.6499779 0.28927466 -0.5422544
0.5947876 0.76267546 -1.1813465 0.2770826 -1.0103348 -0.86262447 0.4074404 0.44034153
0.048272863 0.58187926 -0.534579 -1.0302237 0.19418836 -0.75737983 0.6698142 0.31639087
-0.31685787 -0.7773933 0.038636375 -0.11318794 -0.09790682 0.35900688 -0.79656976 -0.11041501
-0.36558682 -0.7407904 -0.5006185 -0.6083603 -1.1103616 -0.076159135 -0.14717183 -0.76273334
-0.63036245 0.3951201 0.2354664 -0.23111959 0.036199786 -0.7025285 0.24847232 -0.14576562
00000000: b8ea 8b3e 7d46 e43c ce9f a0be 2180 983e
00000010: 3ea4 493e 38d9 3ebe e194 b0be 9d48 a4be
00000020: cb1e 323e 1b96 dbbd 3132 143f 734f 97be
00000030: 0510 36bf ed5b 493f 40de 8cbe 262c 33bd
00000040: 7db9 6cbd 6081 f3be 18ad 25bf db3a b73e
00000050: 4be4 a23c e5b6 143f 116e 97bd 67f9 c83e
00000060: 09c1 8b3e f41b 283f d4c7 283e 0e32 423d
00000070: 0eda c4be 586a 893e 78d7 45be 768d 0c3f
00000080: 96c3 61bf 1fdb 63be d9ae 12bf 7283 e63c
00000090: 08d3 2b3e 833e e03e cc54 963e ec9a 72be
000000a0: bafc 84bd b256 35be 53c9 86be ba9a e43e
000000b0: 9bf0 0d3e c4c6 0abe 26c6 4bbe 2b03 05bc
000000c0: e0bf debd 9044 a53e e360 04be f25b 233f
000000d0: d57b 57be 4688 c3be cfc4 023f 0a0b c4be
000000e0: ff6e f63e 81d8 6fbe 272e 693d a4a4 1f3f
000000f0: 6422 4bbf 6129 fd3e fffb 11bf 8406 e43d
00000100: 65b7 c33f 5f7d c2be dc40 173f 2412 99be
00000110: 143b 813f 286e 25bf 895b 2dbe a203 bcbb
00000120: 217d a4be 88c4 5dbe f7bf 753d 5559 02bd
00000130: 269a 943f 85dd 823e 4820 9abe 9556 d5be
00000140: 843b 243f 3003 b43d 6a50 72bc 38a9 493d
00000150: 8508 253e 4ebf bfbe a7db a8be e588 033f
00000160: 9219 8abe 0ece 333d 734f ec3e af97 813e
00000170: 68fa 153f 4fc2 3e3f 6c43 06bf 1a54 91be
00000180: 4f89 3bbf a978 87be 240b aa3d 371a 223f
00000190: 3476 993e 5c39 af3e aef9 f93c 2d3c 933f
000001a0: abd6 cf3e 516b 40be 3f15 dd3e 61cc c4be
000001b0: 2d42 ebbc 4b78 0abf 639e e9be e486 b93e
000001c0: a237 26be 9156 ce3e c93c cc3e b31b 233d
000001d0: 601d 07bf 69ee 123f fe4a 003f 6e1c fcbe
000001e0: b1f3 a0be 84d9 b5be b0c4 47be 8190 a83e
000001f0: 362a aabe 0b80 78bf f5d4 fdbe a38e c63e
00000200: 2a51 6b3f d801 283f e047 4c3f e2bc 2e3f
00000210: 9e6e 1f3e 4bd3 b8be 1731 9f3e 425f e4bd
00000220: ded7 89be 4e1c 123e 3858 b3bd 9a93 923e
00000230: 5fa8 e23d ed23 9abe e1cb 26be 8a47 163d
00000240: 48ec 453f 4f88 92be e607 d7be 06b8 303f
00000250: f177 fa3e 7528 de3e 6e0b 443d 7de3 eabc
00000260: c17f cdbe d211 fd3d ee81 b3be d4e6 bb3d
00000270: 4270 043c 40de 1f3f 09d0 e13e 29e5 5f3e
00000280: 9e00 57bf c865 f7be 409d e63e 70b9 7b3d
00000290: 1f3f 803d 3ebd 0ebe c544 2e3e 51a6 18bc
000002a0: 1283 303f baa1 93be 8893 1abf bb70 013f
000002b0: 0c00 993e 8900 f8be 4417 033e 0f51 f6bd
000002c0: de9c a6be 8628 9d3e d6d7 c3bc 4753 85be
000002d0: 6816 9cbe 88c6 583e ddf6 91bf 1abd 42bc
000002e0: 0d7c 0ebe a5e8 223d d6e7 d83c 7552 4abf
000002f0: 258f ecbe feae 51be 1ac3 20bf 938e 043f
00000300: 81ab d7be 2d37 abbc b796 06bf f4bb 56be
00000310: ee84 7b3e 8615 98be 2931 44be 63b7 3cbe
00000320: c86e 013f e05a 013f 3e12 92be 1d2f 98bd
00000330: b289 8d3f dc24 26bf c686 1d3e d4ac 77bf
00000340: 50fb ad3d e34b d1be fd9d 3d3e 9e3f 0ebf
00000350: 1a41 2d3f f464 26bf cf1b 943e 2fd1 0abf
00000360: 0044 183f b33e 433f 5d36 97bf c5dd 8d3e
00000370: a752 81bf f5d4 5cbf 079c d03e 7274 e13e
00000380: c4b9 453d 0af6 143f 2bda 08bf 5fde 83bf
00000390: 50d9 463e a5e3 41bf f278 2b3f fcfd a13e
000003a0: 323b a2be 3f03 47bf 2d41 1e3d 14cf e7bd
000003b0: 5f83 c8bd c0cf b73e ffeb 4bbf 4421 e2bd
000003c0: 322e bbbe 71a4 3dbf 8928 00bf 80bd 1bbf
000003d0: 5420 8ebf 52f9 9bbd 36b4 16be 7e42 43bf
000003e0: 6f5f 21bf 2f4d ca3e 1b1e 713e 9daa 6cbe
000003f0: 3a46 143d e8d8 33bf 876f 7e3e 9543 15be

arith.constant5 f4 [128]
0.31654572 0.6754732 -0.1108925 0.28851494 0.3466995 -0.3349054 0.14906071 1.0206649
-0.14132561 0.064772286 -0.058407675 -0.6676865 -0.35042378 -0.82176167 -0.2856857 -0.08110398
-0.03891492 -0.21829808 0.8198074 0.35776788 0.22791655 -0.31641957 0.2757174 -0.28049433
0.1538723 0.5499009 1.0232989 0.52075464 0.28738517 -0.3504582 -0.4953145 0.8570277
0.778677 -0.52872884 0.9349259 -0.22102506 0.13855012 -0.13468242 0.2465815 -0.14728875
0.071383424 0.35342523 -0.3295837 -0.41756 -0.2944464 0.6547026 -0.81475765 0.14875562
0.21114348 0.19469152 -0.061520517 -0.32670733 -0.03795404 -0.44360322 0.37973374 0.36079234
0.060214605 0.024496293 0.43437612 0.060170323 0.19523987 -0.16004062 -0.23058937 0.8422082
-0.40116447 0.0017235975 -0.4076678 0.24498734 0.030363606 -0.40063834 0.0054935804 0.3661443
0.14880776 0.29207578 -0.052677166 0.18265082 0.39072788 0.3125965 0.08162764 0.64163005
-0.7639888 -0.029786281 0.6872714 0.1938133 -0.94722825 0.3543043 0.7544495 -0.2852691
-0.28007632 -0.057477217 -0.40978375 0.6677767 -0.27401373 0.041009493 -0.36530778 -0.26456743
0.25544178 0.0011883791 0.16185239 0.5682882 -0.17771569 0.058716275 0.009002696 -0.16272822
-0.38301438 -0.22112527 0.18634231 -0.8679319 0.73480076 -0.13000283 -0.11515974 -0.42613554
0.7655531 0.13556993 -0.11492592 0.1201597 0.09618451 -0.04909472 -0.4557469 -0.058903072
0.56992984 0.2699708 0.5043792 -0.933384 0.028646374 0.50385845 0.0293369 0.43108916
00000000: 4812 a23e d0eb 2c3f 9b1b e3bd 3bb8 933e
00000010: 9982 b13e b878 abbe 5fa3 183e 26a5 823f
00000020: a9b7 10be 55a7 843d e33c 6fbd 81ed 2abf
00000030: bf6a b3be f95e 52bf 6545 92be d819 a6bd
00000040: 4065 1fbd 8889 5fbe e6de 513f 5a2d b73e
00000050: f562 693e bf01 a2be d52a 8d3e f49c 8fbe
00000060: b390 1d3e 4ec6 0c3f 75fb 823f 2d50 053f
00000070: 2624 933e 426f b3be dd99 fdbe 2b66 5b3f
00000080: 6057 473f c65a 07bf 4e57 6f3f 6554 62be
00000090: 15e0 0d3e 30ea 09be dc7f 7c3e ddd2 16be
000000a0: 7931 923d 27f4 b43e 32bf a8be 6dca d5be
000000b0: aec1 96be 979a 273f f593 50bf 6553 183e
000000c0: ff35 583e 375d 473e f0fc 7bbd 2f46 a7be
000000d0: b275 1bbd f61f e3be 766c c23e c6b9 b83e
000000e0: 97a3 763d 73ac c83c 8c66 de3e 2875 763d
000000f0: f6ec 473e b0e1 23be 9f1f 6cbe f59a 573f
00000100: 6e65 cdbe 56ea e13a d5b9 d0be f6dd 7a3e
00000110: 19bd f83c 7820 cdbe 7e03 b43b 4477 bb3e
00000120: 1061 183e f58a 953e 03c4 57bd d108 3b3e
00000130: 7c0d c83e a60c a03e 642c a73d de41 243f
00000140: c594 43bf 5c02 f4bc 05f1 2f3f fe76 463e
00000150: 8d7d 72bf 6067 b53e 9a23 413f cb0e 92be
00000160: 2a66 8fbe 3b6d 6bbd 2dcf d1be 6af3 2a3f
00000170: 874b 8cbe 92f9 273d 9f09 bbbe 6275 87be
00000180: 44c9 823e 63c3 9b3a a2bc 253e 567b 113f
00000190: 1afb 35be 7a80 703d 0b80 133c 3aa2 26be
000001a0: 761a c4be aa6e 62be 85d0 3e3e c930 5ebf
000001b0: e71b 3c3f 761f 05be dfd8 ebbd 702e dabe
000001c0: 4afb 433f d8d2 0a3e 485e ebbd 4a16 f63d
000001d0: 62fc c43d 8c17 49bd a857 e9be 5944 71bd
000001e0: ece6 113f 9d39 8a3e ff1e 013f 41f2 6ebf
000001f0: cdab ea3c defc 003f f053 f03c b8b7 dc3e

arith.constant6 f4 [448, 128]
-0.057212785 -0.020838216 0.00869811 -0.012467359 -0.0054399786 -0.050185934 -0.009693019 0.023973012
-0.016724933 0.07924601 -0.02646485 -0.09625495 0.013411758 0.05999342 -0.03529216 0.05808596
0.025703311 -0.04424594 -0.11643183 -0.11767206 0.006228105 -0.041362636 0.041771874 -0.05805507
0.0147969285 -0.13377494 0.02943439 -0.07640577 0.025779702 0.042022064 -0.024168126 -0.039338443
0.07687945 -0.046240203 -0.0768715 0.087313235 -0.0046594394 -0.06499435 -0.056816213 -0.036522258
-0.052093286 -0.06659915 0.084509924 -0.009576947 0.0072212494 -0.02832004 -0.10754006 0.020294027
0.08895637 -0.01107742 0.013913475 0.05428441 0.0138631435 0.043481197 -0.05423847 0.002667688
-0.122285165 -0.07820079 -0.058618043 -0.016035577 -0.031908 -0.10136916 -0.10987126 0.015290815
-0.06350099 -0.036299642 -0.011485407 0.048801962 -0.06450629 -0.007894868 -0.074302666 0.05360884
0.024329305 0.044300925 -0.03067689 -0.005467616 -0.058134507 0.053246465 -0.06653561 0.030084338
-0.07991542 -0.13389991 0.039121713 0.048622288 -0.07355462 -0.06506047 -0.0023882668 0.00842729
0.072580524 0.04779366 -0.0887418 0.017998502 0.071731016 -0.07470672 -0.021945046 -0.05734995
-0.047212478 0.030585378 0.03443035 -0.076722786 -0.052563142 0.022645285 0.038926955 -0.039256644
-0.061630834 0.02103245 -0.101916015 -0.009879968 -0.0793671 0.017271362 -0.049355958 -0.046528284
-0.021971207 -0.03628884 -0.028192353 0.041231308 -0.05816576 -0.08974711 0.03886931 -0.036034834
0.06480225 0.08924955 -0.025091583 0.0044878055 -0.16441254 0.1259643 -0.09511442 0.0011359077
-0.055787023 -0.06848271 0.04037978 -0.010223617 0.055992555 -0.035626937 -0.10413208 -0.059052225
0.010224068 0.06969409 -0.09106549 -0.100964025 -0.04690049 -0.08925127 -0.038753126 -0.075853944
-0.10302426 0.019616636 0.09467019 -0.051359996 -0.0089249415 0.040120494 -0.09485713 -0.034740835
-0.05496276 0.010373261 0.008575936 -0.08650784 -0.029711274 -0.064463966 0.064425856 0.00080117374
-0.01676312 0.034785114 0.06136831 0.0045677554 -0.008703321 0.021767957 0.026286349 -0.021839086
-0.010085158 -0.107345045 0.008115165 0.036507703 0.00018029683 -0.077746406 -0.07040577 -0.07186844
0.0020110854 -0.09359201 -0.0713218 -0.10789823 0.0388616 0.024139542 -0.08722942 0.029659092
0.005408836 0.100146644 -0.05967723 -0.03612821 -0.07163307 0.037869334 0.013505685 -0.07449882
-0.011793201 0.024767745 0.008589395 -0.10049768 0.0546724 0.022313138 -0.059143774 -0.0009410822
0.05048396 -0.09677375 -0.085307986 -0.055249024 -0.018106168 0.038600847 -0.10524207 0.09060044
-0.0696644 0.049505394 0.030218005 0.0011373855 -0.09465489 -0.09019674 -0.07738927 -0.056244295
-0.119864546 0.0159782 0.015424087 -0.068821795 0.019009322 0.042443052 -0.011460813 -0.060991496
-0.027234238 0.030564377 -0.037087183 0.07468175 -0.053197414 0.04558997 -0.09366795 -0.08393175
0.046217002 0.02805301 0.011236182 0.02605499 -0.07931925 0.021677932 -0.07199279 0.09693777
0.10497243 0.095165424 -0.12615845 0.049886517 -0.0013064696 -0.0018492828 -0.102944255 -0.029319555
0.04474437 0.009886581 0.0022724771 -0.14472523 -0.064813 0.018560437 -0.09020608 -0.01658659
00000000: f457 6abd e8b4 aabc 8482 0e3c e543 4cbc
00000010: d941 b2bb c48f 4dbd 78cf 1ebc 0d63 c43c
00000020: ba02 89bc bb4b a23d d0cc d8bc 5121 c5bd
00000030: fdbc 5b3c a9bb 753d 838e 10bd 8beb 6d3d
00000040: c08f d23c 3b3b 35bd d073 eebd 0dfe f0bd
00000050: 2215 cc3b de6b 29bd fc18 2b3d 27cb 6dbd
00000060: d16e 723c 4cfc 08be 6420 f13c a17a 9cbd
00000070: f42f d33c 541f 2c3d 3cfc c5bc 5921 21bd
00000080: f972 9d3d 5e66 3dbd ce6e 9dbd 48d1 b23d
00000090: 36ae 98bb c21b 85bd 1eb8 68bd 5d98 15bd
000000a0: c55f 55bd 2365 88bd 8a13 ad3d a1e8 1cbc
000000b0: 3ba0 ec3b 6eff e7bc f73d dcbd a93f a63c
000000c0: c22e b63d 117e 35bc 58f5 633c 5459 5e3d
000000d0: 3d22 633c 5719 323d 2829 5ebd 61d4 2e3b
000000e0: a570 fabd bc27 a0bd 7919 70bd 0b5d 83bc
000000f0: f7b1 02bd a29a cfbd 2f04 e1bd 5486 7a3c
00000100: cf0c 82bd efae 14bd 4a2d 3cbc 91e4 473d
00000110: e01b 84bd 7a59 01bc ff2b 98bd f194 5b3d
00000120: 404e c73c e374 353d 1a4e fbbc b029 b3bb
00000130: 731e 6ebd f718 5a3d d243 88bd 6e73 f63c
00000140: b2aa a3bd 0f1d 09be 173e 203d 2a28 473d
00000150: cea3 96bd 6c3e 85bd 7884 1cbb 9e12 0a3c
00000160: 19a5 943d 49c3 433d 43be b5bd 9871 933c
00000170: b6e7 923d d6ff 98bd 19c6 b3bc c8e7 6abd
00000180: df61 41bd 308e fa3c d706 0d3d d620 9dbd
00000190: 734c 57bd 9b82 b93c df71 1f3d 93cb 20bd
000001a0: 9d70 7cbd 3f4c ac3c 58b9 d0bd 97df 21bc
000001b0: 388b a2bd ac7c 8d3c 7929 4abd 7194 3ebd
000001c0: f6fc b3bc 9ba3 14bd a6f3 e6bc 29e2 283d
000001d0: 383f 6ebd 55cd b7bd 6d35 1f3d 4399 13bd
000001e0: 0bb7 843d 78c8 b63d dd8c cdbc 710e 933b
000001f0: c35b 28be c9fc 003e 59cb c2bd bde2 943a
00000200: ef80 64bd aa40 8cbd 4565 253d f580 27bc
00000210: 7358 653d 8ded 11bd 3343 d5bd bfe0 71bd
00000220: d982 273c c6bb 8e3d 8b80 babd 3ac6 cebd
00000230: ba1a 40bd 5fc9 b6bd 99bb 1ebd 5059 9bbd
00000240: 62fe d2bd 11b3 a03c 72e2 c13d dc5e 52bd
00000250: eb39 12bc 6355 243d 7444 c2bd 684c 0ebd
00000260: a220 61bd 9cf4 293c 1582 0c3c 062b b1bd
00000270: 0f65 f3bc af05 84bd b4f1 833d dc05 523a
00000280: d052 89bc d67a 0e3d 565d 7b3d 1cad 953b
00000290: 6098 0ebc b752 b23c 7856 d73c e2e7 b2bc
000002a0: 383c 25bc b8d7 dbbd 78f5 043c 1a89 153d
000002b0: 100e 3d39 8239 9fbd e630 90bd c32f 93bd
000002c0: 6acc 033b 2bad bfbd 2a11 92bd bff9 dcbd
000002d0: 572d 1f3d 4ac0 c53c 57a5 b2bd a0f7 f23c
000002e0: 9b3c b13b af19 cd3d 1c70 74bd 2dfb 13bd
000002f0: 5cb4 92bd e01c 1b3d f346 5d3c d692 98bd
00000300: 4538 41bc bae5 ca3c 89ba 0c3c bad1 cdbd
00000310: 2bf0 5f3d 0bca b63c be40 72bd f5b2 76ba
00000320: 45c8 4e3d 5131 c6bd f4b5 aebd cd4c 62bd
00000330: 6353 94bc ec1b 1e3d 2889 d7bd b98c b93d
00000340: 35ac 8ebd 2bc6 4a3d c08b f73c 5314 953a
00000350: 6cda c1bd 12b9 b8bd 447e 9ebd 6b60 66bd
00000360: 8b7b f5bd b7e4 823c 4fb5 7c3c 71f2 8cbd
00000370: 70b9 9b3c c4d8 2d3d 22c6 3bbc 38d2 79bd
00000380: 561a dfbc 2562 fa3c bbe8 17bd bff2 983d
00000390: 88e5 59bd 8cbc 3a3d fbd4 bfbd 69e4 abbd
000003a0: 0a4e 3d3d 6dcf e53c f717 383c 4671 d53c
000003b0: 2272 a2bd eb95 b13c f570 93bd 4f87 c63d
000003c0: c9fb d63d 17e6 c23d ae2f 01be ce55 4c3d
000003d0: d83d abba a263 f2ba 70d4 d2bd 902f f0bc
000003e0: df45 373d 54fb 213c d7ed 143b da32 14be
000003f0: aebc 84bd 0f0c 983c f7bd b8bd 9ae0 87bc

arith.constant7 f4 [448]
-0.019093191 0.037038483 0.030448582 0.011461576 0.02565264 0.046827912 -0.0021720272 0.0029017993
0.044812832 -0.0016540735 -0.031191424 -0.046765123 0.07060333 0.059083648 -0.008994782 0.021746736
-0.04616025 0.020097893 -0.005975691 0.0051371455 -0.008421617 0.01109551 0.011969336 0.0010978449
-0.007875104 0.015243802 0.02141129 0.023115769 0.03222679 0.033296656 0.0338066 0.06151364
0.02470374 -0.010543207 0.043491945 -0.0077569904 0.07250696 0.0102902325 0.0477563 0.046885215
0.074478745 -0.0071721976 0.01332235 0.018911548 -0.042581297 0.047427166 -0.012396205 -0.014787372
0.026999062 0.02185879 -0.035472874 -0.0204858 -0.026131561 -0.01226107 -0.012079005 0.05253053
0.041994654 0.018007625 0.037326332 0.008221475 0.056614652 -0.031718608 0.029231325 0.03609915
-0.027449477 -0.01757535 -0.013061598 0.025308404 -0.017178703 -0.028592378 0.033398964 -0.010363262
0.0066520763 0.02073283 0.049140546 0.03914995 -0.02840658 -0.006020655 -0.0057958257 0.017049436
0.05663161 -0.02132246 0.022416733 0.00071252836 0.00942871 0.00866448 -0.09794864 -0.045389637
0.013080543 -0.014448702 -0.03891402 0.033697132 0.02332859 0.00714308 0.03502149 -0.042603526
0.045656867 0.0502075 0.038543973 0.03382545 0.08921122 0.043918867 0.06454482 -0.022693893
-0.0096641835 0.0473227 0.017251419 0.015047858 -0.02638482 -0.026218515 0.02650868 -0.00698726
0.0021687583 -0.02616589 -0.0068904026 0.028916838 0.025006844 -0.008098196 0.025176514 0.01241527
0.042472113 0.011879781 0.025790237 0.061852977 0.039721385 0.077289574 0.01571052 0.033811025
0.01976755 0.048342653 -0.0107561145 -0.012750069 -0.050240666 0.0030043544 0.035759587 0.06169435
0.013209972 0.050242122 0.022795796 -0.016724726 -0.015635442 0.0040757232 0.10340814 0.014421885
-0.03205384 0.056059733 -0.037509557 0.0142288525 0.04641582 0.0053217374 -0.027632521 -0.017305346
0.007631855 0.042991575 -0.026597867 -0.041152094 0.066294774 0.0265246 0.035999287 0.04096625
0.023946984 -0.049892284 0.017152132 0.006622906 0.06126248 0.037862524 0.0068046306 0.011621665
0.0060548447 0.046949998 0.02095958 0.04017988 -0.039280552 -0.044330757 0.016816229 0.027725112
-0.020139772 0.02176377 -0.040576622 -0.009017535 0.0019926426 0.0059640747 -0.014310459 0.049340524
0.022818077 0.017993731 0.037913438 0.074486874 0.04404775 0.013012613 -0.014624107 0.0017450155
0.0036498415 -0.037963692 -0.0022171512 0.02467831 0.010402581 -0.002842086 -0.011697308 0.0541296
-0.01415987 0.012245756 0.03211415 0.050748795 0.02077463 0.026096897 -0.026729338 0.038826298
-0.04262391 0.038598742 0.053507976 0.056005597 0.016323438 -0.094575405 -0.01966048 0.053406376
0.010685378 0.0122603625 0.06784304 0.00093961536 -0.0027606266 0.055295624 0.020974647 -0.017771931
0.015919501 -0.0066362503 -0.056310195 -0.043112922 0.054939687 0.016906133 -0.007250348 0.0037793354
-0.016815906 0.062596545 -0.011916408 0.009192326 0.03508519 0.023546886 0.03961055 0.059839264
0.0040026614 0.01808486 0.039663263 0.01883947 0.0013768981 -0.007886553 0.010612733 -0.028579742
0.006796254 -0.014327006 0.0014175668 -0.05451214 0.035679135 0.040842295 -0.012204739 0.049177997
00000000: 5369 9cbc aab5 173d 4e6f f93c 56c9 3b3c
00000010: 7c25 d23c a0ce 3f3d 9258 0ebb 1d2c 3e3b
00000020: a98d 373d 7fcd d8ba 2885 ffbc c98c 3fbd
00000030: 7b98 903d b201 723d da5e 13bc 3626 b23c
00000040: 8812 3dbd 56a4 a43c bbcf c3bb 8055 a83b
00000050: d2fa 09bc f1c9 353c 091b 443c 90e5 8f3a
00000060: 9506 01bc 24c1 793c bb66 af3c 485d bd3c
00000070: 3d00 043d 1362 083d ca78 0a3d baf5 7b3d
00000080: 7f5f ca3c 6abd 2cbc 9c24 323d 5a2e febb
00000090: 877e 943d 5d98 283c 1c9c 433d b60a 403d
000000a0: 5088 983d c104 ebbb fc45 5a3c 64ec 9a3c
000000b0: ba69 2ebd fd42 423d 7419 4bbc bc46 72bc
000000c0: 232d dd3c 3511 b33c 014c 11bd d6d1 a7bc
000000d0: db11 d6bc a8e2 48bc 05e7 45bc 412a 573d
000000e0: 9602 2c3d ba84 933c 7fe3 183d 5eb3 063c
000000f0: c4e4 673d 5feb 01bd 8876 ef3c b4dc 133d
00000100: badd e0bc 2efa 8fbc 5000 56bc 9253 cf3c
00000110: 5aba 8cbc 903a eabc 5acd 083d acca 29bc
00000120: a9f9 d93b e5d7 a93c 9947 493d b35b 203d
00000130: ebb4 e8bc ea48 c5bb e9ea bdbb 42ab 8b3c
00000140: 8cf6 673d 71ac aebc 4ca3 b73c f8c8 3a3a
00000150: e07a 1a3c 77f5 0d3c 4c99 c8bd 7cea 39bd
00000160: c64f 563c 40ba 6cbc 4f64 1fbd 0106 0a3d
00000170: 991b bf3c 7f10 ea3b b272 0f3d 0981 2ebd
00000180: b202 3b3d 61a6 4d3d 49e0 1d3d 8e8c 0a3d
00000190: 5fb4 b63d 45e4 333d 1330 843d 8be8 b9bc
000001a0: 8656 1ebc 73d5 413d d952 8d3c 4a8b 763c
000001b0: fa24 d8bc 36c8 d6bc bb28 d93c 63f5 e4bb
000001c0: ba21 0e3b d959 d6bc e3c8 e1bb 01e3 ec3c
000001d0: 27db cc3c 4cae 04bc fa3e ce3c 6b69 4b3c
000001e0: 3df7 2d3d 6aa3 423c 0c46 d33c 8c59 7d3d
000001f0: e4b2 223d ff49 9e3d 59b3 803c 6e7d 0a3d
00000200: 8fef a13c f202 463d 6a3a 30bc aae5 50bc
00000210: 28c9 4dbd b4e4 443b a578 123d 37b3 7c3d
00000220: a36e 583c afca 4d3d 40be ba3c 4b02 89bc
00000230: e615 80bc a58d 853b a6c7 d33d c549 6c3c
00000240: e34a 03bd e49e 653d 9fa3 19bd 2220 693c
00000250: 841e 3e3d f861 ae3b 995d e2bc f1c3 8dbc
00000260: a414 fa3b ef17 303d c5e3 d9bc 198f 28bd
00000270: 8ec5 873d 1e4a d93c fd73 133d 3acc 273d
00000280: 772c c43c da5b 4cbd a182 8c3c f604 d93b
00000290: 5eee 7a3d bc15 1b3d 61f9 de3b cc68 3e3c
000002a0: b867 c63b a44e 403d 6db3 ab3c a893 243d
000002b0: a5e4 20bd 2b94 35bd 30c2 893c c61f e33c
000002c0: 2afc a4bc ef49 b23c ac33 26bd 48be 13bc
000002d0: ff96 023b 496e c33b 6a76 6abc 4a19 4a3d
000002e0: faec ba3c 9767 933c 1f4b 1b3d 938c 983d
000002f0: 6a6b 343d db32 553c f399 6fbc 01b9 e43a
00000300: 2e32 6f3b d17f 1bbd a04d 11bb 2b2a ca3c
00000310: 966f 2a3c 4a42 3abb 11a6 3fbc 00b7 5d3d
00000320: cdfe 67bc 6ca2 483c 208a 033d f8dd 4f3d
00000330: 8f2f aa3c 29c9 d53c 7cf7 dabc 5308 1f3d
00000340: 6996 2ebd b719 1e3d 2e2b 5b3d 2066 653d
00000350: bbb8 853c c0b0 c1bd 040f a1bc a5c0 5a3d
00000360: b911 2f3c b0df 483c 4bf1 8a3d 8550 763a
00000370: a1eb 34bb aa7d 623d 06d3 ab3c 7196 91bc
00000380: 9d69 823c e774 d9bb 85a5 66bd 2d97 30bd
00000390: 7008 613d bb7e 8a3c 5494 edbb baae 773b
000003a0: 83c1 89bc 9e32 803d 0a3d 43bc 699b 163c
000003b0: 7db5 0f3d 66e5 c03c ac3e 223d 041a 753d
000003c0: c228 833b b326 943c f275 223d 3b55 9a3c
000003d0: 0979 b43a 9a36 01bc 07e1 2d3c 1020 eabc
000003e0: 1cb3 de3b d2bb 6abc a6cd b93a 1f48 5fbd
000003f0: 4924 123d 404a 273d 63f6 47bc de6e 493d

arith.constant8 f4 [128]
0.022301897 0.02975087 0.09683715 0.02213988 0.01641488 0.033451464 0.12687868 -0.05035407
0.021577943 -0.03736597 -0.010812132 0.22758025 0.009978014 -0.049554605 0.0907702 -0.0053028725
0.10593119 0.013482495 0.17027673 -0.122294866 -0.029550089 0.08385517 0.1578369 0.034229055
0.031421326 0.011450013 0.08127643 -0.08841986 -0.06576082 -0.0272977 0.06806591 0.08686731
0.04561306 0.049024504 0.14291386 0.0031895707 -0.0049431403 0.024397211 0.03534798 0.006334151
-0.07268511 0.08685228 0.09606095 -0.057015534 0.040032495 0.07028744 -0.03830983 0.12535343
0.12413703 -0.006979067 -0.022093136 -0.006920201 0.110774264 0.078256 0.09612581 0.011275827
-0.02423112 -0.0034270985 0.09091405 -0.005328779 0.09510062 -0.03804098 -0.029315647 0.0124013
-0.039183043 -0.029631823 -0.08273351 0.0458342 0.026494494 0.021736467 0.06919292 0.06224938
0.064290866 -0.012758289 0.12087848 -0.09752686 0.06504712 -0.05924285 0.12066553 -0.026590321
0.05149899 0.0998194 0.04208677 0.027929028 0.071187705 0.06377887 -0.011109611 0.13769475
0.020768585 -0.015366384 -0.010743041 -0.077433005 0.05068003 0.0544663 0.084419034 0.09403626
0.028657518 0.1203466 0.09215451 -0.0012215886 -0.09195941 0.054021142 0.09028521 0.07110949
0.111157924 -0.061421145 0.033765007 -0.0051427106 0.066813834 -0.0022518695 -0.043214966 -0.109736174
0.04595872 0.030785602 0.10465518 0.07066365 0.044066414 -0.016581306 0.04187987 -0.0066693206
0.1625053 -0.00074969965 0.037272412 -0.012951795 -0.0064058253 0.057604812 0.1827352 0.060741227
00000000: 78b2 b63c 19b8 f33c 8e52 c63d b25e b53c
00000010: 8078 863c 6704 093d 7cec 013e 1240 4ebd
00000020: 3ac4 b03c 0f0d 19bd 5e25 31bc cc0a 693e
00000030: d37a 233c c5f9 4abd bae5 b93d b8c3 adbb
00000040: 74f2 d83d afe5 5c3c 065d 2e3e bb75 fabd
00000050: 0713 f2bc 42bc ab3d ff9f 213e c433 0c3d
00000060: a6b3 003d d698 3b3c 4274 a63d 7915 b5bd
00000070: 9cad 86bd 6d9f dfbc 2466 8b3d 7de7 b13d
00000080: c3d4 3a3d ebcd 483d 0358 123e 1e08 513b
00000090: 11fa a1bb a9dc c73c 0bc9 103d b68e cf3b
000000a0: eedb 94bd 9cdf b13d 9abb c43d 1f89 69bd
000000b0: 1df9 233d ddf2 8f3d c5ea 1cbd a65c 003e
000000c0: 8e3b fe3d a8b0 e4bb aafc b4bc dac2 e2bb
000000d0: 9edd e23d af44 a03d 9cdd c43d 3fbe 383c
000000e0: 5780 c6bc 2c99 60bb 2531 ba3d 0a9d aebb
000000f0: 1dc4 c23d dcd0 1bbd 5e27 f0bc d22e 4b3c
00000100: 667e 20bd 70be f2bc 3070 a9bd a4bc 3b3d
00000110: fb0a d93c ad10 b23c 05b5 8d3d 35f9 7e3d
00000120: eeaa 833d 2508 51bc 238f f73d 2abc c7bd
00000130: 6d37 853d a1a8 72bd 7d1f f73d f2d3 d9bc
00000140: 9bf0 523d 1d6e cc3d 2d63 2c3d 6bcb e43c
00000150: dcca 913d 7f9e 823d 1605 36bc daff 0c3e
00000160: e122 aa3c 49c3 7bbc 9403 30bc 3295 9ebd
00000170: dd95 4f3d 0e18 5f3d e3e3 ac3d 1596 c03d
00000180: 2cc3 ea3c 4778 f63d 81bb bc3d b61d a0ba
00000190: 3755 bcbd 4645 5d3d 74e7 b83d daa1 913d
000001a0: c4a6 e33d bd94 7bbd 2d4d 0a3d 2f84 a8bb
000001b0: b1d5 883d 1a94 13bb 2d02 31bd 5cbd e0bd
000001c0: 363f 3c3d 1632 fc3c 7455 d63d 1bb8 903d
000001d0: fc7e 343d 85d5 87bc 3a8a 2b3d 518a dabb
000001e0: ca67 263e 7e87 44ba f5aa 183d c433 54bc
000001f0: f5e7 d1bb 06f3 6b3d f01e 3b3e cbcb 783d

functional_1/batch_normalization_1_2/batchnorm/mul f4 [128]
0.6625305 0.5811433 0.5668342 0.7485602 0.7871707 0.73922646 0.6196001 0.73916316
0.62745583 0.6185392 0.68224037 0.6629699 0.6706871 0.7472901 0.7126855 0.79346806
0.6542226 0.7743933 0.79314756 0.8182238 0.67013067 0.8112784 0.6171264 0.7142637
0.77095973 0.62530696 0.64064544 0.5997056 0.7353186 0.8566858 0.7382915 0.7270125
0.60624474 0.5546084 0.7223194 0.7407386 0.65731215 0.66242635 0.5865866 0.62663525
0.7217783 0.70729214 0.67181724 0.84838957 0.86256146 0.6896041 0.9888022 0.658375
0.53621924 0.68195444 0.69367355 0.6780329 0.6124435 0.649096 0.6906384 0.7861299
0.6681468 0.78118587 0.6110145 0.7251498 0.57542896 0.651563 0.8130657 0.6953521
0.7624854 0.64495105 0.6319334 0.6896432 0.67192113 0.68056417 0.612711 0.6154359
0.80111015 0.8399233 0.6172168 0.69173354 0.6570109 0.7019033 0.7424568 0.6661662
0.6033895 0.732347 0.8753052 0.6215486 0.68847084 0.6570808 0.7523376 0.77591646
0.60909766 0.7676782 0.7070877 0.67107695 0.70433587 0.71303 0.6161167 0.767705
0.67648345 0.6246202 0.63481975 0.6059534 0.70563006 0.7745622 0.6844945 0.81089836
0.831341 0.78816247 0.6777194 0.64669466 0.5418138 0.73331964 0.80126095 0.765843
0.78086716 0.7291625 0.6853738 0.69055897 0.70164675 0.80956525 0.7276091 0.72177875
0.6995444 0.73887014 0.5875972 0.6414437 0.5395388 0.6127997 0.65694153 0.7839897
00000000: 999b 293f cfc5 143f 0c1c 113f a4a1 3f3f
00000010: 0584 493f f23d 3d3f 1d9e 1e3f cc39 3d3f
00000020: f2a0 203f 9658 1e3f 4ea7 2e3f 65b8 293f
00000030: 26b2 2b3f 674e 3f3f 8f72 363f b920 4b3f
00000040: 227b 273f a43e 463f b80b 4b3f 1d77 513f
00000050: af8d 2b3f f1af 4f3f fffb 1d3f fcd9 363f
00000060: 9e5d 453f 1e14 203f 5701 243f 4e86 193f
00000070: d73d 3c3f c34f 5b3f ac00 3d3f 7e1d 3a3f
00000080: db32 1b3f d1fa 0d3f ede9 383f 0ba1 3d3f
00000090: 9c45 283f c694 293f 8a2a 163f 2b6b 203f
000000a0: 76c6 383f 1911 353f 37fc 2b3f 0f30 593f
000000b0: d4d0 5c3f e589 303f 2422 7d3f 448b 283f
000000c0: aa45 093f 9194 2e3f 9794 313f 9093 2d3f
000000d0: 19c9 1c3f 282b 263f aecd 303f cf3f 493f
000000e0: ab0b 2b3f ccfb 473f 726b 1c3f 6ba3 393f
000000f0: 504f 133f d5cc 263f 1325 503f 9802 323f
00000100: 3e32 433f 831b 253f 63c6 213f 758c 303f
00000110: 0603 2c3f 7439 2e3f a1da 1c3f 358d 1d3f
00000120: 8e15 4d3f 3705 573f ec01 1e3f 7315 313f
00000130: de31 283f efaf 333f a611 3e3f de89 2a3f
00000140: bc77 1a3f 187b 3b3f 0014 603f cf1d 1f3f
00000150: a03f 303f 7336 283f 3299 403f 76a2 463f
00000160: d3ed 1b3f 8f86 443f b303 353f b3cb 2b3f
00000170: 5b4f 343f 2289 363f d3b9 1d3f 5188 443f
00000180: 052e 2d3f 1ce7 1f3f 8c83 223f c31f 1b3f
00000190: 2ca4 343f b549 463f 083b 2f3f 0997 4f3f
000001a0: c4d2 543f 04c5 493f 057f 2d3f c88d 253f
000001b0: 4fb4 0a3f d6ba 3b3f 701f 4d3f 490e 443f
000001c0: e9e6 473f 65aa 3a3f a874 2f3f 79c8 303f
000001d0: 1f9f 333f ab3f 4f3f 9744 3a3f 7ec6 383f
000001e0: 5815 333f 9826 3d3f c56c 163f a835 243f
000001f0: 371f 0a3f 71e0 1c3f 522d 283f 8db3 483f

functional_1/batch_normalization_1_2/batchnorm/sub f4 [128]
-0.35790226 -0.4539993 -0.40195268 -0.4456842 -0.41443712 -0.4078833 -0.4315793 -0.568384
-0.51664126 -0.44826397 -0.4441113 -0.37845013 -0.40760493 -0.43616074 -0.5028161 -0.37829283
-0.4053985 -0.36977577 -0.40671656 -0.5231544 -0.49177742 -0.3527944 -0.48580274 -0.37854448
-0.40651768 -0.44101143 -0.5186512 -0.533303 -0.48326248 -0.32548472 -0.42728487 -0.46439382
-0.5289934 -0.41437513 -0.47940734 -0.4070374 -0.4645388 -0.34016728 -0.46487346 -0.44894165
-0.44497025 -0.4032457 -0.42063397 -0.36745963 -0.35496232 -0.42853835 -0.3626981 -0.42776096
-0.43196195 -0.37951118 -0.31749532 -0.44690537 -0.40597022 -0.40468618 -0.3475649 -0.43605655
-0.46132678 -0.36324346 -0.43966016 -0.49577984 -0.45304307 -0.3312696 -0.3245581 -0.47974405
-0.40198475 -0.38172883 -0.4335439 -0.44181418 -0.39772928 -0.43036574 -0.40676036 -0.44720104
-0.44017494 -0.385359 -0.46772912 -0.46310028 -0.48206848 -0.4796485 -0.48039845 -0.41695064
-0.37794176 -0.39078647 -0.5027904 -0.46297896 -0.3371762 -0.4748927 -0.46902362 -0.37045556
-0.41450906 -0.4055061 -0.34889534 -0.4845714 -0.41619885 -0.3964498 -0.3616283 -0.4807957
-0.5410107 -0.48241627 -0.41527194 -0.37780857 -0.40758714 -0.38237146 -0.48918667 -0.32777146
-0.3784873 -0.4118436 -0.3872064 -0.48976505 -0.44221905 -0.44423103 -0.46408457 -0.34458384
-0.46576497 -0.39448637 -0.419303 -0.39084774 -0.48287058 -0.4425824 -0.44645858 -0.38935176
-0.41214883 -0.53888667 -0.42972508 -0.32650352 -0.46311653 -0.44954398 -0.357039 -0.48102146
00000000: f73e b7be 9972 e8be becc cdbe b830 e4be
00000010: 1a31 d4be 14d6 d0be f6f7 dcbe 9d81 11bf
00000020: 9a42 04bf db82 e5be 8e62 e3be 37c4 c1be
00000030: 98b1 d0be 7650 dfbe 8eb8 00bf 99af c1be
00000040: 6490 cfbe 4053 bdbe 273d d0be 72ed 05bf
00000050: 40ca fbbe 78a1 b4be 23bb f8be 95d0 c1be
00000060: 1623 d0be 40cc e1be 53c6 04bf 8c86 08bf
00000070: 2e6e f7be efa5 a6be 15c5 dabe 07c5 edbe
00000080: 1d6c 07bf fa28 d4be e174 f5be 3567 d0be
00000090: 08d8 edbe 682a aebe e503 eebe aedb e5be
000000a0: 24d3 e3be 3876 cebe 565d d7be ab23 bcbe
000000b0: 9fbd b5be 6169 dbbe 91b3 b9be 7c03 dbbe
000000c0: 1e2a ddbe 4a4f c2be bf8e a2be c8d0 e4be
000000d0: 54db cfbe 0733 cfbe 07f4 b1be ce42 dfbe
000000e0: 0633 ecbe 0cfb b9be 231b e1be dbd6 fdbe
000000f0: 43f5 e7be 2b9c a9be 7b2c a6be 03a1 f5be
00000100: f2d0 cdbe f671 c3be 77f9 ddbe 7835 e2be
00000110: 2ca3 cbbe e658 dcbe e542 d0be 89f7 e4be
00000120: 9c5e e1be c64d c5be 317a efbe 7b1b edbe
00000130: aed1 f6be 7d94 f5be c9f6 f5be 8e7a d5be
00000140: 9581 c1be 2a15 c8be dfb6 00bf 940b edbe
00000150: 5ca2 acbe 2325 f3be dd23 f0be 5aac bdbe
00000160: 883a d4be 7f9e cfbe 69a2 b2be be19 f8be
00000170: 0418 d5be 78fb cabe 5827 b9be db2a f6be
00000180: ad7f 0abf 44ff f6be 869e d4be 2070 c1be
00000190: 43af d0be 31c6 c3be ad76 fabe a9d1 a7be
000001a0: 16c9 c1be 2add d2be eb3f c6be 7cc2 fabe
000001b0: 896a e2be 4072 e3be 7e9c edbe 4b6d b0be
000001c0: bf78 eebe 1efa c9be e2ae d6be 321d c8be
000001d0: d03a f7be 299a e2be 3896 e4be 1d59 c7be
000001e0: 2c05 d3be 7af4 09bf ed04 dcbe 782b a7be
000001f0: 9c1d edbe a12a e6be d1cd b6be 7248 f6be
